Model
Model: "model_163"
________________________________________________________________________________
Layer (type)              Output Shape      Param #  Connected to               
================================================================================
input_307 (InputLayer)    [(None, 20)]      0                                   
________________________________________________________________________________
dense_642 (Dense)         (None, 32)        672      input_307[0][0]            
________________________________________________________________________________
batch_normalization_347 ( (None, 32)        128      dense_642[0][0]            
________________________________________________________________________________
dropout_298 (Dropout)     (None, 32)        0        batch_normalization_347[0][
________________________________________________________________________________
dense_643 (Dense)         (None, 16)        528      dropout_298[0][0]          
________________________________________________________________________________
batch_normalization_348 ( (None, 16)        64       dense_643[0][0]            
________________________________________________________________________________
dropout_299 (Dropout)     (None, 16)        0        batch_normalization_348[0][
________________________________________________________________________________
dense_644 (Dense)         (None, 16)        272      dropout_299[0][0]          
________________________________________________________________________________
batch_normalization_349 ( (None, 16)        64       dense_644[0][0]            
________________________________________________________________________________
dropout_300 (Dropout)     (None, 16)        0        batch_normalization_349[0][
________________________________________________________________________________
dense_645 (Dense)         (None, 16)        272      dropout_300[0][0]          
________________________________________________________________________________
batch_normalization_350 ( (None, 16)        64       dense_645[0][0]            
________________________________________________________________________________
dense_646 (Dense)         (None, 1)         17       batch_normalization_350[0][
________________________________________________________________________________
input_308 (InputLayer)    [(None, 1)]       0                                   
________________________________________________________________________________
add_51 (Add)              (None, 1)         0        dense_646[0][0]            
                                                     input_308[0][0]            
________________________________________________________________________________
dense_647 (Dense)         (None, 1)         2        add_51[0][0]               
================================================================================
Total params: 2,083
Trainable params: 1,921
Non-trainable params: 162
________________________________________________________________________________


