Model
Model: "model_52"
________________________________________________________________________________
Layer (type)              Output Shape      Param #  Connected to               
================================================================================
input_85 (InputLayer)     [(None, 20)]      0                                   
________________________________________________________________________________
dense_126 (Dense)         (None, 8)         168      input_85[0][0]             
________________________________________________________________________________
batch_normalization_53 (B (None, 8)         32       dense_126[0][0]            
________________________________________________________________________________
dropout_55 (Dropout)      (None, 8)         0        batch_normalization_53[0][0
________________________________________________________________________________
dense_127 (Dense)         (None, 8)         72       dropout_55[0][0]           
________________________________________________________________________________
batch_normalization_54 (B (None, 8)         32       dense_127[0][0]            
________________________________________________________________________________
dropout_56 (Dropout)      (None, 8)         0        batch_normalization_54[0][0
________________________________________________________________________________
dense_128 (Dense)         (None, 1)         9        dropout_56[0][0]           
________________________________________________________________________________
input_86 (InputLayer)     [(None, 1)]       0                                   
________________________________________________________________________________
Add (Add)                 (None, 1)         0        dense_128[0][0]            
                                                     input_86[0][0]             
________________________________________________________________________________
dense_129 (Dense)         (None, 1)         2        Add[0][0]                  
================================================================================
Total params: 315
Trainable params: 281
Non-trainable params: 34
________________________________________________________________________________


