Model
Model: "model_187"
________________________________________________________________________________
Layer (type)              Output Shape      Param #  Connected to               
================================================================================
input_355 (InputLayer)    [(None, 20)]      0                                   
________________________________________________________________________________
dense_786 (Dense)         (None, 16)        336      input_355[0][0]            
________________________________________________________________________________
batch_normalization_443 ( (None, 16)        64       dense_786[0][0]            
________________________________________________________________________________
dropout_370 (Dropout)     (None, 16)        0        batch_normalization_443[0][
________________________________________________________________________________
dense_787 (Dense)         (None, 32)        544      dropout_370[0][0]          
________________________________________________________________________________
batch_normalization_444 ( (None, 32)        128      dense_787[0][0]            
________________________________________________________________________________
dropout_371 (Dropout)     (None, 32)        0        batch_normalization_444[0][
________________________________________________________________________________
dense_788 (Dense)         (None, 8)         264      dropout_371[0][0]          
________________________________________________________________________________
batch_normalization_445 ( (None, 8)         32       dense_788[0][0]            
________________________________________________________________________________
dropout_372 (Dropout)     (None, 8)         0        batch_normalization_445[0][
________________________________________________________________________________
dense_789 (Dense)         (None, 16)        144      dropout_372[0][0]          
________________________________________________________________________________
batch_normalization_446 ( (None, 16)        64       dense_789[0][0]            
________________________________________________________________________________
dense_790 (Dense)         (None, 1)         17       batch_normalization_446[0][
________________________________________________________________________________
input_356 (InputLayer)    [(None, 1)]       0                                   
________________________________________________________________________________
add_75 (Add)              (None, 1)         0        dense_790[0][0]            
                                                     input_356[0][0]            
________________________________________________________________________________
dense_791 (Dense)         (None, 1)         2        add_75[0][0]               
================================================================================
Total params: 1,595
Trainable params: 1,449
Non-trainable params: 146
________________________________________________________________________________


