Model
Model: "model_56"
________________________________________________________________________________
Layer (type)              Output Shape      Param #  Connected to               
================================================================================
input_93 (InputLayer)     [(None, 20)]      0                                   
________________________________________________________________________________
dense_142 (Dense)         (None, 8)         168      input_93[0][0]             
________________________________________________________________________________
batch_normalization_61 (B (None, 8)         32       dense_142[0][0]            
________________________________________________________________________________
dropout_63 (Dropout)      (None, 8)         0        batch_normalization_61[0][0
________________________________________________________________________________
dense_143 (Dense)         (None, 16)        144      dropout_63[0][0]           
________________________________________________________________________________
batch_normalization_62 (B (None, 16)        64       dense_143[0][0]            
________________________________________________________________________________
dropout_64 (Dropout)      (None, 16)        0        batch_normalization_62[0][0
________________________________________________________________________________
dense_144 (Dense)         (None, 1)         17       dropout_64[0][0]           
________________________________________________________________________________
input_94 (InputLayer)     [(None, 1)]       0                                   
________________________________________________________________________________
Add (Add)                 (None, 1)         0        dense_144[0][0]            
                                                     input_94[0][0]             
________________________________________________________________________________
dense_145 (Dense)         (None, 1)         2        Add[0][0]                  
================================================================================
Total params: 427
Trainable params: 377
Non-trainable params: 50
________________________________________________________________________________


