Model
Model: "model_103"
________________________________________________________________________________
Layer (type)              Output Shape      Param #  Connected to               
================================================================================
input_187 (InputLayer)    [(None, 20)]      0                                   
________________________________________________________________________________
dense_330 (Dense)         (None, 8)         168      input_187[0][0]            
________________________________________________________________________________
batch_normalization_155 ( (None, 8)         32       dense_330[0][0]            
________________________________________________________________________________
dropout_157 (Dropout)     (None, 8)         0        batch_normalization_155[0][
________________________________________________________________________________
dense_331 (Dense)         (None, 8)         72       dropout_157[0][0]          
________________________________________________________________________________
batch_normalization_156 ( (None, 8)         32       dense_331[0][0]            
________________________________________________________________________________
dropout_158 (Dropout)     (None, 8)         0        batch_normalization_156[0][
________________________________________________________________________________
dense_332 (Dense)         (None, 1)         9        dropout_158[0][0]          
________________________________________________________________________________
input_188 (InputLayer)    [(None, 1)]       0                                   
________________________________________________________________________________
Add (Add)                 (None, 1)         0        dense_332[0][0]            
                                                     input_188[0][0]            
________________________________________________________________________________
dense_333 (Dense)         (None, 1)         2        Add[0][0]                  
================================================================================
Total params: 315
Trainable params: 281
Non-trainable params: 34
________________________________________________________________________________


