Model
Model: "model_97"
________________________________________________________________________________
Layer (type)              Output Shape      Param #  Connected to               
================================================================================
input_175 (InputLayer)    [(None, 20)]      0                                   
________________________________________________________________________________
dense_306 (Dense)         (None, 8)         168      input_175[0][0]            
________________________________________________________________________________
batch_normalization_143 ( (None, 8)         32       dense_306[0][0]            
________________________________________________________________________________
dropout_145 (Dropout)     (None, 8)         0        batch_normalization_143[0][
________________________________________________________________________________
dense_307 (Dense)         (None, 8)         72       dropout_145[0][0]          
________________________________________________________________________________
batch_normalization_144 ( (None, 8)         32       dense_307[0][0]            
________________________________________________________________________________
dropout_146 (Dropout)     (None, 8)         0        batch_normalization_144[0][
________________________________________________________________________________
dense_308 (Dense)         (None, 1)         9        dropout_146[0][0]          
________________________________________________________________________________
input_176 (InputLayer)    [(None, 1)]       0                                   
________________________________________________________________________________
Add (Add)                 (None, 1)         0        dense_308[0][0]            
                                                     input_176[0][0]            
________________________________________________________________________________
dense_309 (Dense)         (None, 1)         2        Add[0][0]                  
================================================================================
Total params: 315
Trainable params: 281
Non-trainable params: 34
________________________________________________________________________________


