Model
Model: "model_126"
________________________________________________________________________________
Layer (type)              Output Shape      Param #  Connected to               
================================================================================
input_233 (InputLayer)    [(None, 20)]      0                                   
________________________________________________________________________________
dense_436 (Dense)         (None, 32)        672      input_233[0][0]            
________________________________________________________________________________
batch_normalization_215 ( (None, 32)        128      dense_436[0][0]            
________________________________________________________________________________
dropout_203 (Dropout)     (None, 32)        0        batch_normalization_215[0][
________________________________________________________________________________
dense_437 (Dense)         (None, 16)        528      dropout_203[0][0]          
________________________________________________________________________________
batch_normalization_216 ( (None, 16)        64       dense_437[0][0]            
________________________________________________________________________________
dropout_204 (Dropout)     (None, 16)        0        batch_normalization_216[0][
________________________________________________________________________________
dense_438 (Dense)         (None, 8)         136      dropout_204[0][0]          
________________________________________________________________________________
batch_normalization_217 ( (None, 8)         32       dense_438[0][0]            
________________________________________________________________________________
dense_439 (Dense)         (None, 1)         9        batch_normalization_217[0][
________________________________________________________________________________
input_234 (InputLayer)    [(None, 1)]       0                                   
________________________________________________________________________________
add_14 (Add)              (None, 1)         0        dense_439[0][0]            
                                                     input_234[0][0]            
________________________________________________________________________________
dense_440 (Dense)         (None, 1)         2        add_14[0][0]               
================================================================================
Total params: 1,571
Trainable params: 1,457
Non-trainable params: 114
________________________________________________________________________________


