Model
Model: "model_100"
________________________________________________________________________________
Layer (type)              Output Shape      Param #  Connected to               
================================================================================
input_181 (InputLayer)    [(None, 20)]      0                                   
________________________________________________________________________________
dense_318 (Dense)         (None, 8)         168      input_181[0][0]            
________________________________________________________________________________
batch_normalization_149 ( (None, 8)         32       dense_318[0][0]            
________________________________________________________________________________
dropout_151 (Dropout)     (None, 8)         0        batch_normalization_149[0][
________________________________________________________________________________
dense_319 (Dense)         (None, 8)         72       dropout_151[0][0]          
________________________________________________________________________________
batch_normalization_150 ( (None, 8)         32       dense_319[0][0]            
________________________________________________________________________________
dropout_152 (Dropout)     (None, 8)         0        batch_normalization_150[0][
________________________________________________________________________________
dense_320 (Dense)         (None, 1)         9        dropout_152[0][0]          
________________________________________________________________________________
input_182 (InputLayer)    [(None, 1)]       0                                   
________________________________________________________________________________
Add (Add)                 (None, 1)         0        dense_320[0][0]            
                                                     input_182[0][0]            
________________________________________________________________________________
dense_321 (Dense)         (None, 1)         2        Add[0][0]                  
================================================================================
Total params: 315
Trainable params: 281
Non-trainable params: 34
________________________________________________________________________________


