Model
Model: "model_165"
________________________________________________________________________________
Layer (type)              Output Shape      Param #  Connected to               
================================================================================
input_311 (InputLayer)    [(None, 20)]      0                                   
________________________________________________________________________________
dense_654 (Dense)         (None, 32)        672      input_311[0][0]            
________________________________________________________________________________
batch_normalization_355 ( (None, 32)        128      dense_654[0][0]            
________________________________________________________________________________
dropout_304 (Dropout)     (None, 32)        0        batch_normalization_355[0][
________________________________________________________________________________
dense_655 (Dense)         (None, 32)        1056     dropout_304[0][0]          
________________________________________________________________________________
batch_normalization_356 ( (None, 32)        128      dense_655[0][0]            
________________________________________________________________________________
dropout_305 (Dropout)     (None, 32)        0        batch_normalization_356[0][
________________________________________________________________________________
dense_656 (Dense)         (None, 16)        528      dropout_305[0][0]          
________________________________________________________________________________
batch_normalization_357 ( (None, 16)        64       dense_656[0][0]            
________________________________________________________________________________
dropout_306 (Dropout)     (None, 16)        0        batch_normalization_357[0][
________________________________________________________________________________
dense_657 (Dense)         (None, 16)        272      dropout_306[0][0]          
________________________________________________________________________________
batch_normalization_358 ( (None, 16)        64       dense_657[0][0]            
________________________________________________________________________________
dense_658 (Dense)         (None, 1)         17       batch_normalization_358[0][
________________________________________________________________________________
input_312 (InputLayer)    [(None, 1)]       0                                   
________________________________________________________________________________
add_53 (Add)              (None, 1)         0        dense_658[0][0]            
                                                     input_312[0][0]            
________________________________________________________________________________
dense_659 (Dense)         (None, 1)         2        add_53[0][0]               
================================================================================
Total params: 2,931
Trainable params: 2,737
Non-trainable params: 194
________________________________________________________________________________


