Model
Model: "model_171"
________________________________________________________________________________
Layer (type)              Output Shape      Param #  Connected to               
================================================================================
input_323 (InputLayer)    [(None, 20)]      0                                   
________________________________________________________________________________
dense_690 (Dense)         (None, 8)         168      input_323[0][0]            
________________________________________________________________________________
batch_normalization_379 ( (None, 8)         32       dense_690[0][0]            
________________________________________________________________________________
dropout_322 (Dropout)     (None, 8)         0        batch_normalization_379[0][
________________________________________________________________________________
dense_691 (Dense)         (None, 32)        288      dropout_322[0][0]          
________________________________________________________________________________
batch_normalization_380 ( (None, 32)        128      dense_691[0][0]            
________________________________________________________________________________
dropout_323 (Dropout)     (None, 32)        0        batch_normalization_380[0][
________________________________________________________________________________
dense_692 (Dense)         (None, 16)        528      dropout_323[0][0]          
________________________________________________________________________________
batch_normalization_381 ( (None, 16)        64       dense_692[0][0]            
________________________________________________________________________________
dropout_324 (Dropout)     (None, 16)        0        batch_normalization_381[0][
________________________________________________________________________________
dense_693 (Dense)         (None, 8)         136      dropout_324[0][0]          
________________________________________________________________________________
batch_normalization_382 ( (None, 8)         32       dense_693[0][0]            
________________________________________________________________________________
dense_694 (Dense)         (None, 1)         9        batch_normalization_382[0][
________________________________________________________________________________
input_324 (InputLayer)    [(None, 1)]       0                                   
________________________________________________________________________________
add_59 (Add)              (None, 1)         0        dense_694[0][0]            
                                                     input_324[0][0]            
________________________________________________________________________________
dense_695 (Dense)         (None, 1)         2        add_59[0][0]               
================================================================================
Total params: 1,387
Trainable params: 1,257
Non-trainable params: 130
________________________________________________________________________________


