Model
Model: "model_174"
________________________________________________________________________________
Layer (type)              Output Shape      Param #  Connected to               
================================================================================
input_329 (InputLayer)    [(None, 20)]      0                                   
________________________________________________________________________________
dense_708 (Dense)         (None, 8)         168      input_329[0][0]            
________________________________________________________________________________
batch_normalization_391 ( (None, 8)         32       dense_708[0][0]            
________________________________________________________________________________
dropout_331 (Dropout)     (None, 8)         0        batch_normalization_391[0][
________________________________________________________________________________
dense_709 (Dense)         (None, 32)        288      dropout_331[0][0]          
________________________________________________________________________________
batch_normalization_392 ( (None, 32)        128      dense_709[0][0]            
________________________________________________________________________________
dropout_332 (Dropout)     (None, 32)        0        batch_normalization_392[0][
________________________________________________________________________________
dense_710 (Dense)         (None, 8)         264      dropout_332[0][0]          
________________________________________________________________________________
batch_normalization_393 ( (None, 8)         32       dense_710[0][0]            
________________________________________________________________________________
dropout_333 (Dropout)     (None, 8)         0        batch_normalization_393[0][
________________________________________________________________________________
dense_711 (Dense)         (None, 16)        144      dropout_333[0][0]          
________________________________________________________________________________
batch_normalization_394 ( (None, 16)        64       dense_711[0][0]            
________________________________________________________________________________
dense_712 (Dense)         (None, 1)         17       batch_normalization_394[0][
________________________________________________________________________________
input_330 (InputLayer)    [(None, 1)]       0                                   
________________________________________________________________________________
add_62 (Add)              (None, 1)         0        dense_712[0][0]            
                                                     input_330[0][0]            
________________________________________________________________________________
dense_713 (Dense)         (None, 1)         2        add_62[0][0]               
================================================================================
Total params: 1,139
Trainable params: 1,009
Non-trainable params: 130
________________________________________________________________________________


