Model
Model: "model_10"
________________________________________________________________________________
Layer (type)              Output Shape      Param #  Connected to               
================================================================================
input_21 (InputLayer)     [(None, 20)]      0                                   
________________________________________________________________________________
dense_40 (Dense)          (None, 16)        336      input_21[0][0]             
________________________________________________________________________________
batch_normalization_20 (B (None, 16)        64       dense_40[0][0]             
________________________________________________________________________________
dropout_20 (Dropout)      (None, 16)        0        batch_normalization_20[0][0
________________________________________________________________________________
dense_41 (Dense)          (None, 64)        1088     dropout_20[0][0]           
________________________________________________________________________________
batch_normalization_21 (B (None, 64)        256      dense_41[0][0]             
________________________________________________________________________________
dropout_21 (Dropout)      (None, 64)        0        batch_normalization_21[0][0
________________________________________________________________________________
dense_42 (Dense)          (None, 1)         65       dropout_21[0][0]           
________________________________________________________________________________
input_22 (InputLayer)     [(None, 1)]       0                                   
________________________________________________________________________________
Add (Add)                 (None, 1)         0        dense_42[0][0]             
                                                     input_22[0][0]             
________________________________________________________________________________
dense_43 (Dense)          (None, 1)         2        Add[0][0]                  
================================================================================
Total params: 1,811
Trainable params: 1,649
Non-trainable params: 162
________________________________________________________________________________


