Model
Model: "model_151"
________________________________________________________________________________
Layer (type)              Output Shape      Param #  Connected to               
================================================================================
input_283 (InputLayer)    [(None, 20)]      0                                   
________________________________________________________________________________
dense_570 (Dense)         (None, 32)        672      input_283[0][0]            
________________________________________________________________________________
batch_normalization_299 ( (None, 32)        128      dense_570[0][0]            
________________________________________________________________________________
dropout_262 (Dropout)     (None, 32)        0        batch_normalization_299[0][
________________________________________________________________________________
dense_571 (Dense)         (None, 16)        528      dropout_262[0][0]          
________________________________________________________________________________
batch_normalization_300 ( (None, 16)        64       dense_571[0][0]            
________________________________________________________________________________
dropout_263 (Dropout)     (None, 16)        0        batch_normalization_300[0][
________________________________________________________________________________
dense_572 (Dense)         (None, 16)        272      dropout_263[0][0]          
________________________________________________________________________________
batch_normalization_301 ( (None, 16)        64       dense_572[0][0]            
________________________________________________________________________________
dropout_264 (Dropout)     (None, 16)        0        batch_normalization_301[0][
________________________________________________________________________________
dense_573 (Dense)         (None, 8)         136      dropout_264[0][0]          
________________________________________________________________________________
batch_normalization_302 ( (None, 8)         32       dense_573[0][0]            
________________________________________________________________________________
dense_574 (Dense)         (None, 1)         9        batch_normalization_302[0][
________________________________________________________________________________
input_284 (InputLayer)    [(None, 1)]       0                                   
________________________________________________________________________________
add_39 (Add)              (None, 1)         0        dense_574[0][0]            
                                                     input_284[0][0]            
________________________________________________________________________________
dense_575 (Dense)         (None, 1)         2        add_39[0][0]               
================================================================================
Total params: 1,907
Trainable params: 1,761
Non-trainable params: 146
________________________________________________________________________________


