Model
Model: "model_84"
________________________________________________________________________________
Layer (type)              Output Shape      Param #  Connected to               
================================================================================
input_149 (InputLayer)    [(None, 20)]      0                                   
________________________________________________________________________________
dense_254 (Dense)         (None, 8)         168      input_149[0][0]            
________________________________________________________________________________
batch_normalization_117 ( (None, 8)         32       dense_254[0][0]            
________________________________________________________________________________
dropout_119 (Dropout)     (None, 8)         0        batch_normalization_117[0][
________________________________________________________________________________
dense_255 (Dense)         (None, 8)         72       dropout_119[0][0]          
________________________________________________________________________________
batch_normalization_118 ( (None, 8)         32       dense_255[0][0]            
________________________________________________________________________________
dropout_120 (Dropout)     (None, 8)         0        batch_normalization_118[0][
________________________________________________________________________________
dense_256 (Dense)         (None, 1)         9        dropout_120[0][0]          
________________________________________________________________________________
input_150 (InputLayer)    [(None, 1)]       0                                   
________________________________________________________________________________
Add (Add)                 (None, 1)         0        dense_256[0][0]            
                                                     input_150[0][0]            
________________________________________________________________________________
dense_257 (Dense)         (None, 1)         2        Add[0][0]                  
================================================================================
Total params: 315
Trainable params: 281
Non-trainable params: 34
________________________________________________________________________________


