Model
Model: "model_63"
________________________________________________________________________________
Layer (type)              Output Shape      Param #  Connected to               
================================================================================
input_107 (InputLayer)    [(None, 20)]      0                                   
________________________________________________________________________________
dense_170 (Dense)         (None, 64)        1344     input_107[0][0]            
________________________________________________________________________________
batch_normalization_75 (B (None, 64)        256      dense_170[0][0]            
________________________________________________________________________________
dropout_77 (Dropout)      (None, 64)        0        batch_normalization_75[0][0
________________________________________________________________________________
dense_171 (Dense)         (None, 32)        2080     dropout_77[0][0]           
________________________________________________________________________________
batch_normalization_76 (B (None, 32)        128      dense_171[0][0]            
________________________________________________________________________________
dropout_78 (Dropout)      (None, 32)        0        batch_normalization_76[0][0
________________________________________________________________________________
dense_172 (Dense)         (None, 1)         33       dropout_78[0][0]           
________________________________________________________________________________
input_108 (InputLayer)    [(None, 1)]       0                                   
________________________________________________________________________________
Add (Add)                 (None, 1)         0        dense_172[0][0]            
                                                     input_108[0][0]            
________________________________________________________________________________
dense_173 (Dense)         (None, 1)         2        Add[0][0]                  
================================================================================
Total params: 3,843
Trainable params: 3,649
Non-trainable params: 194
________________________________________________________________________________


