Model
Model: "model_156"
________________________________________________________________________________
Layer (type)              Output Shape      Param #  Connected to               
================================================================================
input_293 (InputLayer)    [(None, 20)]      0                                   
________________________________________________________________________________
dense_600 (Dense)         (None, 16)        336      input_293[0][0]            
________________________________________________________________________________
batch_normalization_319 ( (None, 16)        64       dense_600[0][0]            
________________________________________________________________________________
dropout_277 (Dropout)     (None, 16)        0        batch_normalization_319[0][
________________________________________________________________________________
dense_601 (Dense)         (None, 16)        272      dropout_277[0][0]          
________________________________________________________________________________
batch_normalization_320 ( (None, 16)        64       dense_601[0][0]            
________________________________________________________________________________
dropout_278 (Dropout)     (None, 16)        0        batch_normalization_320[0][
________________________________________________________________________________
dense_602 (Dense)         (None, 8)         136      dropout_278[0][0]          
________________________________________________________________________________
batch_normalization_321 ( (None, 8)         32       dense_602[0][0]            
________________________________________________________________________________
dropout_279 (Dropout)     (None, 8)         0        batch_normalization_321[0][
________________________________________________________________________________
dense_603 (Dense)         (None, 16)        144      dropout_279[0][0]          
________________________________________________________________________________
batch_normalization_322 ( (None, 16)        64       dense_603[0][0]            
________________________________________________________________________________
dense_604 (Dense)         (None, 1)         17       batch_normalization_322[0][
________________________________________________________________________________
input_294 (InputLayer)    [(None, 1)]       0                                   
________________________________________________________________________________
add_44 (Add)              (None, 1)         0        dense_604[0][0]            
                                                     input_294[0][0]            
________________________________________________________________________________
dense_605 (Dense)         (None, 1)         2        add_44[0][0]               
================================================================================
Total params: 1,131
Trainable params: 1,017
Non-trainable params: 114
________________________________________________________________________________


