Model
Model: "model_7"
________________________________________________________________________________
Layer (type)              Output Shape      Param #  Connected to               
================================================================================
input_15 (InputLayer)     [(None, 20)]      0                                   
________________________________________________________________________________
dense_28 (Dense)          (None, 64)        1344     input_15[0][0]             
________________________________________________________________________________
batch_normalization_14 (B (None, 64)        256      dense_28[0][0]             
________________________________________________________________________________
dropout_14 (Dropout)      (None, 64)        0        batch_normalization_14[0][0
________________________________________________________________________________
dense_29 (Dense)          (None, 32)        2080     dropout_14[0][0]           
________________________________________________________________________________
batch_normalization_15 (B (None, 32)        128      dense_29[0][0]             
________________________________________________________________________________
dropout_15 (Dropout)      (None, 32)        0        batch_normalization_15[0][0
________________________________________________________________________________
dense_30 (Dense)          (None, 1)         33       dropout_15[0][0]           
________________________________________________________________________________
input_16 (InputLayer)     [(None, 1)]       0                                   
________________________________________________________________________________
Add (Add)                 (None, 1)         0        dense_30[0][0]             
                                                     input_16[0][0]             
________________________________________________________________________________
dense_31 (Dense)          (None, 1)         2        Add[0][0]                  
================================================================================
Total params: 3,843
Trainable params: 3,649
Non-trainable params: 194
________________________________________________________________________________


