Model
Model: "model_19"
________________________________________________________________________________
Layer (type)              Output Shape      Param #  Connected to               
================================================================================
input_39 (InputLayer)     [(None, 20)]      0                                   
________________________________________________________________________________
dense_76 (Dense)          (None, 256)       5376     input_39[0][0]             
________________________________________________________________________________
batch_normalization_38 (B (None, 256)       1024     dense_76[0][0]             
________________________________________________________________________________
dropout_38 (Dropout)      (None, 256)       0        batch_normalization_38[0][0
________________________________________________________________________________
dense_77 (Dense)          (None, 128)       32896    dropout_38[0][0]           
________________________________________________________________________________
batch_normalization_39 (B (None, 128)       512      dense_77[0][0]             
________________________________________________________________________________
dropout_39 (Dropout)      (None, 128)       0        batch_normalization_39[0][0
________________________________________________________________________________
dense_78 (Dense)          (None, 1)         129      dropout_39[0][0]           
________________________________________________________________________________
input_40 (InputLayer)     [(None, 1)]       0                                   
________________________________________________________________________________
Add (Add)                 (None, 1)         0        dense_78[0][0]             
                                                     input_40[0][0]             
________________________________________________________________________________
dense_79 (Dense)          (None, 1)         2        Add[0][0]                  
================================================================================
Total params: 39,939
Trainable params: 39,169
Non-trainable params: 770
________________________________________________________________________________


