Model
Model: "model_79"
________________________________________________________________________________
Layer (type)              Output Shape      Param #  Connected to               
================================================================================
input_139 (InputLayer)    [(None, 20)]      0                                   
________________________________________________________________________________
dense_234 (Dense)         (None, 8)         168      input_139[0][0]            
________________________________________________________________________________
batch_normalization_107 ( (None, 8)         32       dense_234[0][0]            
________________________________________________________________________________
dropout_109 (Dropout)     (None, 8)         0        batch_normalization_107[0][
________________________________________________________________________________
dense_235 (Dense)         (None, 8)         72       dropout_109[0][0]          
________________________________________________________________________________
batch_normalization_108 ( (None, 8)         32       dense_235[0][0]            
________________________________________________________________________________
dropout_110 (Dropout)     (None, 8)         0        batch_normalization_108[0][
________________________________________________________________________________
dense_236 (Dense)         (None, 1)         9        dropout_110[0][0]          
________________________________________________________________________________
input_140 (InputLayer)    [(None, 1)]       0                                   
________________________________________________________________________________
Add (Add)                 (None, 1)         0        dense_236[0][0]            
                                                     input_140[0][0]            
________________________________________________________________________________
dense_237 (Dense)         (None, 1)         2        Add[0][0]                  
================================================================================
Total params: 315
Trainable params: 281
Non-trainable params: 34
________________________________________________________________________________


