Model
Model: "model_197"
________________________________________________________________________________
Layer (type)              Output Shape      Param #  Connected to               
================================================================================
input_375 (InputLayer)    [(None, 20)]      0                                   
________________________________________________________________________________
dense_846 (Dense)         (None, 16)        336      input_375[0][0]            
________________________________________________________________________________
batch_normalization_483 ( (None, 16)        64       dense_846[0][0]            
________________________________________________________________________________
dropout_400 (Dropout)     (None, 16)        0        batch_normalization_483[0][
________________________________________________________________________________
dense_847 (Dense)         (None, 32)        544      dropout_400[0][0]          
________________________________________________________________________________
batch_normalization_484 ( (None, 32)        128      dense_847[0][0]            
________________________________________________________________________________
dropout_401 (Dropout)     (None, 32)        0        batch_normalization_484[0][
________________________________________________________________________________
dense_848 (Dense)         (None, 8)         264      dropout_401[0][0]          
________________________________________________________________________________
batch_normalization_485 ( (None, 8)         32       dense_848[0][0]            
________________________________________________________________________________
dropout_402 (Dropout)     (None, 8)         0        batch_normalization_485[0][
________________________________________________________________________________
dense_849 (Dense)         (None, 16)        144      dropout_402[0][0]          
________________________________________________________________________________
batch_normalization_486 ( (None, 16)        64       dense_849[0][0]            
________________________________________________________________________________
dense_850 (Dense)         (None, 1)         17       batch_normalization_486[0][
________________________________________________________________________________
input_376 (InputLayer)    [(None, 1)]       0                                   
________________________________________________________________________________
add_85 (Add)              (None, 1)         0        dense_850[0][0]            
                                                     input_376[0][0]            
________________________________________________________________________________
dense_851 (Dense)         (None, 1)         2        add_85[0][0]               
================================================================================
Total params: 1,595
Trainable params: 1,449
Non-trainable params: 146
________________________________________________________________________________


