Model
Model: "model_54"
________________________________________________________________________________
Layer (type)              Output Shape      Param #  Connected to               
================================================================================
input_109 (InputLayer)    [(None, 20)]      0                                   
________________________________________________________________________________
dense_221 (Dense)         (None, 64)        1344     input_109[0][0]            
________________________________________________________________________________
batch_normalization_113 ( (None, 64)        256      dense_221[0][0]            
________________________________________________________________________________
dropout_108 (Dropout)     (None, 64)        0        batch_normalization_113[0][
________________________________________________________________________________
dense_222 (Dense)         (None, 256)       16640    dropout_108[0][0]          
________________________________________________________________________________
batch_normalization_114 ( (None, 256)       1024     dense_222[0][0]            
________________________________________________________________________________
dropout_109 (Dropout)     (None, 256)       0        batch_normalization_114[0][
________________________________________________________________________________
dense_223 (Dense)         (None, 16)        4112     dropout_109[0][0]          
________________________________________________________________________________
batch_normalization_115 ( (None, 16)        64       dense_223[0][0]            
________________________________________________________________________________
dense_224 (Dense)         (None, 1)         17       batch_normalization_115[0][
________________________________________________________________________________
input_110 (InputLayer)    [(None, 1)]       0                                   
________________________________________________________________________________
add_5 (Add)               (None, 1)         0        dense_224[0][0]            
                                                     input_110[0][0]            
________________________________________________________________________________
dense_225 (Dense)         (None, 1)         2        add_5[0][0]                
================================================================================
Total params: 23,459
Trainable params: 22,785
Non-trainable params: 674
________________________________________________________________________________


