Model
Model: "model_83"
________________________________________________________________________________
Layer (type)              Output Shape      Param #  Connected to               
================================================================================
input_147 (InputLayer)    [(None, 20)]      0                                   
________________________________________________________________________________
dense_250 (Dense)         (None, 8)         168      input_147[0][0]            
________________________________________________________________________________
batch_normalization_115 ( (None, 8)         32       dense_250[0][0]            
________________________________________________________________________________
dropout_117 (Dropout)     (None, 8)         0        batch_normalization_115[0][
________________________________________________________________________________
dense_251 (Dense)         (None, 8)         72       dropout_117[0][0]          
________________________________________________________________________________
batch_normalization_116 ( (None, 8)         32       dense_251[0][0]            
________________________________________________________________________________
dropout_118 (Dropout)     (None, 8)         0        batch_normalization_116[0][
________________________________________________________________________________
dense_252 (Dense)         (None, 1)         9        dropout_118[0][0]          
________________________________________________________________________________
input_148 (InputLayer)    [(None, 1)]       0                                   
________________________________________________________________________________
Add (Add)                 (None, 1)         0        dense_252[0][0]            
                                                     input_148[0][0]            
________________________________________________________________________________
dense_253 (Dense)         (None, 1)         2        Add[0][0]                  
================================================================================
Total params: 315
Trainable params: 281
Non-trainable params: 34
________________________________________________________________________________


