Model
Model: "model_117"
________________________________________________________________________________
Layer (type)              Output Shape      Param #  Connected to               
================================================================================
input_215 (InputLayer)    [(None, 20)]      0                                   
________________________________________________________________________________
dense_391 (Dense)         (None, 32)        672      input_215[0][0]            
________________________________________________________________________________
batch_normalization_188 ( (None, 32)        128      dense_391[0][0]            
________________________________________________________________________________
dropout_185 (Dropout)     (None, 32)        0        batch_normalization_188[0][
________________________________________________________________________________
dense_392 (Dense)         (None, 16)        528      dropout_185[0][0]          
________________________________________________________________________________
batch_normalization_189 ( (None, 16)        64       dense_392[0][0]            
________________________________________________________________________________
dropout_186 (Dropout)     (None, 16)        0        batch_normalization_189[0][
________________________________________________________________________________
dense_393 (Dense)         (None, 8)         136      dropout_186[0][0]          
________________________________________________________________________________
batch_normalization_190 ( (None, 8)         32       dense_393[0][0]            
________________________________________________________________________________
dense_394 (Dense)         (None, 1)         9        batch_normalization_190[0][
________________________________________________________________________________
input_216 (InputLayer)    [(None, 1)]       0                                   
________________________________________________________________________________
add_5 (Add)               (None, 1)         0        dense_394[0][0]            
                                                     input_216[0][0]            
________________________________________________________________________________
dense_395 (Dense)         (None, 1)         2        add_5[0][0]                
================================================================================
Total params: 1,571
Trainable params: 1,457
Non-trainable params: 114
________________________________________________________________________________


