Model
Model: "model_36"
________________________________________________________________________________
Layer (type)              Output Shape      Param #  Connected to               
================================================================================
input_73 (InputLayer)     [(None, 20)]      0                                   
________________________________________________________________________________
dense_144 (Dense)         (None, 32)        672      input_73[0][0]             
________________________________________________________________________________
batch_normalization_72 (B (None, 32)        128      dense_144[0][0]            
________________________________________________________________________________
dropout_72 (Dropout)      (None, 32)        0        batch_normalization_72[0][0
________________________________________________________________________________
dense_145 (Dense)         (None, 16)        528      dropout_72[0][0]           
________________________________________________________________________________
batch_normalization_73 (B (None, 16)        64       dense_145[0][0]            
________________________________________________________________________________
dropout_73 (Dropout)      (None, 16)        0        batch_normalization_73[0][0
________________________________________________________________________________
dense_146 (Dense)         (None, 1)         17       dropout_73[0][0]           
________________________________________________________________________________
input_74 (InputLayer)     [(None, 1)]       0                                   
________________________________________________________________________________
Add (Add)                 (None, 1)         0        dense_146[0][0]            
                                                     input_74[0][0]             
________________________________________________________________________________
dense_147 (Dense)         (None, 1)         2        Add[0][0]                  
================================================================================
Total params: 1,411
Trainable params: 1,313
Non-trainable params: 98
________________________________________________________________________________


