Model
Model: "model_1"
________________________________________________________________________________
Layer (type)              Output Shape      Param #  Connected to               
================================================================================
input_3 (InputLayer)      [(None, 34)]      0                                   
________________________________________________________________________________
dense_4 (Dense)           (None, 64)        2240     input_3[0][0]              
________________________________________________________________________________
batch_normalization_1 (Ba (None, 64)        256      dense_4[0][0]              
________________________________________________________________________________
dropout_2 (Dropout)       (None, 64)        0        batch_normalization_1[0][0]
________________________________________________________________________________
dense_5 (Dense)           (None, 16)        1040     dropout_2[0][0]            
________________________________________________________________________________
dropout_3 (Dropout)       (None, 16)        0        dense_5[0][0]              
________________________________________________________________________________
input_4 (InputLayer)      [(None, 1)]       0                                   
________________________________________________________________________________
dense_6 (Dense)           (None, 1)         17       dropout_3[0][0]            
________________________________________________________________________________
dense_7 (Dense)           (None, 1)         1        input_4[0][0]              
________________________________________________________________________________
multiply_1 (Multiply)     (None, 1)         0        dense_6[0][0]              
                                                     dense_7[0][0]              
================================================================================
Total params: 3,554
Trainable params: 3,425
Non-trainable params: 129
________________________________________________________________________________


