Model
Model: "model_64"
________________________________________________________________________________
Layer (type)              Output Shape      Param #  Connected to               
================================================================================
input_109 (InputLayer)    [(None, 20)]      0                                   
________________________________________________________________________________
dense_174 (Dense)         (None, 8)         168      input_109[0][0]            
________________________________________________________________________________
batch_normalization_77 (B (None, 8)         32       dense_174[0][0]            
________________________________________________________________________________
dropout_79 (Dropout)      (None, 8)         0        batch_normalization_77[0][0
________________________________________________________________________________
dense_175 (Dense)         (None, 64)        576      dropout_79[0][0]           
________________________________________________________________________________
batch_normalization_78 (B (None, 64)        256      dense_175[0][0]            
________________________________________________________________________________
dropout_80 (Dropout)      (None, 64)        0        batch_normalization_78[0][0
________________________________________________________________________________
dense_176 (Dense)         (None, 1)         65       dropout_80[0][0]           
________________________________________________________________________________
input_110 (InputLayer)    [(None, 1)]       0                                   
________________________________________________________________________________
Add (Add)                 (None, 1)         0        dense_176[0][0]            
                                                     input_110[0][0]            
________________________________________________________________________________
dense_177 (Dense)         (None, 1)         2        Add[0][0]                  
================================================================================
Total params: 1,099
Trainable params: 953
Non-trainable params: 146
________________________________________________________________________________


