Model
Model: "model_185"
________________________________________________________________________________
Layer (type)              Output Shape      Param #  Connected to               
================================================================================
input_351 (InputLayer)    [(None, 20)]      0                                   
________________________________________________________________________________
dense_774 (Dense)         (None, 16)        336      input_351[0][0]            
________________________________________________________________________________
batch_normalization_435 ( (None, 16)        64       dense_774[0][0]            
________________________________________________________________________________
dropout_364 (Dropout)     (None, 16)        0        batch_normalization_435[0][
________________________________________________________________________________
dense_775 (Dense)         (None, 16)        272      dropout_364[0][0]          
________________________________________________________________________________
batch_normalization_436 ( (None, 16)        64       dense_775[0][0]            
________________________________________________________________________________
dropout_365 (Dropout)     (None, 16)        0        batch_normalization_436[0][
________________________________________________________________________________
dense_776 (Dense)         (None, 16)        272      dropout_365[0][0]          
________________________________________________________________________________
batch_normalization_437 ( (None, 16)        64       dense_776[0][0]            
________________________________________________________________________________
dropout_366 (Dropout)     (None, 16)        0        batch_normalization_437[0][
________________________________________________________________________________
dense_777 (Dense)         (None, 16)        272      dropout_366[0][0]          
________________________________________________________________________________
batch_normalization_438 ( (None, 16)        64       dense_777[0][0]            
________________________________________________________________________________
dense_778 (Dense)         (None, 1)         17       batch_normalization_438[0][
________________________________________________________________________________
input_352 (InputLayer)    [(None, 1)]       0                                   
________________________________________________________________________________
add_73 (Add)              (None, 1)         0        dense_778[0][0]            
                                                     input_352[0][0]            
________________________________________________________________________________
dense_779 (Dense)         (None, 1)         2        add_73[0][0]               
================================================================================
Total params: 1,427
Trainable params: 1,297
Non-trainable params: 130
________________________________________________________________________________


