Model
Model: "model_72"
________________________________________________________________________________
Layer (type)              Output Shape      Param #  Connected to               
================================================================================
input_125 (InputLayer)    [(None, 20)]      0                                   
________________________________________________________________________________
dense_206 (Dense)         (None, 8)         168      input_125[0][0]            
________________________________________________________________________________
batch_normalization_93 (B (None, 8)         32       dense_206[0][0]            
________________________________________________________________________________
dropout_95 (Dropout)      (None, 8)         0        batch_normalization_93[0][0
________________________________________________________________________________
dense_207 (Dense)         (None, 8)         72       dropout_95[0][0]           
________________________________________________________________________________
batch_normalization_94 (B (None, 8)         32       dense_207[0][0]            
________________________________________________________________________________
dropout_96 (Dropout)      (None, 8)         0        batch_normalization_94[0][0
________________________________________________________________________________
dense_208 (Dense)         (None, 1)         9        dropout_96[0][0]           
________________________________________________________________________________
input_126 (InputLayer)    [(None, 1)]       0                                   
________________________________________________________________________________
Add (Add)                 (None, 1)         0        dense_208[0][0]            
                                                     input_126[0][0]            
________________________________________________________________________________
dense_209 (Dense)         (None, 1)         2        Add[0][0]                  
================================================================================
Total params: 315
Trainable params: 281
Non-trainable params: 34
________________________________________________________________________________


