Model
Model: "model_49"
________________________________________________________________________________
Layer (type)              Output Shape      Param #  Connected to               
================================================================================
input_99 (InputLayer)     [(None, 20)]      0                                   
________________________________________________________________________________
dense_196 (Dense)         (None, 16)        336      input_99[0][0]             
________________________________________________________________________________
batch_normalization_98 (B (None, 16)        64       dense_196[0][0]            
________________________________________________________________________________
dropout_98 (Dropout)      (None, 16)        0        batch_normalization_98[0][0
________________________________________________________________________________
dense_197 (Dense)         (None, 64)        1088     dropout_98[0][0]           
________________________________________________________________________________
batch_normalization_99 (B (None, 64)        256      dense_197[0][0]            
________________________________________________________________________________
dropout_99 (Dropout)      (None, 64)        0        batch_normalization_99[0][0
________________________________________________________________________________
dense_198 (Dense)         (None, 16)        1040     dropout_99[0][0]           
________________________________________________________________________________
batch_normalization_100 ( (None, 16)        64       dense_198[0][0]            
________________________________________________________________________________
dense_199 (Dense)         (None, 1)         17       batch_normalization_100[0][
________________________________________________________________________________
input_100 (InputLayer)    [(None, 1)]       0                                   
________________________________________________________________________________
add (Add)                 (None, 1)         0        dense_199[0][0]            
                                                     input_100[0][0]            
________________________________________________________________________________
dense_200 (Dense)         (None, 1)         2        add[0][0]                  
================================================================================
Total params: 2,867
Trainable params: 2,673
Non-trainable params: 194
________________________________________________________________________________


