Model
Model: "model_57"
________________________________________________________________________________
Layer (type)              Output Shape      Param #  Connected to               
================================================================================
input_115 (InputLayer)    [(None, 20)]      0                                   
________________________________________________________________________________
dense_236 (Dense)         (None, 64)        1344     input_115[0][0]            
________________________________________________________________________________
batch_normalization_122 ( (None, 64)        256      dense_236[0][0]            
________________________________________________________________________________
dropout_114 (Dropout)     (None, 64)        0        batch_normalization_122[0][
________________________________________________________________________________
dense_237 (Dense)         (None, 64)        4160     dropout_114[0][0]          
________________________________________________________________________________
batch_normalization_123 ( (None, 64)        256      dense_237[0][0]            
________________________________________________________________________________
dropout_115 (Dropout)     (None, 64)        0        batch_normalization_123[0][
________________________________________________________________________________
dense_238 (Dense)         (None, 32)        2080     dropout_115[0][0]          
________________________________________________________________________________
batch_normalization_124 ( (None, 32)        128      dense_238[0][0]            
________________________________________________________________________________
dense_239 (Dense)         (None, 1)         33       batch_normalization_124[0][
________________________________________________________________________________
input_116 (InputLayer)    [(None, 1)]       0                                   
________________________________________________________________________________
add_8 (Add)               (None, 1)         0        dense_239[0][0]            
                                                     input_116[0][0]            
________________________________________________________________________________
dense_240 (Dense)         (None, 1)         2        add_8[0][0]                
================================================================================
Total params: 8,259
Trainable params: 7,937
Non-trainable params: 322
________________________________________________________________________________


