Model
Model: "model_157"
________________________________________________________________________________
Layer (type)              Output Shape      Param #  Connected to               
================================================================================
input_295 (InputLayer)    [(None, 20)]      0                                   
________________________________________________________________________________
dense_606 (Dense)         (None, 32)        672      input_295[0][0]            
________________________________________________________________________________
batch_normalization_323 ( (None, 32)        128      dense_606[0][0]            
________________________________________________________________________________
dropout_280 (Dropout)     (None, 32)        0        batch_normalization_323[0][
________________________________________________________________________________
dense_607 (Dense)         (None, 16)        528      dropout_280[0][0]          
________________________________________________________________________________
batch_normalization_324 ( (None, 16)        64       dense_607[0][0]            
________________________________________________________________________________
dropout_281 (Dropout)     (None, 16)        0        batch_normalization_324[0][
________________________________________________________________________________
dense_608 (Dense)         (None, 8)         136      dropout_281[0][0]          
________________________________________________________________________________
batch_normalization_325 ( (None, 8)         32       dense_608[0][0]            
________________________________________________________________________________
dropout_282 (Dropout)     (None, 8)         0        batch_normalization_325[0][
________________________________________________________________________________
dense_609 (Dense)         (None, 16)        144      dropout_282[0][0]          
________________________________________________________________________________
batch_normalization_326 ( (None, 16)        64       dense_609[0][0]            
________________________________________________________________________________
dense_610 (Dense)         (None, 1)         17       batch_normalization_326[0][
________________________________________________________________________________
input_296 (InputLayer)    [(None, 1)]       0                                   
________________________________________________________________________________
add_45 (Add)              (None, 1)         0        dense_610[0][0]            
                                                     input_296[0][0]            
________________________________________________________________________________
dense_611 (Dense)         (None, 1)         2        add_45[0][0]               
================================================================================
Total params: 1,787
Trainable params: 1,641
Non-trainable params: 146
________________________________________________________________________________


