Model
Model: "model_37"
________________________________________________________________________________
Layer (type)              Output Shape      Param #  Connected to               
================================================================================
input_75 (InputLayer)     [(None, 20)]      0                                   
________________________________________________________________________________
dense_148 (Dense)         (None, 32)        672      input_75[0][0]             
________________________________________________________________________________
batch_normalization_74 (B (None, 32)        128      dense_148[0][0]            
________________________________________________________________________________
dropout_74 (Dropout)      (None, 32)        0        batch_normalization_74[0][0
________________________________________________________________________________
dense_149 (Dense)         (None, 16)        528      dropout_74[0][0]           
________________________________________________________________________________
batch_normalization_75 (B (None, 16)        64       dense_149[0][0]            
________________________________________________________________________________
dropout_75 (Dropout)      (None, 16)        0        batch_normalization_75[0][0
________________________________________________________________________________
dense_150 (Dense)         (None, 1)         17       dropout_75[0][0]           
________________________________________________________________________________
input_76 (InputLayer)     [(None, 1)]       0                                   
________________________________________________________________________________
Add (Add)                 (None, 1)         0        dense_150[0][0]            
                                                     input_76[0][0]             
________________________________________________________________________________
dense_151 (Dense)         (None, 1)         2        Add[0][0]                  
================================================================================
Total params: 1,411
Trainable params: 1,313
Non-trainable params: 98
________________________________________________________________________________


