Model
Model: "model_123"
________________________________________________________________________________
Layer (type)              Output Shape      Param #  Connected to               
================================================================================
input_227 (InputLayer)    [(None, 20)]      0                                   
________________________________________________________________________________
dense_421 (Dense)         (None, 32)        672      input_227[0][0]            
________________________________________________________________________________
batch_normalization_206 ( (None, 32)        128      dense_421[0][0]            
________________________________________________________________________________
dropout_197 (Dropout)     (None, 32)        0        batch_normalization_206[0][
________________________________________________________________________________
dense_422 (Dense)         (None, 8)         264      dropout_197[0][0]          
________________________________________________________________________________
batch_normalization_207 ( (None, 8)         32       dense_422[0][0]            
________________________________________________________________________________
dropout_198 (Dropout)     (None, 8)         0        batch_normalization_207[0][
________________________________________________________________________________
dense_423 (Dense)         (None, 16)        144      dropout_198[0][0]          
________________________________________________________________________________
batch_normalization_208 ( (None, 16)        64       dense_423[0][0]            
________________________________________________________________________________
dense_424 (Dense)         (None, 1)         17       batch_normalization_208[0][
________________________________________________________________________________
input_228 (InputLayer)    [(None, 1)]       0                                   
________________________________________________________________________________
add_11 (Add)              (None, 1)         0        dense_424[0][0]            
                                                     input_228[0][0]            
________________________________________________________________________________
dense_425 (Dense)         (None, 1)         2        add_11[0][0]               
================================================================================
Total params: 1,323
Trainable params: 1,209
Non-trainable params: 114
________________________________________________________________________________


