Model
Model: "model_164"
________________________________________________________________________________
Layer (type)              Output Shape      Param #  Connected to               
================================================================================
input_309 (InputLayer)    [(None, 20)]      0                                   
________________________________________________________________________________
dense_648 (Dense)         (None, 16)        336      input_309[0][0]            
________________________________________________________________________________
batch_normalization_351 ( (None, 16)        64       dense_648[0][0]            
________________________________________________________________________________
dropout_301 (Dropout)     (None, 16)        0        batch_normalization_351[0][
________________________________________________________________________________
dense_649 (Dense)         (None, 32)        544      dropout_301[0][0]          
________________________________________________________________________________
batch_normalization_352 ( (None, 32)        128      dense_649[0][0]            
________________________________________________________________________________
dropout_302 (Dropout)     (None, 32)        0        batch_normalization_352[0][
________________________________________________________________________________
dense_650 (Dense)         (None, 16)        528      dropout_302[0][0]          
________________________________________________________________________________
batch_normalization_353 ( (None, 16)        64       dense_650[0][0]            
________________________________________________________________________________
dropout_303 (Dropout)     (None, 16)        0        batch_normalization_353[0][
________________________________________________________________________________
dense_651 (Dense)         (None, 16)        272      dropout_303[0][0]          
________________________________________________________________________________
batch_normalization_354 ( (None, 16)        64       dense_651[0][0]            
________________________________________________________________________________
dense_652 (Dense)         (None, 1)         17       batch_normalization_354[0][
________________________________________________________________________________
input_310 (InputLayer)    [(None, 1)]       0                                   
________________________________________________________________________________
add_52 (Add)              (None, 1)         0        dense_652[0][0]            
                                                     input_310[0][0]            
________________________________________________________________________________
dense_653 (Dense)         (None, 1)         2        add_52[0][0]               
================================================================================
Total params: 2,019
Trainable params: 1,857
Non-trainable params: 162
________________________________________________________________________________


