Model
Model: "model_154"
________________________________________________________________________________
Layer (type)              Output Shape      Param #  Connected to               
================================================================================
input_289 (InputLayer)    [(None, 20)]      0                                   
________________________________________________________________________________
dense_588 (Dense)         (None, 16)        336      input_289[0][0]            
________________________________________________________________________________
batch_normalization_311 ( (None, 16)        64       dense_588[0][0]            
________________________________________________________________________________
dropout_271 (Dropout)     (None, 16)        0        batch_normalization_311[0][
________________________________________________________________________________
dense_589 (Dense)         (None, 8)         136      dropout_271[0][0]          
________________________________________________________________________________
batch_normalization_312 ( (None, 8)         32       dense_589[0][0]            
________________________________________________________________________________
dropout_272 (Dropout)     (None, 8)         0        batch_normalization_312[0][
________________________________________________________________________________
dense_590 (Dense)         (None, 8)         72       dropout_272[0][0]          
________________________________________________________________________________
batch_normalization_313 ( (None, 8)         32       dense_590[0][0]            
________________________________________________________________________________
dropout_273 (Dropout)     (None, 8)         0        batch_normalization_313[0][
________________________________________________________________________________
dense_591 (Dense)         (None, 16)        144      dropout_273[0][0]          
________________________________________________________________________________
batch_normalization_314 ( (None, 16)        64       dense_591[0][0]            
________________________________________________________________________________
dense_592 (Dense)         (None, 1)         17       batch_normalization_314[0][
________________________________________________________________________________
input_290 (InputLayer)    [(None, 1)]       0                                   
________________________________________________________________________________
add_42 (Add)              (None, 1)         0        dense_592[0][0]            
                                                     input_290[0][0]            
________________________________________________________________________________
dense_593 (Dense)         (None, 1)         2        add_42[0][0]               
================================================================================
Total params: 899
Trainable params: 801
Non-trainable params: 98
________________________________________________________________________________


