Model
Model: "model_90"
________________________________________________________________________________
Layer (type)              Output Shape      Param #  Connected to               
================================================================================
input_161 (InputLayer)    [(None, 20)]      0                                   
________________________________________________________________________________
dense_278 (Dense)         (None, 8)         168      input_161[0][0]            
________________________________________________________________________________
batch_normalization_129 ( (None, 8)         32       dense_278[0][0]            
________________________________________________________________________________
dropout_131 (Dropout)     (None, 8)         0        batch_normalization_129[0][
________________________________________________________________________________
dense_279 (Dense)         (None, 8)         72       dropout_131[0][0]          
________________________________________________________________________________
batch_normalization_130 ( (None, 8)         32       dense_279[0][0]            
________________________________________________________________________________
dropout_132 (Dropout)     (None, 8)         0        batch_normalization_130[0][
________________________________________________________________________________
dense_280 (Dense)         (None, 1)         9        dropout_132[0][0]          
________________________________________________________________________________
input_162 (InputLayer)    [(None, 1)]       0                                   
________________________________________________________________________________
Add (Add)                 (None, 1)         0        dense_280[0][0]            
                                                     input_162[0][0]            
________________________________________________________________________________
dense_281 (Dense)         (None, 1)         2        Add[0][0]                  
================================================================================
Total params: 315
Trainable params: 281
Non-trainable params: 34
________________________________________________________________________________


