Model
Model: "model_140"
________________________________________________________________________________
Layer (type)              Output Shape      Param #  Connected to               
================================================================================
input_261 (InputLayer)    [(None, 20)]      0                                   
________________________________________________________________________________
dense_506 (Dense)         (None, 8)         168      input_261[0][0]            
________________________________________________________________________________
batch_normalization_257 ( (None, 8)         32       dense_506[0][0]            
________________________________________________________________________________
dropout_231 (Dropout)     (None, 8)         0        batch_normalization_257[0][
________________________________________________________________________________
dense_507 (Dense)         (None, 8)         72       dropout_231[0][0]          
________________________________________________________________________________
batch_normalization_258 ( (None, 8)         32       dense_507[0][0]            
________________________________________________________________________________
dropout_232 (Dropout)     (None, 8)         0        batch_normalization_258[0][
________________________________________________________________________________
dense_508 (Dense)         (None, 8)         72       dropout_232[0][0]          
________________________________________________________________________________
batch_normalization_259 ( (None, 8)         32       dense_508[0][0]            
________________________________________________________________________________
dense_509 (Dense)         (None, 1)         9        batch_normalization_259[0][
________________________________________________________________________________
input_262 (InputLayer)    [(None, 1)]       0                                   
________________________________________________________________________________
add_28 (Add)              (None, 1)         0        dense_509[0][0]            
                                                     input_262[0][0]            
________________________________________________________________________________
dense_510 (Dense)         (None, 1)         2        add_28[0][0]               
================================================================================
Total params: 419
Trainable params: 369
Non-trainable params: 50
________________________________________________________________________________


