Model
Model: "model_105"
________________________________________________________________________________
Layer (type)              Output Shape      Param #  Connected to               
================================================================================
input_191 (InputLayer)    [(None, 20)]      0                                   
________________________________________________________________________________
dense_338 (Dense)         (None, 32)        672      input_191[0][0]            
________________________________________________________________________________
batch_normalization_159 ( (None, 32)        128      dense_338[0][0]            
________________________________________________________________________________
dropout_161 (Dropout)     (None, 32)        0        batch_normalization_159[0][
________________________________________________________________________________
dense_339 (Dense)         (None, 16)        528      dropout_161[0][0]          
________________________________________________________________________________
batch_normalization_160 ( (None, 16)        64       dense_339[0][0]            
________________________________________________________________________________
dropout_162 (Dropout)     (None, 16)        0        batch_normalization_160[0][
________________________________________________________________________________
dense_340 (Dense)         (None, 1)         17       dropout_162[0][0]          
________________________________________________________________________________
input_192 (InputLayer)    [(None, 1)]       0                                   
________________________________________________________________________________
Add (Add)                 (None, 1)         0        dense_340[0][0]            
                                                     input_192[0][0]            
________________________________________________________________________________
dense_341 (Dense)         (None, 1)         2        Add[0][0]                  
================================================================================
Total params: 1,411
Trainable params: 1,313
Non-trainable params: 98
________________________________________________________________________________


