Model
Model: "model_195"
________________________________________________________________________________
Layer (type)              Output Shape      Param #  Connected to               
================================================================================
input_371 (InputLayer)    [(None, 20)]      0                                   
________________________________________________________________________________
dense_834 (Dense)         (None, 16)        336      input_371[0][0]            
________________________________________________________________________________
batch_normalization_475 ( (None, 16)        64       dense_834[0][0]            
________________________________________________________________________________
dropout_394 (Dropout)     (None, 16)        0        batch_normalization_475[0][
________________________________________________________________________________
dense_835 (Dense)         (None, 32)        544      dropout_394[0][0]          
________________________________________________________________________________
batch_normalization_476 ( (None, 32)        128      dense_835[0][0]            
________________________________________________________________________________
dropout_395 (Dropout)     (None, 32)        0        batch_normalization_476[0][
________________________________________________________________________________
dense_836 (Dense)         (None, 8)         264      dropout_395[0][0]          
________________________________________________________________________________
batch_normalization_477 ( (None, 8)         32       dense_836[0][0]            
________________________________________________________________________________
dropout_396 (Dropout)     (None, 8)         0        batch_normalization_477[0][
________________________________________________________________________________
dense_837 (Dense)         (None, 16)        144      dropout_396[0][0]          
________________________________________________________________________________
batch_normalization_478 ( (None, 16)        64       dense_837[0][0]            
________________________________________________________________________________
dense_838 (Dense)         (None, 1)         17       batch_normalization_478[0][
________________________________________________________________________________
input_372 (InputLayer)    [(None, 1)]       0                                   
________________________________________________________________________________
add_83 (Add)              (None, 1)         0        dense_838[0][0]            
                                                     input_372[0][0]            
________________________________________________________________________________
dense_839 (Dense)         (None, 1)         2        add_83[0][0]               
================================================================================
Total params: 1,595
Trainable params: 1,449
Non-trainable params: 146
________________________________________________________________________________


