Model
Model: "model_8"
________________________________________________________________________________
Layer (type)              Output Shape      Param #  Connected to               
================================================================================
input_17 (InputLayer)     [(None, 20)]      0                                   
________________________________________________________________________________
dense_32 (Dense)          (None, 128)       2688     input_17[0][0]             
________________________________________________________________________________
batch_normalization_16 (B (None, 128)       512      dense_32[0][0]             
________________________________________________________________________________
dropout_16 (Dropout)      (None, 128)       0        batch_normalization_16[0][0
________________________________________________________________________________
dense_33 (Dense)          (None, 32)        4128     dropout_16[0][0]           
________________________________________________________________________________
batch_normalization_17 (B (None, 32)        128      dense_33[0][0]             
________________________________________________________________________________
dropout_17 (Dropout)      (None, 32)        0        batch_normalization_17[0][0
________________________________________________________________________________
dense_34 (Dense)          (None, 1)         33       dropout_17[0][0]           
________________________________________________________________________________
input_18 (InputLayer)     [(None, 1)]       0                                   
________________________________________________________________________________
Add (Add)                 (None, 1)         0        dense_34[0][0]             
                                                     input_18[0][0]             
________________________________________________________________________________
dense_35 (Dense)          (None, 1)         2        Add[0][0]                  
================================================================================
Total params: 7,491
Trainable params: 7,169
Non-trainable params: 322
________________________________________________________________________________


