Model
Model: "model_53"
________________________________________________________________________________
Layer (type)              Output Shape      Param #  Connected to               
================================================================================
input_107 (InputLayer)    [(None, 20)]      0                                   
________________________________________________________________________________
dense_216 (Dense)         (None, 32)        672      input_107[0][0]            
________________________________________________________________________________
batch_normalization_110 ( (None, 32)        128      dense_216[0][0]            
________________________________________________________________________________
dropout_106 (Dropout)     (None, 32)        0        batch_normalization_110[0][
________________________________________________________________________________
dense_217 (Dense)         (None, 256)       8448     dropout_106[0][0]          
________________________________________________________________________________
batch_normalization_111 ( (None, 256)       1024     dense_217[0][0]            
________________________________________________________________________________
dropout_107 (Dropout)     (None, 256)       0        batch_normalization_111[0][
________________________________________________________________________________
dense_218 (Dense)         (None, 16)        4112     dropout_107[0][0]          
________________________________________________________________________________
batch_normalization_112 ( (None, 16)        64       dense_218[0][0]            
________________________________________________________________________________
dense_219 (Dense)         (None, 1)         17       batch_normalization_112[0][
________________________________________________________________________________
input_108 (InputLayer)    [(None, 1)]       0                                   
________________________________________________________________________________
add_4 (Add)               (None, 1)         0        dense_219[0][0]            
                                                     input_108[0][0]            
________________________________________________________________________________
dense_220 (Dense)         (None, 1)         2        add_4[0][0]                
================================================================================
Total params: 14,467
Trainable params: 13,857
Non-trainable params: 610
________________________________________________________________________________


