Model
Model: "model"
________________________________________________________________________________
Layer (type)              Output Shape      Param #  Connected to               
================================================================================
input_1 (InputLayer)      [(None, 20)]      0                                   
________________________________________________________________________________
dense (Dense)             (None, 16)        336      input_1[0][0]              
________________________________________________________________________________
batch_normalization (Batc (None, 16)        64       dense[0][0]                
________________________________________________________________________________
dropout (Dropout)         (None, 16)        0        batch_normalization[0][0]  
________________________________________________________________________________
dense_1 (Dense)           (None, 16)        272      dropout[0][0]              
________________________________________________________________________________
batch_normalization_1 (Ba (None, 16)        64       dense_1[0][0]              
________________________________________________________________________________
dropout_1 (Dropout)       (None, 16)        0        batch_normalization_1[0][0]
________________________________________________________________________________
dense_2 (Dense)           (None, 32)        544      dropout_1[0][0]            
________________________________________________________________________________
batch_normalization_2 (Ba (None, 32)        128      dense_2[0][0]              
________________________________________________________________________________
dropout_2 (Dropout)       (None, 32)        0        batch_normalization_2[0][0]
________________________________________________________________________________
dense_3 (Dense)           (None, 256)       8448     dropout_2[0][0]            
________________________________________________________________________________
dense_4 (Dense)           (None, 1)         257      dense_3[0][0]              
________________________________________________________________________________
input_2 (InputLayer)      [(None, 1)]       0                                   
________________________________________________________________________________
add (Add)                 (None, 1)         0        dense_4[0][0]              
                                                     input_2[0][0]              
________________________________________________________________________________
dense_5 (Dense)           (None, 1)         2        add[0][0]                  
================================================================================
Total params: 10,115
Trainable params: 9,985
Non-trainable params: 130
________________________________________________________________________________


