Model
Model: "model_98"
________________________________________________________________________________
Layer (type)              Output Shape      Param #  Connected to               
================================================================================
input_177 (InputLayer)    [(None, 20)]      0                                   
________________________________________________________________________________
dense_310 (Dense)         (None, 8)         168      input_177[0][0]            
________________________________________________________________________________
batch_normalization_145 ( (None, 8)         32       dense_310[0][0]            
________________________________________________________________________________
dropout_147 (Dropout)     (None, 8)         0        batch_normalization_145[0][
________________________________________________________________________________
dense_311 (Dense)         (None, 8)         72       dropout_147[0][0]          
________________________________________________________________________________
batch_normalization_146 ( (None, 8)         32       dense_311[0][0]            
________________________________________________________________________________
dropout_148 (Dropout)     (None, 8)         0        batch_normalization_146[0][
________________________________________________________________________________
dense_312 (Dense)         (None, 1)         9        dropout_148[0][0]          
________________________________________________________________________________
input_178 (InputLayer)    [(None, 1)]       0                                   
________________________________________________________________________________
Add (Add)                 (None, 1)         0        dense_312[0][0]            
                                                     input_178[0][0]            
________________________________________________________________________________
dense_313 (Dense)         (None, 1)         2        Add[0][0]                  
================================================================================
Total params: 315
Trainable params: 281
Non-trainable params: 34
________________________________________________________________________________


