Model
Model: "model_111"
________________________________________________________________________________
Layer (type)              Output Shape      Param #  Connected to               
================================================================================
input_203 (InputLayer)    [(None, 20)]      0                                   
________________________________________________________________________________
dense_362 (Dense)         (None, 32)        672      input_203[0][0]            
________________________________________________________________________________
batch_normalization_171 ( (None, 32)        128      dense_362[0][0]            
________________________________________________________________________________
dropout_173 (Dropout)     (None, 32)        0        batch_normalization_171[0][
________________________________________________________________________________
dense_363 (Dense)         (None, 16)        528      dropout_173[0][0]          
________________________________________________________________________________
batch_normalization_172 ( (None, 16)        64       dense_363[0][0]            
________________________________________________________________________________
dropout_174 (Dropout)     (None, 16)        0        batch_normalization_172[0][
________________________________________________________________________________
dense_364 (Dense)         (None, 1)         17       dropout_174[0][0]          
________________________________________________________________________________
input_204 (InputLayer)    [(None, 1)]       0                                   
________________________________________________________________________________
Add (Add)                 (None, 1)         0        dense_364[0][0]            
                                                     input_204[0][0]            
________________________________________________________________________________
dense_365 (Dense)         (None, 1)         2        Add[0][0]                  
================================================================================
Total params: 1,411
Trainable params: 1,313
Non-trainable params: 98
________________________________________________________________________________


