Model
Model: "model_176"
________________________________________________________________________________
Layer (type)              Output Shape      Param #  Connected to               
================================================================================
input_333 (InputLayer)    [(None, 20)]      0                                   
________________________________________________________________________________
dense_720 (Dense)         (None, 8)         168      input_333[0][0]            
________________________________________________________________________________
batch_normalization_399 ( (None, 8)         32       dense_720[0][0]            
________________________________________________________________________________
dropout_337 (Dropout)     (None, 8)         0        batch_normalization_399[0][
________________________________________________________________________________
dense_721 (Dense)         (None, 16)        144      dropout_337[0][0]          
________________________________________________________________________________
batch_normalization_400 ( (None, 16)        64       dense_721[0][0]            
________________________________________________________________________________
dropout_338 (Dropout)     (None, 16)        0        batch_normalization_400[0][
________________________________________________________________________________
dense_722 (Dense)         (None, 16)        272      dropout_338[0][0]          
________________________________________________________________________________
batch_normalization_401 ( (None, 16)        64       dense_722[0][0]            
________________________________________________________________________________
dropout_339 (Dropout)     (None, 16)        0        batch_normalization_401[0][
________________________________________________________________________________
dense_723 (Dense)         (None, 16)        272      dropout_339[0][0]          
________________________________________________________________________________
batch_normalization_402 ( (None, 16)        64       dense_723[0][0]            
________________________________________________________________________________
dense_724 (Dense)         (None, 1)         17       batch_normalization_402[0][
________________________________________________________________________________
input_334 (InputLayer)    [(None, 1)]       0                                   
________________________________________________________________________________
add_64 (Add)              (None, 1)         0        dense_724[0][0]            
                                                     input_334[0][0]            
________________________________________________________________________________
dense_725 (Dense)         (None, 1)         2        add_64[0][0]               
================================================================================
Total params: 1,099
Trainable params: 985
Non-trainable params: 114
________________________________________________________________________________


