Model
Model: "model_58"
________________________________________________________________________________
Layer (type)              Output Shape      Param #  Connected to               
================================================================================
input_97 (InputLayer)     [(None, 20)]      0                                   
________________________________________________________________________________
dense_150 (Dense)         (None, 32)        672      input_97[0][0]             
________________________________________________________________________________
batch_normalization_65 (B (None, 32)        128      dense_150[0][0]            
________________________________________________________________________________
dropout_67 (Dropout)      (None, 32)        0        batch_normalization_65[0][0
________________________________________________________________________________
dense_151 (Dense)         (None, 16)        528      dropout_67[0][0]           
________________________________________________________________________________
batch_normalization_66 (B (None, 16)        64       dense_151[0][0]            
________________________________________________________________________________
dropout_68 (Dropout)      (None, 16)        0        batch_normalization_66[0][0
________________________________________________________________________________
dense_152 (Dense)         (None, 1)         17       dropout_68[0][0]           
________________________________________________________________________________
input_98 (InputLayer)     [(None, 1)]       0                                   
________________________________________________________________________________
Add (Add)                 (None, 1)         0        dense_152[0][0]            
                                                     input_98[0][0]             
________________________________________________________________________________
dense_153 (Dense)         (None, 1)         2        Add[0][0]                  
================================================================================
Total params: 1,411
Trainable params: 1,313
Non-trainable params: 98
________________________________________________________________________________


