Model
Model: "model_17"
________________________________________________________________________________
Layer (type)              Output Shape      Param #  Connected to               
================================================================================
input_35 (InputLayer)     [(None, 20)]      0                                   
________________________________________________________________________________
dense_68 (Dense)          (None, 64)        1344     input_35[0][0]             
________________________________________________________________________________
batch_normalization_34 (B (None, 64)        256      dense_68[0][0]             
________________________________________________________________________________
dropout_34 (Dropout)      (None, 64)        0        batch_normalization_34[0][0
________________________________________________________________________________
dense_69 (Dense)          (None, 128)       8320     dropout_34[0][0]           
________________________________________________________________________________
batch_normalization_35 (B (None, 128)       512      dense_69[0][0]             
________________________________________________________________________________
dropout_35 (Dropout)      (None, 128)       0        batch_normalization_35[0][0
________________________________________________________________________________
dense_70 (Dense)          (None, 1)         129      dropout_35[0][0]           
________________________________________________________________________________
input_36 (InputLayer)     [(None, 1)]       0                                   
________________________________________________________________________________
Add (Add)                 (None, 1)         0        dense_70[0][0]             
                                                     input_36[0][0]             
________________________________________________________________________________
dense_71 (Dense)          (None, 1)         2        Add[0][0]                  
================================================================================
Total params: 10,563
Trainable params: 10,177
Non-trainable params: 386
________________________________________________________________________________


