Model
Model: "model_94"
________________________________________________________________________________
Layer (type)              Output Shape      Param #  Connected to               
================================================================================
input_169 (InputLayer)    [(None, 20)]      0                                   
________________________________________________________________________________
dense_294 (Dense)         (None, 8)         168      input_169[0][0]            
________________________________________________________________________________
batch_normalization_137 ( (None, 8)         32       dense_294[0][0]            
________________________________________________________________________________
dropout_139 (Dropout)     (None, 8)         0        batch_normalization_137[0][
________________________________________________________________________________
dense_295 (Dense)         (None, 8)         72       dropout_139[0][0]          
________________________________________________________________________________
batch_normalization_138 ( (None, 8)         32       dense_295[0][0]            
________________________________________________________________________________
dropout_140 (Dropout)     (None, 8)         0        batch_normalization_138[0][
________________________________________________________________________________
dense_296 (Dense)         (None, 1)         9        dropout_140[0][0]          
________________________________________________________________________________
input_170 (InputLayer)    [(None, 1)]       0                                   
________________________________________________________________________________
Add (Add)                 (None, 1)         0        dense_296[0][0]            
                                                     input_170[0][0]            
________________________________________________________________________________
dense_297 (Dense)         (None, 1)         2        Add[0][0]                  
================================================================================
Total params: 315
Trainable params: 281
Non-trainable params: 34
________________________________________________________________________________


