Model
Model: "model_39"
________________________________________________________________________________
Layer (type)              Output Shape      Param #  Connected to               
================================================================================
input_79 (InputLayer)     [(None, 20)]      0                                   
________________________________________________________________________________
dense_156 (Dense)         (None, 32)        672      input_79[0][0]             
________________________________________________________________________________
batch_normalization_78 (B (None, 32)        128      dense_156[0][0]            
________________________________________________________________________________
dropout_78 (Dropout)      (None, 32)        0        batch_normalization_78[0][0
________________________________________________________________________________
dense_157 (Dense)         (None, 16)        528      dropout_78[0][0]           
________________________________________________________________________________
batch_normalization_79 (B (None, 16)        64       dense_157[0][0]            
________________________________________________________________________________
dropout_79 (Dropout)      (None, 16)        0        batch_normalization_79[0][0
________________________________________________________________________________
dense_158 (Dense)         (None, 1)         17       dropout_79[0][0]           
________________________________________________________________________________
input_80 (InputLayer)     [(None, 1)]       0                                   
________________________________________________________________________________
Add (Add)                 (None, 1)         0        dense_158[0][0]            
                                                     input_80[0][0]             
________________________________________________________________________________
dense_159 (Dense)         (None, 1)         2        Add[0][0]                  
================================================================================
Total params: 1,411
Trainable params: 1,313
Non-trainable params: 98
________________________________________________________________________________


