Model
Model: "model_59"
________________________________________________________________________________
Layer (type)              Output Shape      Param #  Connected to               
================================================================================
input_119 (InputLayer)    [(None, 20)]      0                                   
________________________________________________________________________________
dense_246 (Dense)         (None, 32)        672      input_119[0][0]            
________________________________________________________________________________
batch_normalization_128 ( (None, 32)        128      dense_246[0][0]            
________________________________________________________________________________
dropout_118 (Dropout)     (None, 32)        0        batch_normalization_128[0][
________________________________________________________________________________
dense_247 (Dense)         (None, 256)       8448     dropout_118[0][0]          
________________________________________________________________________________
batch_normalization_129 ( (None, 256)       1024     dense_247[0][0]            
________________________________________________________________________________
dropout_119 (Dropout)     (None, 256)       0        batch_normalization_129[0][
________________________________________________________________________________
dense_248 (Dense)         (None, 32)        8224     dropout_119[0][0]          
________________________________________________________________________________
batch_normalization_130 ( (None, 32)        128      dense_248[0][0]            
________________________________________________________________________________
dense_249 (Dense)         (None, 1)         33       batch_normalization_130[0][
________________________________________________________________________________
input_120 (InputLayer)    [(None, 1)]       0                                   
________________________________________________________________________________
add_10 (Add)              (None, 1)         0        dense_249[0][0]            
                                                     input_120[0][0]            
________________________________________________________________________________
dense_250 (Dense)         (None, 1)         2        add_10[0][0]               
================================================================================
Total params: 18,659
Trainable params: 18,017
Non-trainable params: 642
________________________________________________________________________________


