Model
Model: "model_1"
________________________________________________________________________________
Layer (type)              Output Shape      Param #  Connected to               
================================================================================
input_3 (InputLayer)      [(None, 20)]      0                                   
________________________________________________________________________________
dense_6 (Dense)           (None, 64)        1344     input_3[0][0]              
________________________________________________________________________________
batch_normalization_3 (Ba (None, 64)        256      dense_6[0][0]              
________________________________________________________________________________
dropout_3 (Dropout)       (None, 64)        0        batch_normalization_3[0][0]
________________________________________________________________________________
dense_7 (Dense)           (None, 32)        2080     dropout_3[0][0]            
________________________________________________________________________________
batch_normalization_4 (Ba (None, 32)        128      dense_7[0][0]              
________________________________________________________________________________
dropout_4 (Dropout)       (None, 32)        0        batch_normalization_4[0][0]
________________________________________________________________________________
dense_8 (Dense)           (None, 64)        2112     dropout_4[0][0]            
________________________________________________________________________________
batch_normalization_5 (Ba (None, 64)        256      dense_8[0][0]              
________________________________________________________________________________
dropout_5 (Dropout)       (None, 64)        0        batch_normalization_5[0][0]
________________________________________________________________________________
dense_9 (Dense)           (None, 32)        2080     dropout_5[0][0]            
________________________________________________________________________________
dense_10 (Dense)          (None, 1)         33       dense_9[0][0]              
________________________________________________________________________________
input_4 (InputLayer)      [(None, 1)]       0                                   
________________________________________________________________________________
add_1 (Add)               (None, 1)         0        dense_10[0][0]             
                                                     input_4[0][0]              
________________________________________________________________________________
dense_11 (Dense)          (None, 1)         2        add_1[0][0]                
================================================================================
Total params: 8,291
Trainable params: 7,969
Non-trainable params: 322
________________________________________________________________________________


