Model
Model: "model_1"
________________________________________________________________________________
Layer (type)              Output Shape      Param #  Connected to               
================================================================================
input_3 (InputLayer)      [(None, 20)]      0                                   
________________________________________________________________________________
dense_4 (Dense)           (None, 32)        672      input_3[0][0]              
________________________________________________________________________________
batch_normalization_2 (Ba (None, 32)        128      dense_4[0][0]              
________________________________________________________________________________
dropout_2 (Dropout)       (None, 32)        0        batch_normalization_2[0][0]
________________________________________________________________________________
dense_5 (Dense)           (None, 16)        528      dropout_2[0][0]            
________________________________________________________________________________
batch_normalization_3 (Ba (None, 16)        64       dense_5[0][0]              
________________________________________________________________________________
dropout_3 (Dropout)       (None, 16)        0        batch_normalization_3[0][0]
________________________________________________________________________________
dense_6 (Dense)           (None, 1)         17       dropout_3[0][0]            
________________________________________________________________________________
input_4 (InputLayer)      [(None, 1)]       0                                   
________________________________________________________________________________
Add (Add)                 (None, 1)         0        dense_6[0][0]              
                                                     input_4[0][0]              
________________________________________________________________________________
dense_7 (Dense)           (None, 1)         2        Add[0][0]                  
================================================================================
Total params: 1,411
Trainable params: 1,313
Non-trainable params: 98
________________________________________________________________________________


