Model
Model: "model_180"
________________________________________________________________________________
Layer (type)              Output Shape      Param #  Connected to               
================================================================================
input_341 (InputLayer)    [(None, 20)]      0                                   
________________________________________________________________________________
dense_744 (Dense)         (None, 16)        336      input_341[0][0]            
________________________________________________________________________________
batch_normalization_415 ( (None, 16)        64       dense_744[0][0]            
________________________________________________________________________________
dropout_349 (Dropout)     (None, 16)        0        batch_normalization_415[0][
________________________________________________________________________________
dense_745 (Dense)         (None, 16)        272      dropout_349[0][0]          
________________________________________________________________________________
batch_normalization_416 ( (None, 16)        64       dense_745[0][0]            
________________________________________________________________________________
dropout_350 (Dropout)     (None, 16)        0        batch_normalization_416[0][
________________________________________________________________________________
dense_746 (Dense)         (None, 16)        272      dropout_350[0][0]          
________________________________________________________________________________
batch_normalization_417 ( (None, 16)        64       dense_746[0][0]            
________________________________________________________________________________
dropout_351 (Dropout)     (None, 16)        0        batch_normalization_417[0][
________________________________________________________________________________
dense_747 (Dense)         (None, 16)        272      dropout_351[0][0]          
________________________________________________________________________________
batch_normalization_418 ( (None, 16)        64       dense_747[0][0]            
________________________________________________________________________________
dense_748 (Dense)         (None, 1)         17       batch_normalization_418[0][
________________________________________________________________________________
input_342 (InputLayer)    [(None, 1)]       0                                   
________________________________________________________________________________
add_68 (Add)              (None, 1)         0        dense_748[0][0]            
                                                     input_342[0][0]            
________________________________________________________________________________
dense_749 (Dense)         (None, 1)         2        add_68[0][0]               
================================================================================
Total params: 1,427
Trainable params: 1,297
Non-trainable params: 130
________________________________________________________________________________


