Model
Model: "model_4"
________________________________________________________________________________
Layer (type)              Output Shape      Param #  Connected to               
================================================================================
input_9 (InputLayer)      [(None, 20)]      0                                   
________________________________________________________________________________
dense_16 (Dense)          (None, 256)       5376     input_9[0][0]              
________________________________________________________________________________
batch_normalization_8 (Ba (None, 256)       1024     dense_16[0][0]             
________________________________________________________________________________
dropout_8 (Dropout)       (None, 256)       0        batch_normalization_8[0][0]
________________________________________________________________________________
dense_17 (Dense)          (None, 16)        4112     dropout_8[0][0]            
________________________________________________________________________________
batch_normalization_9 (Ba (None, 16)        64       dense_17[0][0]             
________________________________________________________________________________
dropout_9 (Dropout)       (None, 16)        0        batch_normalization_9[0][0]
________________________________________________________________________________
dense_18 (Dense)          (None, 1)         17       dropout_9[0][0]            
________________________________________________________________________________
input_10 (InputLayer)     [(None, 1)]       0                                   
________________________________________________________________________________
Add (Add)                 (None, 1)         0        dense_18[0][0]             
                                                     input_10[0][0]             
________________________________________________________________________________
dense_19 (Dense)          (None, 1)         2        Add[0][0]                  
================================================================================
Total params: 10,595
Trainable params: 10,049
Non-trainable params: 546
________________________________________________________________________________


