Model
Model: "model_147"
________________________________________________________________________________
Layer (type)              Output Shape      Param #  Connected to               
================================================================================
input_275 (InputLayer)    [(None, 20)]      0                                   
________________________________________________________________________________
dense_546 (Dense)         (None, 32)        672      input_275[0][0]            
________________________________________________________________________________
batch_normalization_283 ( (None, 32)        128      dense_546[0][0]            
________________________________________________________________________________
dropout_250 (Dropout)     (None, 32)        0        batch_normalization_283[0][
________________________________________________________________________________
dense_547 (Dense)         (None, 32)        1056     dropout_250[0][0]          
________________________________________________________________________________
batch_normalization_284 ( (None, 32)        128      dense_547[0][0]            
________________________________________________________________________________
dropout_251 (Dropout)     (None, 32)        0        batch_normalization_284[0][
________________________________________________________________________________
dense_548 (Dense)         (None, 8)         264      dropout_251[0][0]          
________________________________________________________________________________
batch_normalization_285 ( (None, 8)         32       dense_548[0][0]            
________________________________________________________________________________
dropout_252 (Dropout)     (None, 8)         0        batch_normalization_285[0][
________________________________________________________________________________
dense_549 (Dense)         (None, 8)         72       dropout_252[0][0]          
________________________________________________________________________________
batch_normalization_286 ( (None, 8)         32       dense_549[0][0]            
________________________________________________________________________________
dense_550 (Dense)         (None, 1)         9        batch_normalization_286[0][
________________________________________________________________________________
input_276 (InputLayer)    [(None, 1)]       0                                   
________________________________________________________________________________
add_35 (Add)              (None, 1)         0        dense_550[0][0]            
                                                     input_276[0][0]            
________________________________________________________________________________
dense_551 (Dense)         (None, 1)         2        add_35[0][0]               
================================================================================
Total params: 2,395
Trainable params: 2,233
Non-trainable params: 162
________________________________________________________________________________


