Model
Model: "model_52"
________________________________________________________________________________
Layer (type)              Output Shape      Param #  Connected to               
================================================================================
input_105 (InputLayer)    [(None, 20)]      0                                   
________________________________________________________________________________
dense_211 (Dense)         (None, 16)        336      input_105[0][0]            
________________________________________________________________________________
batch_normalization_107 ( (None, 16)        64       dense_211[0][0]            
________________________________________________________________________________
dropout_104 (Dropout)     (None, 16)        0        batch_normalization_107[0][
________________________________________________________________________________
dense_212 (Dense)         (None, 256)       4352     dropout_104[0][0]          
________________________________________________________________________________
batch_normalization_108 ( (None, 256)       1024     dense_212[0][0]            
________________________________________________________________________________
dropout_105 (Dropout)     (None, 256)       0        batch_normalization_108[0][
________________________________________________________________________________
dense_213 (Dense)         (None, 16)        4112     dropout_105[0][0]          
________________________________________________________________________________
batch_normalization_109 ( (None, 16)        64       dense_213[0][0]            
________________________________________________________________________________
dense_214 (Dense)         (None, 1)         17       batch_normalization_109[0][
________________________________________________________________________________
input_106 (InputLayer)    [(None, 1)]       0                                   
________________________________________________________________________________
add_3 (Add)               (None, 1)         0        dense_214[0][0]            
                                                     input_106[0][0]            
________________________________________________________________________________
dense_215 (Dense)         (None, 1)         2        add_3[0][0]                
================================================================================
Total params: 9,971
Trainable params: 9,393
Non-trainable params: 578
________________________________________________________________________________


