Model
Model: "model"
________________________________________________________________________________
Layer (type)              Output Shape      Param #  Connected to               
================================================================================
input_1 (InputLayer)      [(None, 34)]      0                                   
________________________________________________________________________________
dense (Dense)             (None, 16)        560      input_1[0][0]              
________________________________________________________________________________
batch_normalization (Batc (None, 16)        64       dense[0][0]                
________________________________________________________________________________
dropout (Dropout)         (None, 16)        0        batch_normalization[0][0]  
________________________________________________________________________________
dense_1 (Dense)           (None, 8)         136      dropout[0][0]              
________________________________________________________________________________
dropout_1 (Dropout)       (None, 8)         0        dense_1[0][0]              
________________________________________________________________________________
input_2 (InputLayer)      [(None, 1)]       0                                   
________________________________________________________________________________
dense_2 (Dense)           (None, 1)         9        dropout_1[0][0]            
________________________________________________________________________________
dense_3 (Dense)           (None, 1)         1        input_2[0][0]              
________________________________________________________________________________
multiply (Multiply)       (None, 1)         0        dense_2[0][0]              
                                                     dense_3[0][0]              
================================================================================
Total params: 770
Trainable params: 737
Non-trainable params: 33
________________________________________________________________________________


