Model
Model: "model_190"
________________________________________________________________________________
Layer (type)              Output Shape      Param #  Connected to               
================================================================================
input_361 (InputLayer)    [(None, 20)]      0                                   
________________________________________________________________________________
dense_804 (Dense)         (None, 16)        336      input_361[0][0]            
________________________________________________________________________________
batch_normalization_455 ( (None, 16)        64       dense_804[0][0]            
________________________________________________________________________________
dropout_379 (Dropout)     (None, 16)        0        batch_normalization_455[0][
________________________________________________________________________________
dense_805 (Dense)         (None, 32)        544      dropout_379[0][0]          
________________________________________________________________________________
batch_normalization_456 ( (None, 32)        128      dense_805[0][0]            
________________________________________________________________________________
dropout_380 (Dropout)     (None, 32)        0        batch_normalization_456[0][
________________________________________________________________________________
dense_806 (Dense)         (None, 8)         264      dropout_380[0][0]          
________________________________________________________________________________
batch_normalization_457 ( (None, 8)         32       dense_806[0][0]            
________________________________________________________________________________
dropout_381 (Dropout)     (None, 8)         0        batch_normalization_457[0][
________________________________________________________________________________
dense_807 (Dense)         (None, 16)        144      dropout_381[0][0]          
________________________________________________________________________________
batch_normalization_458 ( (None, 16)        64       dense_807[0][0]            
________________________________________________________________________________
dense_808 (Dense)         (None, 1)         17       batch_normalization_458[0][
________________________________________________________________________________
input_362 (InputLayer)    [(None, 1)]       0                                   
________________________________________________________________________________
add_78 (Add)              (None, 1)         0        dense_808[0][0]            
                                                     input_362[0][0]            
________________________________________________________________________________
dense_809 (Dense)         (None, 1)         2        add_78[0][0]               
================================================================================
Total params: 1,595
Trainable params: 1,449
Non-trainable params: 146
________________________________________________________________________________


