Model
Model: "model_130"
________________________________________________________________________________
Layer (type)              Output Shape      Param #  Connected to               
================================================================================
input_241 (InputLayer)    [(None, 20)]      0                                   
________________________________________________________________________________
dense_456 (Dense)         (None, 32)        672      input_241[0][0]            
________________________________________________________________________________
batch_normalization_227 ( (None, 32)        128      dense_456[0][0]            
________________________________________________________________________________
dropout_211 (Dropout)     (None, 32)        0        batch_normalization_227[0][
________________________________________________________________________________
dense_457 (Dense)         (None, 16)        528      dropout_211[0][0]          
________________________________________________________________________________
batch_normalization_228 ( (None, 16)        64       dense_457[0][0]            
________________________________________________________________________________
dropout_212 (Dropout)     (None, 16)        0        batch_normalization_228[0][
________________________________________________________________________________
dense_458 (Dense)         (None, 8)         136      dropout_212[0][0]          
________________________________________________________________________________
batch_normalization_229 ( (None, 8)         32       dense_458[0][0]            
________________________________________________________________________________
dense_459 (Dense)         (None, 1)         9        batch_normalization_229[0][
________________________________________________________________________________
input_242 (InputLayer)    [(None, 1)]       0                                   
________________________________________________________________________________
add_18 (Add)              (None, 1)         0        dense_459[0][0]            
                                                     input_242[0][0]            
________________________________________________________________________________
dense_460 (Dense)         (None, 1)         2        add_18[0][0]               
================================================================================
Total params: 1,571
Trainable params: 1,457
Non-trainable params: 114
________________________________________________________________________________


