Model
Model: "model_102"
________________________________________________________________________________
Layer (type)              Output Shape      Param #  Connected to               
================================================================================
input_185 (InputLayer)    [(None, 20)]      0                                   
________________________________________________________________________________
dense_326 (Dense)         (None, 8)         168      input_185[0][0]            
________________________________________________________________________________
batch_normalization_153 ( (None, 8)         32       dense_326[0][0]            
________________________________________________________________________________
dropout_155 (Dropout)     (None, 8)         0        batch_normalization_153[0][
________________________________________________________________________________
dense_327 (Dense)         (None, 8)         72       dropout_155[0][0]          
________________________________________________________________________________
batch_normalization_154 ( (None, 8)         32       dense_327[0][0]            
________________________________________________________________________________
dropout_156 (Dropout)     (None, 8)         0        batch_normalization_154[0][
________________________________________________________________________________
dense_328 (Dense)         (None, 1)         9        dropout_156[0][0]          
________________________________________________________________________________
input_186 (InputLayer)    [(None, 1)]       0                                   
________________________________________________________________________________
Add (Add)                 (None, 1)         0        dense_328[0][0]            
                                                     input_186[0][0]            
________________________________________________________________________________
dense_329 (Dense)         (None, 1)         2        Add[0][0]                  
================================================================================
Total params: 315
Trainable params: 281
Non-trainable params: 34
________________________________________________________________________________


