Model
Model: "model_194"
________________________________________________________________________________
Layer (type)              Output Shape      Param #  Connected to               
================================================================================
input_369 (InputLayer)    [(None, 20)]      0                                   
________________________________________________________________________________
dense_828 (Dense)         (None, 16)        336      input_369[0][0]            
________________________________________________________________________________
batch_normalization_471 ( (None, 16)        64       dense_828[0][0]            
________________________________________________________________________________
dropout_391 (Dropout)     (None, 16)        0        batch_normalization_471[0][
________________________________________________________________________________
dense_829 (Dense)         (None, 32)        544      dropout_391[0][0]          
________________________________________________________________________________
batch_normalization_472 ( (None, 32)        128      dense_829[0][0]            
________________________________________________________________________________
dropout_392 (Dropout)     (None, 32)        0        batch_normalization_472[0][
________________________________________________________________________________
dense_830 (Dense)         (None, 8)         264      dropout_392[0][0]          
________________________________________________________________________________
batch_normalization_473 ( (None, 8)         32       dense_830[0][0]            
________________________________________________________________________________
dropout_393 (Dropout)     (None, 8)         0        batch_normalization_473[0][
________________________________________________________________________________
dense_831 (Dense)         (None, 16)        144      dropout_393[0][0]          
________________________________________________________________________________
batch_normalization_474 ( (None, 16)        64       dense_831[0][0]            
________________________________________________________________________________
dense_832 (Dense)         (None, 1)         17       batch_normalization_474[0][
________________________________________________________________________________
input_370 (InputLayer)    [(None, 1)]       0                                   
________________________________________________________________________________
add_82 (Add)              (None, 1)         0        dense_832[0][0]            
                                                     input_370[0][0]            
________________________________________________________________________________
dense_833 (Dense)         (None, 1)         2        add_82[0][0]               
================================================================================
Total params: 1,595
Trainable params: 1,449
Non-trainable params: 146
________________________________________________________________________________


