Model
Model: "model_74"
________________________________________________________________________________
Layer (type)              Output Shape      Param #  Connected to               
================================================================================
input_129 (InputLayer)    [(None, 20)]      0                                   
________________________________________________________________________________
dense_214 (Dense)         (None, 8)         168      input_129[0][0]            
________________________________________________________________________________
batch_normalization_97 (B (None, 8)         32       dense_214[0][0]            
________________________________________________________________________________
dropout_99 (Dropout)      (None, 8)         0        batch_normalization_97[0][0
________________________________________________________________________________
dense_215 (Dense)         (None, 8)         72       dropout_99[0][0]           
________________________________________________________________________________
batch_normalization_98 (B (None, 8)         32       dense_215[0][0]            
________________________________________________________________________________
dropout_100 (Dropout)     (None, 8)         0        batch_normalization_98[0][0
________________________________________________________________________________
dense_216 (Dense)         (None, 1)         9        dropout_100[0][0]          
________________________________________________________________________________
input_130 (InputLayer)    [(None, 1)]       0                                   
________________________________________________________________________________
Add (Add)                 (None, 1)         0        dense_216[0][0]            
                                                     input_130[0][0]            
________________________________________________________________________________
dense_217 (Dense)         (None, 1)         2        Add[0][0]                  
================================================================================
Total params: 315
Trainable params: 281
Non-trainable params: 34
________________________________________________________________________________


