Model
Model: "model_3"
________________________________________________________________________________
Layer (type)              Output Shape      Param #  Connected to               
================================================================================
input_7 (InputLayer)      [(None, 20)]      0                                   
________________________________________________________________________________
dense_12 (Dense)          (None, 128)       2688     input_7[0][0]              
________________________________________________________________________________
batch_normalization_6 (Ba (None, 128)       512      dense_12[0][0]             
________________________________________________________________________________
dropout_6 (Dropout)       (None, 128)       0        batch_normalization_6[0][0]
________________________________________________________________________________
dense_13 (Dense)          (None, 16)        2064     dropout_6[0][0]            
________________________________________________________________________________
batch_normalization_7 (Ba (None, 16)        64       dense_13[0][0]             
________________________________________________________________________________
dropout_7 (Dropout)       (None, 16)        0        batch_normalization_7[0][0]
________________________________________________________________________________
dense_14 (Dense)          (None, 1)         17       dropout_7[0][0]            
________________________________________________________________________________
input_8 (InputLayer)      [(None, 1)]       0                                   
________________________________________________________________________________
Add (Add)                 (None, 1)         0        dense_14[0][0]             
                                                     input_8[0][0]              
________________________________________________________________________________
dense_15 (Dense)          (None, 1)         2        Add[0][0]                  
================================================================================
Total params: 5,347
Trainable params: 5,057
Non-trainable params: 290
________________________________________________________________________________


