Model
Model: "model_141"
________________________________________________________________________________
Layer (type)              Output Shape      Param #  Connected to               
================================================================================
input_263 (InputLayer)    [(None, 20)]      0                                   
________________________________________________________________________________
dense_511 (Dense)         (None, 8)         168      input_263[0][0]            
________________________________________________________________________________
batch_normalization_260 ( (None, 8)         32       dense_511[0][0]            
________________________________________________________________________________
dropout_233 (Dropout)     (None, 8)         0        batch_normalization_260[0][
________________________________________________________________________________
dense_512 (Dense)         (None, 8)         72       dropout_233[0][0]          
________________________________________________________________________________
batch_normalization_261 ( (None, 8)         32       dense_512[0][0]            
________________________________________________________________________________
dropout_234 (Dropout)     (None, 8)         0        batch_normalization_261[0][
________________________________________________________________________________
dense_513 (Dense)         (None, 8)         72       dropout_234[0][0]          
________________________________________________________________________________
batch_normalization_262 ( (None, 8)         32       dense_513[0][0]            
________________________________________________________________________________
dense_514 (Dense)         (None, 1)         9        batch_normalization_262[0][
________________________________________________________________________________
input_264 (InputLayer)    [(None, 1)]       0                                   
________________________________________________________________________________
add_29 (Add)              (None, 1)         0        dense_514[0][0]            
                                                     input_264[0][0]            
________________________________________________________________________________
dense_515 (Dense)         (None, 1)         2        add_29[0][0]               
================================================================================
Total params: 419
Trainable params: 369
Non-trainable params: 50
________________________________________________________________________________


