Model
Model: "model_65"
________________________________________________________________________________
Layer (type)              Output Shape      Param #  Connected to               
================================================================================
input_111 (InputLayer)    [(None, 20)]      0                                   
________________________________________________________________________________
dense_178 (Dense)         (None, 16)        336      input_111[0][0]            
________________________________________________________________________________
batch_normalization_79 (B (None, 16)        64       dense_178[0][0]            
________________________________________________________________________________
dropout_81 (Dropout)      (None, 16)        0        batch_normalization_79[0][0
________________________________________________________________________________
dense_179 (Dense)         (None, 64)        1088     dropout_81[0][0]           
________________________________________________________________________________
batch_normalization_80 (B (None, 64)        256      dense_179[0][0]            
________________________________________________________________________________
dropout_82 (Dropout)      (None, 64)        0        batch_normalization_80[0][0
________________________________________________________________________________
dense_180 (Dense)         (None, 1)         65       dropout_82[0][0]           
________________________________________________________________________________
input_112 (InputLayer)    [(None, 1)]       0                                   
________________________________________________________________________________
Add (Add)                 (None, 1)         0        dense_180[0][0]            
                                                     input_112[0][0]            
________________________________________________________________________________
dense_181 (Dense)         (None, 1)         2        Add[0][0]                  
================================================================================
Total params: 1,811
Trainable params: 1,649
Non-trainable params: 162
________________________________________________________________________________


