Model
Model: "model_113"
________________________________________________________________________________
Layer (type)              Output Shape      Param #  Connected to               
================================================================================
input_207 (InputLayer)    [(None, 20)]      0                                   
________________________________________________________________________________
dense_371 (Dense)         (None, 16)        336      input_207[0][0]            
________________________________________________________________________________
batch_normalization_176 ( (None, 16)        64       dense_371[0][0]            
________________________________________________________________________________
dropout_177 (Dropout)     (None, 16)        0        batch_normalization_176[0][
________________________________________________________________________________
dense_372 (Dense)         (None, 8)         136      dropout_177[0][0]          
________________________________________________________________________________
batch_normalization_177 ( (None, 8)         32       dense_372[0][0]            
________________________________________________________________________________
dropout_178 (Dropout)     (None, 8)         0        batch_normalization_177[0][
________________________________________________________________________________
dense_373 (Dense)         (None, 8)         72       dropout_178[0][0]          
________________________________________________________________________________
batch_normalization_178 ( (None, 8)         32       dense_373[0][0]            
________________________________________________________________________________
dense_374 (Dense)         (None, 1)         9        batch_normalization_178[0][
________________________________________________________________________________
input_208 (InputLayer)    [(None, 1)]       0                                   
________________________________________________________________________________
add_1 (Add)               (None, 1)         0        dense_374[0][0]            
                                                     input_208[0][0]            
________________________________________________________________________________
dense_375 (Dense)         (None, 1)         2        add_1[0][0]                
================================================================================
Total params: 683
Trainable params: 617
Non-trainable params: 66
________________________________________________________________________________


