Model
Model: "model_125"
________________________________________________________________________________
Layer (type)              Output Shape      Param #  Connected to               
================================================================================
input_231 (InputLayer)    [(None, 20)]      0                                   
________________________________________________________________________________
dense_431 (Dense)         (None, 32)        672      input_231[0][0]            
________________________________________________________________________________
batch_normalization_212 ( (None, 32)        128      dense_431[0][0]            
________________________________________________________________________________
dropout_201 (Dropout)     (None, 32)        0        batch_normalization_212[0][
________________________________________________________________________________
dense_432 (Dense)         (None, 16)        528      dropout_201[0][0]          
________________________________________________________________________________
batch_normalization_213 ( (None, 16)        64       dense_432[0][0]            
________________________________________________________________________________
dropout_202 (Dropout)     (None, 16)        0        batch_normalization_213[0][
________________________________________________________________________________
dense_433 (Dense)         (None, 8)         136      dropout_202[0][0]          
________________________________________________________________________________
batch_normalization_214 ( (None, 8)         32       dense_433[0][0]            
________________________________________________________________________________
dense_434 (Dense)         (None, 1)         9        batch_normalization_214[0][
________________________________________________________________________________
input_232 (InputLayer)    [(None, 1)]       0                                   
________________________________________________________________________________
add_13 (Add)              (None, 1)         0        dense_434[0][0]            
                                                     input_232[0][0]            
________________________________________________________________________________
dense_435 (Dense)         (None, 1)         2        add_13[0][0]               
================================================================================
Total params: 1,571
Trainable params: 1,457
Non-trainable params: 114
________________________________________________________________________________


