Model
Model: "model_175"
________________________________________________________________________________
Layer (type)              Output Shape      Param #  Connected to               
================================================================================
input_331 (InputLayer)    [(None, 20)]      0                                   
________________________________________________________________________________
dense_714 (Dense)         (None, 8)         168      input_331[0][0]            
________________________________________________________________________________
batch_normalization_395 ( (None, 8)         32       dense_714[0][0]            
________________________________________________________________________________
dropout_334 (Dropout)     (None, 8)         0        batch_normalization_395[0][
________________________________________________________________________________
dense_715 (Dense)         (None, 8)         72       dropout_334[0][0]          
________________________________________________________________________________
batch_normalization_396 ( (None, 8)         32       dense_715[0][0]            
________________________________________________________________________________
dropout_335 (Dropout)     (None, 8)         0        batch_normalization_396[0][
________________________________________________________________________________
dense_716 (Dense)         (None, 16)        144      dropout_335[0][0]          
________________________________________________________________________________
batch_normalization_397 ( (None, 16)        64       dense_716[0][0]            
________________________________________________________________________________
dropout_336 (Dropout)     (None, 16)        0        batch_normalization_397[0][
________________________________________________________________________________
dense_717 (Dense)         (None, 16)        272      dropout_336[0][0]          
________________________________________________________________________________
batch_normalization_398 ( (None, 16)        64       dense_717[0][0]            
________________________________________________________________________________
dense_718 (Dense)         (None, 1)         17       batch_normalization_398[0][
________________________________________________________________________________
input_332 (InputLayer)    [(None, 1)]       0                                   
________________________________________________________________________________
add_63 (Add)              (None, 1)         0        dense_718[0][0]            
                                                     input_332[0][0]            
________________________________________________________________________________
dense_719 (Dense)         (None, 1)         2        add_63[0][0]               
================================================================================
Total params: 867
Trainable params: 769
Non-trainable params: 98
________________________________________________________________________________


