Model
Model: "model_38"
________________________________________________________________________________
Layer (type)              Output Shape      Param #  Connected to               
================================================================================
input_77 (InputLayer)     [(None, 20)]      0                                   
________________________________________________________________________________
dense_152 (Dense)         (None, 32)        672      input_77[0][0]             
________________________________________________________________________________
batch_normalization_76 (B (None, 32)        128      dense_152[0][0]            
________________________________________________________________________________
dropout_76 (Dropout)      (None, 32)        0        batch_normalization_76[0][0
________________________________________________________________________________
dense_153 (Dense)         (None, 16)        528      dropout_76[0][0]           
________________________________________________________________________________
batch_normalization_77 (B (None, 16)        64       dense_153[0][0]            
________________________________________________________________________________
dropout_77 (Dropout)      (None, 16)        0        batch_normalization_77[0][0
________________________________________________________________________________
dense_154 (Dense)         (None, 1)         17       dropout_77[0][0]           
________________________________________________________________________________
input_78 (InputLayer)     [(None, 1)]       0                                   
________________________________________________________________________________
Add (Add)                 (None, 1)         0        dense_154[0][0]            
                                                     input_78[0][0]             
________________________________________________________________________________
dense_155 (Dense)         (None, 1)         2        Add[0][0]                  
================================================================================
Total params: 1,411
Trainable params: 1,313
Non-trainable params: 98
________________________________________________________________________________


