Model
Model: "model_71"
________________________________________________________________________________
Layer (type)              Output Shape      Param #  Connected to               
================================================================================
input_123 (InputLayer)    [(None, 20)]      0                                   
________________________________________________________________________________
dense_202 (Dense)         (None, 8)         168      input_123[0][0]            
________________________________________________________________________________
batch_normalization_91 (B (None, 8)         32       dense_202[0][0]            
________________________________________________________________________________
dropout_93 (Dropout)      (None, 8)         0        batch_normalization_91[0][0
________________________________________________________________________________
dense_203 (Dense)         (None, 8)         72       dropout_93[0][0]           
________________________________________________________________________________
batch_normalization_92 (B (None, 8)         32       dense_203[0][0]            
________________________________________________________________________________
dropout_94 (Dropout)      (None, 8)         0        batch_normalization_92[0][0
________________________________________________________________________________
dense_204 (Dense)         (None, 1)         9        dropout_94[0][0]           
________________________________________________________________________________
input_124 (InputLayer)    [(None, 1)]       0                                   
________________________________________________________________________________
Add (Add)                 (None, 1)         0        dense_204[0][0]            
                                                     input_124[0][0]            
________________________________________________________________________________
dense_205 (Dense)         (None, 1)         2        Add[0][0]                  
================================================================================
Total params: 315
Trainable params: 281
Non-trainable params: 34
________________________________________________________________________________


