Model
Model: "model_60"
________________________________________________________________________________
Layer (type)              Output Shape      Param #  Connected to               
================================================================================
input_121 (InputLayer)    [(None, 20)]      0                                   
________________________________________________________________________________
dense_251 (Dense)         (None, 64)        1344     input_121[0][0]            
________________________________________________________________________________
batch_normalization_131 ( (None, 64)        256      dense_251[0][0]            
________________________________________________________________________________
dropout_120 (Dropout)     (None, 64)        0        batch_normalization_131[0][
________________________________________________________________________________
dense_252 (Dense)         (None, 256)       16640    dropout_120[0][0]          
________________________________________________________________________________
batch_normalization_132 ( (None, 256)       1024     dense_252[0][0]            
________________________________________________________________________________
dropout_121 (Dropout)     (None, 256)       0        batch_normalization_132[0][
________________________________________________________________________________
dense_253 (Dense)         (None, 32)        8224     dropout_121[0][0]          
________________________________________________________________________________
batch_normalization_133 ( (None, 32)        128      dense_253[0][0]            
________________________________________________________________________________
dense_254 (Dense)         (None, 1)         33       batch_normalization_133[0][
________________________________________________________________________________
input_122 (InputLayer)    [(None, 1)]       0                                   
________________________________________________________________________________
add_11 (Add)              (None, 1)         0        dense_254[0][0]            
                                                     input_122[0][0]            
________________________________________________________________________________
dense_255 (Dense)         (None, 1)         2        add_11[0][0]               
================================================================================
Total params: 27,651
Trainable params: 26,945
Non-trainable params: 706
________________________________________________________________________________


