Model
Model: "model_145"
________________________________________________________________________________
Layer (type)              Output Shape      Param #  Connected to               
================================================================================
input_271 (InputLayer)    [(None, 20)]      0                                   
________________________________________________________________________________
dense_534 (Dense)         (None, 32)        672      input_271[0][0]            
________________________________________________________________________________
batch_normalization_275 ( (None, 32)        128      dense_534[0][0]            
________________________________________________________________________________
dropout_244 (Dropout)     (None, 32)        0        batch_normalization_275[0][
________________________________________________________________________________
dense_535 (Dense)         (None, 16)        528      dropout_244[0][0]          
________________________________________________________________________________
batch_normalization_276 ( (None, 16)        64       dense_535[0][0]            
________________________________________________________________________________
dropout_245 (Dropout)     (None, 16)        0        batch_normalization_276[0][
________________________________________________________________________________
dense_536 (Dense)         (None, 8)         136      dropout_245[0][0]          
________________________________________________________________________________
batch_normalization_277 ( (None, 8)         32       dense_536[0][0]            
________________________________________________________________________________
dropout_246 (Dropout)     (None, 8)         0        batch_normalization_277[0][
________________________________________________________________________________
dense_537 (Dense)         (None, 8)         72       dropout_246[0][0]          
________________________________________________________________________________
batch_normalization_278 ( (None, 8)         32       dense_537[0][0]            
________________________________________________________________________________
dense_538 (Dense)         (None, 1)         9        batch_normalization_278[0][
________________________________________________________________________________
input_272 (InputLayer)    [(None, 1)]       0                                   
________________________________________________________________________________
add_33 (Add)              (None, 1)         0        dense_538[0][0]            
                                                     input_272[0][0]            
________________________________________________________________________________
dense_539 (Dense)         (None, 1)         2        add_33[0][0]               
================================================================================
Total params: 1,675
Trainable params: 1,545
Non-trainable params: 130
________________________________________________________________________________


