Model
Model: "model_2"
________________________________________________________________________________
Layer (type)              Output Shape      Param #  Connected to               
================================================================================
input_5 (InputLayer)      [(None, 20)]      0                                   
________________________________________________________________________________
dense_12 (Dense)          (None, 256)       5376     input_5[0][0]              
________________________________________________________________________________
batch_normalization_6 (Ba (None, 256)       1024     dense_12[0][0]             
________________________________________________________________________________
dropout_6 (Dropout)       (None, 256)       0        batch_normalization_6[0][0]
________________________________________________________________________________
dense_13 (Dense)          (None, 128)       32896    dropout_6[0][0]            
________________________________________________________________________________
batch_normalization_7 (Ba (None, 128)       512      dense_13[0][0]             
________________________________________________________________________________
dropout_7 (Dropout)       (None, 128)       0        batch_normalization_7[0][0]
________________________________________________________________________________
dense_14 (Dense)          (None, 256)       33024    dropout_7[0][0]            
________________________________________________________________________________
batch_normalization_8 (Ba (None, 256)       1024     dense_14[0][0]             
________________________________________________________________________________
dropout_8 (Dropout)       (None, 256)       0        batch_normalization_8[0][0]
________________________________________________________________________________
dense_15 (Dense)          (None, 32)        8224     dropout_8[0][0]            
________________________________________________________________________________
dense_16 (Dense)          (None, 1)         33       dense_15[0][0]             
________________________________________________________________________________
input_6 (InputLayer)      [(None, 1)]       0                                   
________________________________________________________________________________
add_2 (Add)               (None, 1)         0        dense_16[0][0]             
                                                     input_6[0][0]              
________________________________________________________________________________
dense_17 (Dense)          (None, 1)         2        add_2[0][0]                
================================================================================
Total params: 82,115
Trainable params: 80,833
Non-trainable params: 1,282
________________________________________________________________________________


