Model
Model: "model_86"
________________________________________________________________________________
Layer (type)              Output Shape      Param #  Connected to               
================================================================================
input_153 (InputLayer)    [(None, 20)]      0                                   
________________________________________________________________________________
dense_262 (Dense)         (None, 8)         168      input_153[0][0]            
________________________________________________________________________________
batch_normalization_121 ( (None, 8)         32       dense_262[0][0]            
________________________________________________________________________________
dropout_123 (Dropout)     (None, 8)         0        batch_normalization_121[0][
________________________________________________________________________________
dense_263 (Dense)         (None, 8)         72       dropout_123[0][0]          
________________________________________________________________________________
batch_normalization_122 ( (None, 8)         32       dense_263[0][0]            
________________________________________________________________________________
dropout_124 (Dropout)     (None, 8)         0        batch_normalization_122[0][
________________________________________________________________________________
dense_264 (Dense)         (None, 1)         9        dropout_124[0][0]          
________________________________________________________________________________
input_154 (InputLayer)    [(None, 1)]       0                                   
________________________________________________________________________________
Add (Add)                 (None, 1)         0        dense_264[0][0]            
                                                     input_154[0][0]            
________________________________________________________________________________
dense_265 (Dense)         (None, 1)         2        Add[0][0]                  
================================================================================
Total params: 315
Trainable params: 281
Non-trainable params: 34
________________________________________________________________________________


