Model
Model: "model_99"
________________________________________________________________________________
Layer (type)              Output Shape      Param #  Connected to               
================================================================================
input_179 (InputLayer)    [(None, 20)]      0                                   
________________________________________________________________________________
dense_314 (Dense)         (None, 8)         168      input_179[0][0]            
________________________________________________________________________________
batch_normalization_147 ( (None, 8)         32       dense_314[0][0]            
________________________________________________________________________________
dropout_149 (Dropout)     (None, 8)         0        batch_normalization_147[0][
________________________________________________________________________________
dense_315 (Dense)         (None, 8)         72       dropout_149[0][0]          
________________________________________________________________________________
batch_normalization_148 ( (None, 8)         32       dense_315[0][0]            
________________________________________________________________________________
dropout_150 (Dropout)     (None, 8)         0        batch_normalization_148[0][
________________________________________________________________________________
dense_316 (Dense)         (None, 1)         9        dropout_150[0][0]          
________________________________________________________________________________
input_180 (InputLayer)    [(None, 1)]       0                                   
________________________________________________________________________________
Add (Add)                 (None, 1)         0        dense_316[0][0]            
                                                     input_180[0][0]            
________________________________________________________________________________
dense_317 (Dense)         (None, 1)         2        Add[0][0]                  
================================================================================
Total params: 315
Trainable params: 281
Non-trainable params: 34
________________________________________________________________________________


