Model
Model: "model_120"
________________________________________________________________________________
Layer (type)              Output Shape      Param #  Connected to               
================================================================================
input_221 (InputLayer)    [(None, 20)]      0                                   
________________________________________________________________________________
dense_406 (Dense)         (None, 32)        672      input_221[0][0]            
________________________________________________________________________________
batch_normalization_197 ( (None, 32)        128      dense_406[0][0]            
________________________________________________________________________________
dropout_191 (Dropout)     (None, 32)        0        batch_normalization_197[0][
________________________________________________________________________________
dense_407 (Dense)         (None, 32)        1056     dropout_191[0][0]          
________________________________________________________________________________
batch_normalization_198 ( (None, 32)        128      dense_407[0][0]            
________________________________________________________________________________
dropout_192 (Dropout)     (None, 32)        0        batch_normalization_198[0][
________________________________________________________________________________
dense_408 (Dense)         (None, 8)         264      dropout_192[0][0]          
________________________________________________________________________________
batch_normalization_199 ( (None, 8)         32       dense_408[0][0]            
________________________________________________________________________________
dense_409 (Dense)         (None, 1)         9        batch_normalization_199[0][
________________________________________________________________________________
input_222 (InputLayer)    [(None, 1)]       0                                   
________________________________________________________________________________
add_8 (Add)               (None, 1)         0        dense_409[0][0]            
                                                     input_222[0][0]            
________________________________________________________________________________
dense_410 (Dense)         (None, 1)         2        add_8[0][0]                
================================================================================
Total params: 2,291
Trainable params: 2,145
Non-trainable params: 146
________________________________________________________________________________


