Model
Model: "model_93"
________________________________________________________________________________
Layer (type)              Output Shape      Param #  Connected to               
================================================================================
input_167 (InputLayer)    [(None, 20)]      0                                   
________________________________________________________________________________
dense_290 (Dense)         (None, 8)         168      input_167[0][0]            
________________________________________________________________________________
batch_normalization_135 ( (None, 8)         32       dense_290[0][0]            
________________________________________________________________________________
dropout_137 (Dropout)     (None, 8)         0        batch_normalization_135[0][
________________________________________________________________________________
dense_291 (Dense)         (None, 8)         72       dropout_137[0][0]          
________________________________________________________________________________
batch_normalization_136 ( (None, 8)         32       dense_291[0][0]            
________________________________________________________________________________
dropout_138 (Dropout)     (None, 8)         0        batch_normalization_136[0][
________________________________________________________________________________
dense_292 (Dense)         (None, 1)         9        dropout_138[0][0]          
________________________________________________________________________________
input_168 (InputLayer)    [(None, 1)]       0                                   
________________________________________________________________________________
Add (Add)                 (None, 1)         0        dense_292[0][0]            
                                                     input_168[0][0]            
________________________________________________________________________________
dense_293 (Dense)         (None, 1)         2        Add[0][0]                  
================================================================================
Total params: 315
Trainable params: 281
Non-trainable params: 34
________________________________________________________________________________


