Model
Model: "model_68"
________________________________________________________________________________
Layer (type)              Output Shape      Param #  Connected to               
================================================================================
input_117 (InputLayer)    [(None, 20)]      0                                   
________________________________________________________________________________
dense_190 (Dense)         (None, 8)         168      input_117[0][0]            
________________________________________________________________________________
batch_normalization_85 (B (None, 8)         32       dense_190[0][0]            
________________________________________________________________________________
dropout_87 (Dropout)      (None, 8)         0        batch_normalization_85[0][0
________________________________________________________________________________
dense_191 (Dense)         (None, 8)         72       dropout_87[0][0]           
________________________________________________________________________________
batch_normalization_86 (B (None, 8)         32       dense_191[0][0]            
________________________________________________________________________________
dropout_88 (Dropout)      (None, 8)         0        batch_normalization_86[0][0
________________________________________________________________________________
dense_192 (Dense)         (None, 1)         9        dropout_88[0][0]           
________________________________________________________________________________
input_118 (InputLayer)    [(None, 1)]       0                                   
________________________________________________________________________________
Add (Add)                 (None, 1)         0        dense_192[0][0]            
                                                     input_118[0][0]            
________________________________________________________________________________
dense_193 (Dense)         (None, 1)         2        Add[0][0]                  
================================================================================
Total params: 315
Trainable params: 281
Non-trainable params: 34
________________________________________________________________________________


