Model
Model: "model_193"
________________________________________________________________________________
Layer (type)              Output Shape      Param #  Connected to               
================================================================================
input_367 (InputLayer)    [(None, 20)]      0                                   
________________________________________________________________________________
dense_822 (Dense)         (None, 16)        336      input_367[0][0]            
________________________________________________________________________________
batch_normalization_467 ( (None, 16)        64       dense_822[0][0]            
________________________________________________________________________________
dropout_388 (Dropout)     (None, 16)        0        batch_normalization_467[0][
________________________________________________________________________________
dense_823 (Dense)         (None, 32)        544      dropout_388[0][0]          
________________________________________________________________________________
batch_normalization_468 ( (None, 32)        128      dense_823[0][0]            
________________________________________________________________________________
dropout_389 (Dropout)     (None, 32)        0        batch_normalization_468[0][
________________________________________________________________________________
dense_824 (Dense)         (None, 8)         264      dropout_389[0][0]          
________________________________________________________________________________
batch_normalization_469 ( (None, 8)         32       dense_824[0][0]            
________________________________________________________________________________
dropout_390 (Dropout)     (None, 8)         0        batch_normalization_469[0][
________________________________________________________________________________
dense_825 (Dense)         (None, 16)        144      dropout_390[0][0]          
________________________________________________________________________________
batch_normalization_470 ( (None, 16)        64       dense_825[0][0]            
________________________________________________________________________________
dense_826 (Dense)         (None, 1)         17       batch_normalization_470[0][
________________________________________________________________________________
input_368 (InputLayer)    [(None, 1)]       0                                   
________________________________________________________________________________
add_81 (Add)              (None, 1)         0        dense_826[0][0]            
                                                     input_368[0][0]            
________________________________________________________________________________
dense_827 (Dense)         (None, 1)         2        add_81[0][0]               
================================================================================
Total params: 1,595
Trainable params: 1,449
Non-trainable params: 146
________________________________________________________________________________


