Model
Model: "model_18"
________________________________________________________________________________
Layer (type)              Output Shape      Param #  Connected to               
================================================================================
input_37 (InputLayer)     [(None, 20)]      0                                   
________________________________________________________________________________
dense_72 (Dense)          (None, 128)       2688     input_37[0][0]             
________________________________________________________________________________
batch_normalization_36 (B (None, 128)       512      dense_72[0][0]             
________________________________________________________________________________
dropout_36 (Dropout)      (None, 128)       0        batch_normalization_36[0][0
________________________________________________________________________________
dense_73 (Dense)          (None, 128)       16512    dropout_36[0][0]           
________________________________________________________________________________
batch_normalization_37 (B (None, 128)       512      dense_73[0][0]             
________________________________________________________________________________
dropout_37 (Dropout)      (None, 128)       0        batch_normalization_37[0][0
________________________________________________________________________________
dense_74 (Dense)          (None, 1)         129      dropout_37[0][0]           
________________________________________________________________________________
input_38 (InputLayer)     [(None, 1)]       0                                   
________________________________________________________________________________
Add (Add)                 (None, 1)         0        dense_74[0][0]             
                                                     input_38[0][0]             
________________________________________________________________________________
dense_75 (Dense)          (None, 1)         2        Add[0][0]                  
================================================================================
Total params: 20,355
Trainable params: 19,841
Non-trainable params: 514
________________________________________________________________________________


