Model
Model: "model_135"
________________________________________________________________________________
Layer (type)              Output Shape      Param #  Connected to               
================================================================================
input_251 (InputLayer)    [(None, 20)]      0                                   
________________________________________________________________________________
dense_481 (Dense)         (None, 32)        672      input_251[0][0]            
________________________________________________________________________________
batch_normalization_242 ( (None, 32)        128      dense_481[0][0]            
________________________________________________________________________________
dropout_221 (Dropout)     (None, 32)        0        batch_normalization_242[0][
________________________________________________________________________________
dense_482 (Dense)         (None, 16)        528      dropout_221[0][0]          
________________________________________________________________________________
batch_normalization_243 ( (None, 16)        64       dense_482[0][0]            
________________________________________________________________________________
dropout_222 (Dropout)     (None, 16)        0        batch_normalization_243[0][
________________________________________________________________________________
dense_483 (Dense)         (None, 8)         136      dropout_222[0][0]          
________________________________________________________________________________
batch_normalization_244 ( (None, 8)         32       dense_483[0][0]            
________________________________________________________________________________
dense_484 (Dense)         (None, 1)         9        batch_normalization_244[0][
________________________________________________________________________________
input_252 (InputLayer)    [(None, 1)]       0                                   
________________________________________________________________________________
add_23 (Add)              (None, 1)         0        dense_484[0][0]            
                                                     input_252[0][0]            
________________________________________________________________________________
dense_485 (Dense)         (None, 1)         2        add_23[0][0]               
================================================================================
Total params: 1,571
Trainable params: 1,457
Non-trainable params: 114
________________________________________________________________________________


