Model
Model: "model_14"
________________________________________________________________________________
Layer (type)              Output Shape      Param #  Connected to               
================================================================================
input_29 (InputLayer)     [(None, 20)]      0                                   
________________________________________________________________________________
dense_56 (Dense)          (None, 256)       5376     input_29[0][0]             
________________________________________________________________________________
batch_normalization_28 (B (None, 256)       1024     dense_56[0][0]             
________________________________________________________________________________
dropout_28 (Dropout)      (None, 256)       0        batch_normalization_28[0][0
________________________________________________________________________________
dense_57 (Dense)          (None, 64)        16448    dropout_28[0][0]           
________________________________________________________________________________
batch_normalization_29 (B (None, 64)        256      dense_57[0][0]             
________________________________________________________________________________
dropout_29 (Dropout)      (None, 64)        0        batch_normalization_29[0][0
________________________________________________________________________________
dense_58 (Dense)          (None, 1)         65       dropout_29[0][0]           
________________________________________________________________________________
input_30 (InputLayer)     [(None, 1)]       0                                   
________________________________________________________________________________
Add (Add)                 (None, 1)         0        dense_58[0][0]             
                                                     input_30[0][0]             
________________________________________________________________________________
dense_59 (Dense)          (None, 1)         2        Add[0][0]                  
================================================================================
Total params: 23,171
Trainable params: 22,529
Non-trainable params: 642
________________________________________________________________________________


