Model
Model: "model_136"
________________________________________________________________________________
Layer (type)              Output Shape      Param #  Connected to               
================================================================================
input_253 (InputLayer)    [(None, 20)]      0                                   
________________________________________________________________________________
dense_486 (Dense)         (None, 32)        672      input_253[0][0]            
________________________________________________________________________________
batch_normalization_245 ( (None, 32)        128      dense_486[0][0]            
________________________________________________________________________________
dropout_223 (Dropout)     (None, 32)        0        batch_normalization_245[0][
________________________________________________________________________________
dense_487 (Dense)         (None, 16)        528      dropout_223[0][0]          
________________________________________________________________________________
batch_normalization_246 ( (None, 16)        64       dense_487[0][0]            
________________________________________________________________________________
dropout_224 (Dropout)     (None, 16)        0        batch_normalization_246[0][
________________________________________________________________________________
dense_488 (Dense)         (None, 8)         136      dropout_224[0][0]          
________________________________________________________________________________
batch_normalization_247 ( (None, 8)         32       dense_488[0][0]            
________________________________________________________________________________
dense_489 (Dense)         (None, 1)         9        batch_normalization_247[0][
________________________________________________________________________________
input_254 (InputLayer)    [(None, 1)]       0                                   
________________________________________________________________________________
add_24 (Add)              (None, 1)         0        dense_489[0][0]            
                                                     input_254[0][0]            
________________________________________________________________________________
dense_490 (Dense)         (None, 1)         2        add_24[0][0]               
================================================================================
Total params: 1,571
Trainable params: 1,457
Non-trainable params: 114
________________________________________________________________________________


