Model
Model: "model_56"
________________________________________________________________________________
Layer (type)              Output Shape      Param #  Connected to               
================================================================================
input_113 (InputLayer)    [(None, 20)]      0                                   
________________________________________________________________________________
dense_231 (Dense)         (None, 32)        672      input_113[0][0]            
________________________________________________________________________________
batch_normalization_119 ( (None, 32)        128      dense_231[0][0]            
________________________________________________________________________________
dropout_112 (Dropout)     (None, 32)        0        batch_normalization_119[0][
________________________________________________________________________________
dense_232 (Dense)         (None, 64)        2112     dropout_112[0][0]          
________________________________________________________________________________
batch_normalization_120 ( (None, 64)        256      dense_232[0][0]            
________________________________________________________________________________
dropout_113 (Dropout)     (None, 64)        0        batch_normalization_120[0][
________________________________________________________________________________
dense_233 (Dense)         (None, 32)        2080     dropout_113[0][0]          
________________________________________________________________________________
batch_normalization_121 ( (None, 32)        128      dense_233[0][0]            
________________________________________________________________________________
dense_234 (Dense)         (None, 1)         33       batch_normalization_121[0][
________________________________________________________________________________
input_114 (InputLayer)    [(None, 1)]       0                                   
________________________________________________________________________________
add_7 (Add)               (None, 1)         0        dense_234[0][0]            
                                                     input_114[0][0]            
________________________________________________________________________________
dense_235 (Dense)         (None, 1)         2        add_7[0][0]                
================================================================================
Total params: 5,411
Trainable params: 5,153
Non-trainable params: 258
________________________________________________________________________________


