Model
Model: "model_11"
________________________________________________________________________________
Layer (type)              Output Shape      Param #  Connected to               
================================================================================
input_23 (InputLayer)     [(None, 20)]      0                                   
________________________________________________________________________________
dense_44 (Dense)          (None, 32)        672      input_23[0][0]             
________________________________________________________________________________
batch_normalization_22 (B (None, 32)        128      dense_44[0][0]             
________________________________________________________________________________
dropout_22 (Dropout)      (None, 32)        0        batch_normalization_22[0][0
________________________________________________________________________________
dense_45 (Dense)          (None, 64)        2112     dropout_22[0][0]           
________________________________________________________________________________
batch_normalization_23 (B (None, 64)        256      dense_45[0][0]             
________________________________________________________________________________
dropout_23 (Dropout)      (None, 64)        0        batch_normalization_23[0][0
________________________________________________________________________________
dense_46 (Dense)          (None, 1)         65       dropout_23[0][0]           
________________________________________________________________________________
input_24 (InputLayer)     [(None, 1)]       0                                   
________________________________________________________________________________
Add (Add)                 (None, 1)         0        dense_46[0][0]             
                                                     input_24[0][0]             
________________________________________________________________________________
dense_47 (Dense)          (None, 1)         2        Add[0][0]                  
================================================================================
Total params: 3,235
Trainable params: 3,041
Non-trainable params: 194
________________________________________________________________________________


