Model
Model: "model_59"
________________________________________________________________________________
Layer (type)              Output Shape      Param #  Connected to               
================================================================================
input_99 (InputLayer)     [(None, 20)]      0                                   
________________________________________________________________________________
dense_154 (Dense)         (None, 64)        1344     input_99[0][0]             
________________________________________________________________________________
batch_normalization_67 (B (None, 64)        256      dense_154[0][0]            
________________________________________________________________________________
dropout_69 (Dropout)      (None, 64)        0        batch_normalization_67[0][0
________________________________________________________________________________
dense_155 (Dense)         (None, 16)        1040     dropout_69[0][0]           
________________________________________________________________________________
batch_normalization_68 (B (None, 16)        64       dense_155[0][0]            
________________________________________________________________________________
dropout_70 (Dropout)      (None, 16)        0        batch_normalization_68[0][0
________________________________________________________________________________
dense_156 (Dense)         (None, 1)         17       dropout_70[0][0]           
________________________________________________________________________________
input_100 (InputLayer)    [(None, 1)]       0                                   
________________________________________________________________________________
Add (Add)                 (None, 1)         0        dense_156[0][0]            
                                                     input_100[0][0]            
________________________________________________________________________________
dense_157 (Dense)         (None, 1)         2        Add[0][0]                  
================================================================================
Total params: 2,723
Trainable params: 2,561
Non-trainable params: 162
________________________________________________________________________________


