Model
Model: "model_57"
________________________________________________________________________________
Layer (type)              Output Shape      Param #  Connected to               
================================================================================
input_95 (InputLayer)     [(None, 20)]      0                                   
________________________________________________________________________________
dense_146 (Dense)         (None, 16)        336      input_95[0][0]             
________________________________________________________________________________
batch_normalization_63 (B (None, 16)        64       dense_146[0][0]            
________________________________________________________________________________
dropout_65 (Dropout)      (None, 16)        0        batch_normalization_63[0][0
________________________________________________________________________________
dense_147 (Dense)         (None, 16)        272      dropout_65[0][0]           
________________________________________________________________________________
batch_normalization_64 (B (None, 16)        64       dense_147[0][0]            
________________________________________________________________________________
dropout_66 (Dropout)      (None, 16)        0        batch_normalization_64[0][0
________________________________________________________________________________
dense_148 (Dense)         (None, 1)         17       dropout_66[0][0]           
________________________________________________________________________________
input_96 (InputLayer)     [(None, 1)]       0                                   
________________________________________________________________________________
Add (Add)                 (None, 1)         0        dense_148[0][0]            
                                                     input_96[0][0]             
________________________________________________________________________________
dense_149 (Dense)         (None, 1)         2        Add[0][0]                  
================================================================================
Total params: 755
Trainable params: 689
Non-trainable params: 66
________________________________________________________________________________


