Model
Model: "model_58"
________________________________________________________________________________
Layer (type)              Output Shape      Param #  Connected to               
================================================================================
input_117 (InputLayer)    [(None, 20)]      0                                   
________________________________________________________________________________
dense_241 (Dense)         (None, 16)        336      input_117[0][0]            
________________________________________________________________________________
batch_normalization_125 ( (None, 16)        64       dense_241[0][0]            
________________________________________________________________________________
dropout_116 (Dropout)     (None, 16)        0        batch_normalization_125[0][
________________________________________________________________________________
dense_242 (Dense)         (None, 256)       4352     dropout_116[0][0]          
________________________________________________________________________________
batch_normalization_126 ( (None, 256)       1024     dense_242[0][0]            
________________________________________________________________________________
dropout_117 (Dropout)     (None, 256)       0        batch_normalization_126[0][
________________________________________________________________________________
dense_243 (Dense)         (None, 32)        8224     dropout_117[0][0]          
________________________________________________________________________________
batch_normalization_127 ( (None, 32)        128      dense_243[0][0]            
________________________________________________________________________________
dense_244 (Dense)         (None, 1)         33       batch_normalization_127[0][
________________________________________________________________________________
input_118 (InputLayer)    [(None, 1)]       0                                   
________________________________________________________________________________
add_9 (Add)               (None, 1)         0        dense_244[0][0]            
                                                     input_118[0][0]            
________________________________________________________________________________
dense_245 (Dense)         (None, 1)         2        add_9[0][0]                
================================================================================
Total params: 14,163
Trainable params: 13,553
Non-trainable params: 610
________________________________________________________________________________


