Model
Model: "model_5"
________________________________________________________________________________
Layer (type)              Output Shape      Param #  Connected to               
================================================================================
input_11 (InputLayer)     [(None, 20)]      0                                   
________________________________________________________________________________
dense_20 (Dense)          (None, 16)        336      input_11[0][0]             
________________________________________________________________________________
batch_normalization_10 (B (None, 16)        64       dense_20[0][0]             
________________________________________________________________________________
dropout_10 (Dropout)      (None, 16)        0        batch_normalization_10[0][0
________________________________________________________________________________
dense_21 (Dense)          (None, 32)        544      dropout_10[0][0]           
________________________________________________________________________________
batch_normalization_11 (B (None, 32)        128      dense_21[0][0]             
________________________________________________________________________________
dropout_11 (Dropout)      (None, 32)        0        batch_normalization_11[0][0
________________________________________________________________________________
dense_22 (Dense)          (None, 1)         33       dropout_11[0][0]           
________________________________________________________________________________
input_12 (InputLayer)     [(None, 1)]       0                                   
________________________________________________________________________________
Add (Add)                 (None, 1)         0        dense_22[0][0]             
                                                     input_12[0][0]             
________________________________________________________________________________
dense_23 (Dense)          (None, 1)         2        Add[0][0]                  
================================================================================
Total params: 1,107
Trainable params: 1,009
Non-trainable params: 98
________________________________________________________________________________


