Model
Model: "model_55"
________________________________________________________________________________
Layer (type)              Output Shape      Param #  Connected to               
================================================================================
input_111 (InputLayer)    [(None, 20)]      0                                   
________________________________________________________________________________
dense_226 (Dense)         (None, 16)        336      input_111[0][0]            
________________________________________________________________________________
batch_normalization_116 ( (None, 16)        64       dense_226[0][0]            
________________________________________________________________________________
dropout_110 (Dropout)     (None, 16)        0        batch_normalization_116[0][
________________________________________________________________________________
dense_227 (Dense)         (None, 64)        1088     dropout_110[0][0]          
________________________________________________________________________________
batch_normalization_117 ( (None, 64)        256      dense_227[0][0]            
________________________________________________________________________________
dropout_111 (Dropout)     (None, 64)        0        batch_normalization_117[0][
________________________________________________________________________________
dense_228 (Dense)         (None, 32)        2080     dropout_111[0][0]          
________________________________________________________________________________
batch_normalization_118 ( (None, 32)        128      dense_228[0][0]            
________________________________________________________________________________
dense_229 (Dense)         (None, 1)         33       batch_normalization_118[0][
________________________________________________________________________________
input_112 (InputLayer)    [(None, 1)]       0                                   
________________________________________________________________________________
add_6 (Add)               (None, 1)         0        dense_229[0][0]            
                                                     input_112[0][0]            
________________________________________________________________________________
dense_230 (Dense)         (None, 1)         2        add_6[0][0]                
================================================================================
Total params: 3,987
Trainable params: 3,761
Non-trainable params: 226
________________________________________________________________________________


