Model
Model: "model_77"
________________________________________________________________________________
Layer (type)              Output Shape      Param #  Connected to               
================================================================================
input_135 (InputLayer)    [(None, 20)]      0                                   
________________________________________________________________________________
dense_226 (Dense)         (None, 8)         168      input_135[0][0]            
________________________________________________________________________________
batch_normalization_103 ( (None, 8)         32       dense_226[0][0]            
________________________________________________________________________________
dropout_105 (Dropout)     (None, 8)         0        batch_normalization_103[0][
________________________________________________________________________________
dense_227 (Dense)         (None, 8)         72       dropout_105[0][0]          
________________________________________________________________________________
batch_normalization_104 ( (None, 8)         32       dense_227[0][0]            
________________________________________________________________________________
dropout_106 (Dropout)     (None, 8)         0        batch_normalization_104[0][
________________________________________________________________________________
dense_228 (Dense)         (None, 1)         9        dropout_106[0][0]          
________________________________________________________________________________
input_136 (InputLayer)    [(None, 1)]       0                                   
________________________________________________________________________________
Add (Add)                 (None, 1)         0        dense_228[0][0]            
                                                     input_136[0][0]            
________________________________________________________________________________
dense_229 (Dense)         (None, 1)         2        Add[0][0]                  
================================================================================
Total params: 315
Trainable params: 281
Non-trainable params: 34
________________________________________________________________________________


