Model
Model: "model_146"
________________________________________________________________________________
Layer (type)              Output Shape      Param #  Connected to               
================================================================================
input_273 (InputLayer)    [(None, 20)]      0                                   
________________________________________________________________________________
dense_540 (Dense)         (None, 16)        336      input_273[0][0]            
________________________________________________________________________________
batch_normalization_279 ( (None, 16)        64       dense_540[0][0]            
________________________________________________________________________________
dropout_247 (Dropout)     (None, 16)        0        batch_normalization_279[0][
________________________________________________________________________________
dense_541 (Dense)         (None, 32)        544      dropout_247[0][0]          
________________________________________________________________________________
batch_normalization_280 ( (None, 32)        128      dense_541[0][0]            
________________________________________________________________________________
dropout_248 (Dropout)     (None, 32)        0        batch_normalization_280[0][
________________________________________________________________________________
dense_542 (Dense)         (None, 8)         264      dropout_248[0][0]          
________________________________________________________________________________
batch_normalization_281 ( (None, 8)         32       dense_542[0][0]            
________________________________________________________________________________
dropout_249 (Dropout)     (None, 8)         0        batch_normalization_281[0][
________________________________________________________________________________
dense_543 (Dense)         (None, 8)         72       dropout_249[0][0]          
________________________________________________________________________________
batch_normalization_282 ( (None, 8)         32       dense_543[0][0]            
________________________________________________________________________________
dense_544 (Dense)         (None, 1)         9        batch_normalization_282[0][
________________________________________________________________________________
input_274 (InputLayer)    [(None, 1)]       0                                   
________________________________________________________________________________
add_34 (Add)              (None, 1)         0        dense_544[0][0]            
                                                     input_274[0][0]            
________________________________________________________________________________
dense_545 (Dense)         (None, 1)         2        add_34[0][0]               
================================================================================
Total params: 1,483
Trainable params: 1,353
Non-trainable params: 130
________________________________________________________________________________


