Model
Model: "model_115"
________________________________________________________________________________
Layer (type)              Output Shape      Param #  Connected to               
================================================================================
input_211 (InputLayer)    [(None, 20)]      0                                   
________________________________________________________________________________
dense_381 (Dense)         (None, 8)         168      input_211[0][0]            
________________________________________________________________________________
batch_normalization_182 ( (None, 8)         32       dense_381[0][0]            
________________________________________________________________________________
dropout_181 (Dropout)     (None, 8)         0        batch_normalization_182[0][
________________________________________________________________________________
dense_382 (Dense)         (None, 16)        144      dropout_181[0][0]          
________________________________________________________________________________
batch_normalization_183 ( (None, 16)        64       dense_382[0][0]            
________________________________________________________________________________
dropout_182 (Dropout)     (None, 16)        0        batch_normalization_183[0][
________________________________________________________________________________
dense_383 (Dense)         (None, 8)         136      dropout_182[0][0]          
________________________________________________________________________________
batch_normalization_184 ( (None, 8)         32       dense_383[0][0]            
________________________________________________________________________________
dense_384 (Dense)         (None, 1)         9        batch_normalization_184[0][
________________________________________________________________________________
input_212 (InputLayer)    [(None, 1)]       0                                   
________________________________________________________________________________
add_3 (Add)               (None, 1)         0        dense_384[0][0]            
                                                     input_212[0][0]            
________________________________________________________________________________
dense_385 (Dense)         (None, 1)         2        add_3[0][0]                
================================================================================
Total params: 587
Trainable params: 521
Non-trainable params: 66
________________________________________________________________________________


