Model
Model: "model_15"
________________________________________________________________________________
Layer (type)              Output Shape      Param #  Connected to               
================================================================================
input_31 (InputLayer)     [(None, 20)]      0                                   
________________________________________________________________________________
dense_60 (Dense)          (None, 16)        336      input_31[0][0]             
________________________________________________________________________________
batch_normalization_30 (B (None, 16)        64       dense_60[0][0]             
________________________________________________________________________________
dropout_30 (Dropout)      (None, 16)        0        batch_normalization_30[0][0
________________________________________________________________________________
dense_61 (Dense)          (None, 128)       2176     dropout_30[0][0]           
________________________________________________________________________________
batch_normalization_31 (B (None, 128)       512      dense_61[0][0]             
________________________________________________________________________________
dropout_31 (Dropout)      (None, 128)       0        batch_normalization_31[0][0
________________________________________________________________________________
dense_62 (Dense)          (None, 1)         129      dropout_31[0][0]           
________________________________________________________________________________
input_32 (InputLayer)     [(None, 1)]       0                                   
________________________________________________________________________________
Add (Add)                 (None, 1)         0        dense_62[0][0]             
                                                     input_32[0][0]             
________________________________________________________________________________
dense_63 (Dense)          (None, 1)         2        Add[0][0]                  
================================================================================
Total params: 3,219
Trainable params: 2,929
Non-trainable params: 290
________________________________________________________________________________


