Model
Model: "model_121"
________________________________________________________________________________
Layer (type)              Output Shape      Param #  Connected to               
================================================================================
input_223 (InputLayer)    [(None, 20)]      0                                   
________________________________________________________________________________
dense_411 (Dense)         (None, 8)         168      input_223[0][0]            
________________________________________________________________________________
batch_normalization_200 ( (None, 8)         32       dense_411[0][0]            
________________________________________________________________________________
dropout_193 (Dropout)     (None, 8)         0        batch_normalization_200[0][
________________________________________________________________________________
dense_412 (Dense)         (None, 8)         72       dropout_193[0][0]          
________________________________________________________________________________
batch_normalization_201 ( (None, 8)         32       dense_412[0][0]            
________________________________________________________________________________
dropout_194 (Dropout)     (None, 8)         0        batch_normalization_201[0][
________________________________________________________________________________
dense_413 (Dense)         (None, 16)        144      dropout_194[0][0]          
________________________________________________________________________________
batch_normalization_202 ( (None, 16)        64       dense_413[0][0]            
________________________________________________________________________________
dense_414 (Dense)         (None, 1)         17       batch_normalization_202[0][
________________________________________________________________________________
input_224 (InputLayer)    [(None, 1)]       0                                   
________________________________________________________________________________
add_9 (Add)               (None, 1)         0        dense_414[0][0]            
                                                     input_224[0][0]            
________________________________________________________________________________
dense_415 (Dense)         (None, 1)         2        add_9[0][0]                
================================================================================
Total params: 531
Trainable params: 465
Non-trainable params: 66
________________________________________________________________________________


