Model
Model: "model_128"
________________________________________________________________________________
Layer (type)              Output Shape      Param #  Connected to               
================================================================================
input_237 (InputLayer)    [(None, 20)]      0                                   
________________________________________________________________________________
dense_446 (Dense)         (None, 32)        672      input_237[0][0]            
________________________________________________________________________________
batch_normalization_221 ( (None, 32)        128      dense_446[0][0]            
________________________________________________________________________________
dropout_207 (Dropout)     (None, 32)        0        batch_normalization_221[0][
________________________________________________________________________________
dense_447 (Dense)         (None, 16)        528      dropout_207[0][0]          
________________________________________________________________________________
batch_normalization_222 ( (None, 16)        64       dense_447[0][0]            
________________________________________________________________________________
dropout_208 (Dropout)     (None, 16)        0        batch_normalization_222[0][
________________________________________________________________________________
dense_448 (Dense)         (None, 8)         136      dropout_208[0][0]          
________________________________________________________________________________
batch_normalization_223 ( (None, 8)         32       dense_448[0][0]            
________________________________________________________________________________
dense_449 (Dense)         (None, 1)         9        batch_normalization_223[0][
________________________________________________________________________________
input_238 (InputLayer)    [(None, 1)]       0                                   
________________________________________________________________________________
add_16 (Add)              (None, 1)         0        dense_449[0][0]            
                                                     input_238[0][0]            
________________________________________________________________________________
dense_450 (Dense)         (None, 1)         2        add_16[0][0]               
================================================================================
Total params: 1,571
Trainable params: 1,457
Non-trainable params: 114
________________________________________________________________________________


