Model
Model: "model_168"
________________________________________________________________________________
Layer (type)              Output Shape      Param #  Connected to               
================================================================================
input_317 (InputLayer)    [(None, 20)]      0                                   
________________________________________________________________________________
dense_672 (Dense)         (None, 8)         168      input_317[0][0]            
________________________________________________________________________________
batch_normalization_367 ( (None, 8)         32       dense_672[0][0]            
________________________________________________________________________________
dropout_313 (Dropout)     (None, 8)         0        batch_normalization_367[0][
________________________________________________________________________________
dense_673 (Dense)         (None, 32)        288      dropout_313[0][0]          
________________________________________________________________________________
batch_normalization_368 ( (None, 32)        128      dense_673[0][0]            
________________________________________________________________________________
dropout_314 (Dropout)     (None, 32)        0        batch_normalization_368[0][
________________________________________________________________________________
dense_674 (Dense)         (None, 8)         264      dropout_314[0][0]          
________________________________________________________________________________
batch_normalization_369 ( (None, 8)         32       dense_674[0][0]            
________________________________________________________________________________
dropout_315 (Dropout)     (None, 8)         0        batch_normalization_369[0][
________________________________________________________________________________
dense_675 (Dense)         (None, 8)         72       dropout_315[0][0]          
________________________________________________________________________________
batch_normalization_370 ( (None, 8)         32       dense_675[0][0]            
________________________________________________________________________________
dense_676 (Dense)         (None, 1)         9        batch_normalization_370[0][
________________________________________________________________________________
input_318 (InputLayer)    [(None, 1)]       0                                   
________________________________________________________________________________
add_56 (Add)              (None, 1)         0        dense_676[0][0]            
                                                     input_318[0][0]            
________________________________________________________________________________
dense_677 (Dense)         (None, 1)         2        add_56[0][0]               
================================================================================
Total params: 1,027
Trainable params: 913
Non-trainable params: 114
________________________________________________________________________________


