Model
Model: "model_69"
________________________________________________________________________________
Layer (type)              Output Shape      Param #  Connected to               
================================================================================
input_119 (InputLayer)    [(None, 20)]      0                                   
________________________________________________________________________________
dense_194 (Dense)         (None, 8)         168      input_119[0][0]            
________________________________________________________________________________
batch_normalization_87 (B (None, 8)         32       dense_194[0][0]            
________________________________________________________________________________
dropout_89 (Dropout)      (None, 8)         0        batch_normalization_87[0][0
________________________________________________________________________________
dense_195 (Dense)         (None, 8)         72       dropout_89[0][0]           
________________________________________________________________________________
batch_normalization_88 (B (None, 8)         32       dense_195[0][0]            
________________________________________________________________________________
dropout_90 (Dropout)      (None, 8)         0        batch_normalization_88[0][0
________________________________________________________________________________
dense_196 (Dense)         (None, 1)         9        dropout_90[0][0]           
________________________________________________________________________________
input_120 (InputLayer)    [(None, 1)]       0                                   
________________________________________________________________________________
Add (Add)                 (None, 1)         0        dense_196[0][0]            
                                                     input_120[0][0]            
________________________________________________________________________________
dense_197 (Dense)         (None, 1)         2        Add[0][0]                  
================================================================================
Total params: 315
Trainable params: 281
Non-trainable params: 34
________________________________________________________________________________


