Model
Model: "model_182"
________________________________________________________________________________
Layer (type)              Output Shape      Param #  Connected to               
================================================================================
input_345 (InputLayer)    [(None, 20)]      0                                   
________________________________________________________________________________
dense_756 (Dense)         (None, 16)        336      input_345[0][0]            
________________________________________________________________________________
batch_normalization_423 ( (None, 16)        64       dense_756[0][0]            
________________________________________________________________________________
dropout_355 (Dropout)     (None, 16)        0        batch_normalization_423[0][
________________________________________________________________________________
dense_757 (Dense)         (None, 16)        272      dropout_355[0][0]          
________________________________________________________________________________
batch_normalization_424 ( (None, 16)        64       dense_757[0][0]            
________________________________________________________________________________
dropout_356 (Dropout)     (None, 16)        0        batch_normalization_424[0][
________________________________________________________________________________
dense_758 (Dense)         (None, 16)        272      dropout_356[0][0]          
________________________________________________________________________________
batch_normalization_425 ( (None, 16)        64       dense_758[0][0]            
________________________________________________________________________________
dropout_357 (Dropout)     (None, 16)        0        batch_normalization_425[0][
________________________________________________________________________________
dense_759 (Dense)         (None, 16)        272      dropout_357[0][0]          
________________________________________________________________________________
batch_normalization_426 ( (None, 16)        64       dense_759[0][0]            
________________________________________________________________________________
dense_760 (Dense)         (None, 1)         17       batch_normalization_426[0][
________________________________________________________________________________
input_346 (InputLayer)    [(None, 1)]       0                                   
________________________________________________________________________________
add_70 (Add)              (None, 1)         0        dense_760[0][0]            
                                                     input_346[0][0]            
________________________________________________________________________________
dense_761 (Dense)         (None, 1)         2        add_70[0][0]               
================================================================================
Total params: 1,427
Trainable params: 1,297
Non-trainable params: 130
________________________________________________________________________________


