Model
Model: "model_148"
________________________________________________________________________________
Layer (type)              Output Shape      Param #  Connected to               
================================================================================
input_277 (InputLayer)    [(None, 20)]      0                                   
________________________________________________________________________________
dense_552 (Dense)         (None, 16)        336      input_277[0][0]            
________________________________________________________________________________
batch_normalization_287 ( (None, 16)        64       dense_552[0][0]            
________________________________________________________________________________
dropout_253 (Dropout)     (None, 16)        0        batch_normalization_287[0][
________________________________________________________________________________
dense_553 (Dense)         (None, 8)         136      dropout_253[0][0]          
________________________________________________________________________________
batch_normalization_288 ( (None, 8)         32       dense_553[0][0]            
________________________________________________________________________________
dropout_254 (Dropout)     (None, 8)         0        batch_normalization_288[0][
________________________________________________________________________________
dense_554 (Dense)         (None, 16)        144      dropout_254[0][0]          
________________________________________________________________________________
batch_normalization_289 ( (None, 16)        64       dense_554[0][0]            
________________________________________________________________________________
dropout_255 (Dropout)     (None, 16)        0        batch_normalization_289[0][
________________________________________________________________________________
dense_555 (Dense)         (None, 8)         136      dropout_255[0][0]          
________________________________________________________________________________
batch_normalization_290 ( (None, 8)         32       dense_555[0][0]            
________________________________________________________________________________
dense_556 (Dense)         (None, 1)         9        batch_normalization_290[0][
________________________________________________________________________________
input_278 (InputLayer)    [(None, 1)]       0                                   
________________________________________________________________________________
add_36 (Add)              (None, 1)         0        dense_556[0][0]            
                                                     input_278[0][0]            
________________________________________________________________________________
dense_557 (Dense)         (None, 1)         2        add_36[0][0]               
================================================================================
Total params: 955
Trainable params: 857
Non-trainable params: 98
________________________________________________________________________________


