Model
Model: "model_70"
________________________________________________________________________________
Layer (type)              Output Shape      Param #  Connected to               
================================================================================
input_121 (InputLayer)    [(None, 20)]      0                                   
________________________________________________________________________________
dense_198 (Dense)         (None, 8)         168      input_121[0][0]            
________________________________________________________________________________
batch_normalization_89 (B (None, 8)         32       dense_198[0][0]            
________________________________________________________________________________
dropout_91 (Dropout)      (None, 8)         0        batch_normalization_89[0][0
________________________________________________________________________________
dense_199 (Dense)         (None, 8)         72       dropout_91[0][0]           
________________________________________________________________________________
batch_normalization_90 (B (None, 8)         32       dense_199[0][0]            
________________________________________________________________________________
dropout_92 (Dropout)      (None, 8)         0        batch_normalization_90[0][0
________________________________________________________________________________
dense_200 (Dense)         (None, 1)         9        dropout_92[0][0]           
________________________________________________________________________________
input_122 (InputLayer)    [(None, 1)]       0                                   
________________________________________________________________________________
Add (Add)                 (None, 1)         0        dense_200[0][0]            
                                                     input_122[0][0]            
________________________________________________________________________________
dense_201 (Dense)         (None, 1)         2        Add[0][0]                  
================================================================================
Total params: 315
Trainable params: 281
Non-trainable params: 34
________________________________________________________________________________


