Model
Model: "model_162"
________________________________________________________________________________
Layer (type)              Output Shape      Param #  Connected to               
================================================================================
input_305 (InputLayer)    [(None, 20)]      0                                   
________________________________________________________________________________
dense_636 (Dense)         (None, 16)        336      input_305[0][0]            
________________________________________________________________________________
batch_normalization_343 ( (None, 16)        64       dense_636[0][0]            
________________________________________________________________________________
dropout_295 (Dropout)     (None, 16)        0        batch_normalization_343[0][
________________________________________________________________________________
dense_637 (Dense)         (None, 16)        272      dropout_295[0][0]          
________________________________________________________________________________
batch_normalization_344 ( (None, 16)        64       dense_637[0][0]            
________________________________________________________________________________
dropout_296 (Dropout)     (None, 16)        0        batch_normalization_344[0][
________________________________________________________________________________
dense_638 (Dense)         (None, 16)        272      dropout_296[0][0]          
________________________________________________________________________________
batch_normalization_345 ( (None, 16)        64       dense_638[0][0]            
________________________________________________________________________________
dropout_297 (Dropout)     (None, 16)        0        batch_normalization_345[0][
________________________________________________________________________________
dense_639 (Dense)         (None, 16)        272      dropout_297[0][0]          
________________________________________________________________________________
batch_normalization_346 ( (None, 16)        64       dense_639[0][0]            
________________________________________________________________________________
dense_640 (Dense)         (None, 1)         17       batch_normalization_346[0][
________________________________________________________________________________
input_306 (InputLayer)    [(None, 1)]       0                                   
________________________________________________________________________________
add_50 (Add)              (None, 1)         0        dense_640[0][0]            
                                                     input_306[0][0]            
________________________________________________________________________________
dense_641 (Dense)         (None, 1)         2        add_50[0][0]               
================================================================================
Total params: 1,427
Trainable params: 1,297
Non-trainable params: 130
________________________________________________________________________________


