Model
Model: "model_55"
________________________________________________________________________________
Layer (type)              Output Shape      Param #  Connected to               
================================================================================
input_91 (InputLayer)     [(None, 20)]      0                                   
________________________________________________________________________________
dense_138 (Dense)         (None, 64)        1344     input_91[0][0]             
________________________________________________________________________________
batch_normalization_59 (B (None, 64)        256      dense_138[0][0]            
________________________________________________________________________________
dropout_61 (Dropout)      (None, 64)        0        batch_normalization_59[0][0
________________________________________________________________________________
dense_139 (Dense)         (None, 8)         520      dropout_61[0][0]           
________________________________________________________________________________
batch_normalization_60 (B (None, 8)         32       dense_139[0][0]            
________________________________________________________________________________
dropout_62 (Dropout)      (None, 8)         0        batch_normalization_60[0][0
________________________________________________________________________________
dense_140 (Dense)         (None, 1)         9        dropout_62[0][0]           
________________________________________________________________________________
input_92 (InputLayer)     [(None, 1)]       0                                   
________________________________________________________________________________
Add (Add)                 (None, 1)         0        dense_140[0][0]            
                                                     input_92[0][0]             
________________________________________________________________________________
dense_141 (Dense)         (None, 1)         2        Add[0][0]                  
================================================================================
Total params: 2,163
Trainable params: 2,017
Non-trainable params: 146
________________________________________________________________________________


