Model
Model: "model_96"
________________________________________________________________________________
Layer (type)              Output Shape      Param #  Connected to               
================================================================================
input_173 (InputLayer)    [(None, 20)]      0                                   
________________________________________________________________________________
dense_302 (Dense)         (None, 8)         168      input_173[0][0]            
________________________________________________________________________________
batch_normalization_141 ( (None, 8)         32       dense_302[0][0]            
________________________________________________________________________________
dropout_143 (Dropout)     (None, 8)         0        batch_normalization_141[0][
________________________________________________________________________________
dense_303 (Dense)         (None, 8)         72       dropout_143[0][0]          
________________________________________________________________________________
batch_normalization_142 ( (None, 8)         32       dense_303[0][0]            
________________________________________________________________________________
dropout_144 (Dropout)     (None, 8)         0        batch_normalization_142[0][
________________________________________________________________________________
dense_304 (Dense)         (None, 1)         9        dropout_144[0][0]          
________________________________________________________________________________
input_174 (InputLayer)    [(None, 1)]       0                                   
________________________________________________________________________________
Add (Add)                 (None, 1)         0        dense_304[0][0]            
                                                     input_174[0][0]            
________________________________________________________________________________
dense_305 (Dense)         (None, 1)         2        Add[0][0]                  
================================================================================
Total params: 315
Trainable params: 281
Non-trainable params: 34
________________________________________________________________________________


