Model
Model: "model_112"
________________________________________________________________________________
Layer (type)              Output Shape      Param #  Connected to               
================================================================================
input_205 (InputLayer)    [(None, 20)]      0                                   
________________________________________________________________________________
dense_366 (Dense)         (None, 8)         168      input_205[0][0]            
________________________________________________________________________________
batch_normalization_173 ( (None, 8)         32       dense_366[0][0]            
________________________________________________________________________________
dropout_175 (Dropout)     (None, 8)         0        batch_normalization_173[0][
________________________________________________________________________________
dense_367 (Dense)         (None, 8)         72       dropout_175[0][0]          
________________________________________________________________________________
batch_normalization_174 ( (None, 8)         32       dense_367[0][0]            
________________________________________________________________________________
dropout_176 (Dropout)     (None, 8)         0        batch_normalization_174[0][
________________________________________________________________________________
dense_368 (Dense)         (None, 8)         72       dropout_176[0][0]          
________________________________________________________________________________
batch_normalization_175 ( (None, 8)         32       dense_368[0][0]            
________________________________________________________________________________
dense_369 (Dense)         (None, 1)         9        batch_normalization_175[0][
________________________________________________________________________________
input_206 (InputLayer)    [(None, 1)]       0                                   
________________________________________________________________________________
add (Add)                 (None, 1)         0        dense_369[0][0]            
                                                     input_206[0][0]            
________________________________________________________________________________
dense_370 (Dense)         (None, 1)         2        add[0][0]                  
================================================================================
Total params: 419
Trainable params: 369
Non-trainable params: 50
________________________________________________________________________________


