Model
Model: "model_107"
________________________________________________________________________________
Layer (type)              Output Shape      Param #  Connected to               
================================================================================
input_195 (InputLayer)    [(None, 20)]      0                                   
________________________________________________________________________________
dense_346 (Dense)         (None, 32)        672      input_195[0][0]            
________________________________________________________________________________
batch_normalization_163 ( (None, 32)        128      dense_346[0][0]            
________________________________________________________________________________
dropout_165 (Dropout)     (None, 32)        0        batch_normalization_163[0][
________________________________________________________________________________
dense_347 (Dense)         (None, 16)        528      dropout_165[0][0]          
________________________________________________________________________________
batch_normalization_164 ( (None, 16)        64       dense_347[0][0]            
________________________________________________________________________________
dropout_166 (Dropout)     (None, 16)        0        batch_normalization_164[0][
________________________________________________________________________________
dense_348 (Dense)         (None, 1)         17       dropout_166[0][0]          
________________________________________________________________________________
input_196 (InputLayer)    [(None, 1)]       0                                   
________________________________________________________________________________
Add (Add)                 (None, 1)         0        dense_348[0][0]            
                                                     input_196[0][0]            
________________________________________________________________________________
dense_349 (Dense)         (None, 1)         2        Add[0][0]                  
================================================================================
Total params: 1,411
Trainable params: 1,313
Non-trainable params: 98
________________________________________________________________________________


