Model
Model: "model_80"
________________________________________________________________________________
Layer (type)              Output Shape      Param #  Connected to               
================================================================================
input_141 (InputLayer)    [(None, 20)]      0                                   
________________________________________________________________________________
dense_238 (Dense)         (None, 8)         168      input_141[0][0]            
________________________________________________________________________________
batch_normalization_109 ( (None, 8)         32       dense_238[0][0]            
________________________________________________________________________________
dropout_111 (Dropout)     (None, 8)         0        batch_normalization_109[0][
________________________________________________________________________________
dense_239 (Dense)         (None, 8)         72       dropout_111[0][0]          
________________________________________________________________________________
batch_normalization_110 ( (None, 8)         32       dense_239[0][0]            
________________________________________________________________________________
dropout_112 (Dropout)     (None, 8)         0        batch_normalization_110[0][
________________________________________________________________________________
dense_240 (Dense)         (None, 1)         9        dropout_112[0][0]          
________________________________________________________________________________
input_142 (InputLayer)    [(None, 1)]       0                                   
________________________________________________________________________________
Add (Add)                 (None, 1)         0        dense_240[0][0]            
                                                     input_142[0][0]            
________________________________________________________________________________
dense_241 (Dense)         (None, 1)         2        Add[0][0]                  
================================================================================
Total params: 315
Trainable params: 281
Non-trainable params: 34
________________________________________________________________________________


