Model
Model: "model_119"
________________________________________________________________________________
Layer (type)              Output Shape      Param #  Connected to               
================================================================================
input_219 (InputLayer)    [(None, 20)]      0                                   
________________________________________________________________________________
dense_401 (Dense)         (None, 16)        336      input_219[0][0]            
________________________________________________________________________________
batch_normalization_194 ( (None, 16)        64       dense_401[0][0]            
________________________________________________________________________________
dropout_189 (Dropout)     (None, 16)        0        batch_normalization_194[0][
________________________________________________________________________________
dense_402 (Dense)         (None, 32)        544      dropout_189[0][0]          
________________________________________________________________________________
batch_normalization_195 ( (None, 32)        128      dense_402[0][0]            
________________________________________________________________________________
dropout_190 (Dropout)     (None, 32)        0        batch_normalization_195[0][
________________________________________________________________________________
dense_403 (Dense)         (None, 8)         264      dropout_190[0][0]          
________________________________________________________________________________
batch_normalization_196 ( (None, 8)         32       dense_403[0][0]            
________________________________________________________________________________
dense_404 (Dense)         (None, 1)         9        batch_normalization_196[0][
________________________________________________________________________________
input_220 (InputLayer)    [(None, 1)]       0                                   
________________________________________________________________________________
add_7 (Add)               (None, 1)         0        dense_404[0][0]            
                                                     input_220[0][0]            
________________________________________________________________________________
dense_405 (Dense)         (None, 1)         2        add_7[0][0]                
================================================================================
Total params: 1,379
Trainable params: 1,265
Non-trainable params: 114
________________________________________________________________________________


