Model
Model: "model_200"
________________________________________________________________________________
Layer (type)              Output Shape      Param #  Connected to               
================================================================================
input_381 (InputLayer)    [(None, 20)]      0                                   
________________________________________________________________________________
dense_864 (Dense)         (None, 16)        336      input_381[0][0]            
________________________________________________________________________________
batch_normalization_495 ( (None, 16)        64       dense_864[0][0]            
________________________________________________________________________________
dropout_409 (Dropout)     (None, 16)        0        batch_normalization_495[0][
________________________________________________________________________________
dense_865 (Dense)         (None, 16)        272      dropout_409[0][0]          
________________________________________________________________________________
batch_normalization_496 ( (None, 16)        64       dense_865[0][0]            
________________________________________________________________________________
dropout_410 (Dropout)     (None, 16)        0        batch_normalization_496[0][
________________________________________________________________________________
dense_866 (Dense)         (None, 16)        272      dropout_410[0][0]          
________________________________________________________________________________
batch_normalization_497 ( (None, 16)        64       dense_866[0][0]            
________________________________________________________________________________
dropout_411 (Dropout)     (None, 16)        0        batch_normalization_497[0][
________________________________________________________________________________
dense_867 (Dense)         (None, 16)        272      dropout_411[0][0]          
________________________________________________________________________________
batch_normalization_498 ( (None, 16)        64       dense_867[0][0]            
________________________________________________________________________________
dense_868 (Dense)         (None, 1)         17       batch_normalization_498[0][
________________________________________________________________________________
input_382 (InputLayer)    [(None, 1)]       0                                   
________________________________________________________________________________
add_88 (Add)              (None, 1)         0        dense_868[0][0]            
                                                     input_382[0][0]            
________________________________________________________________________________
dense_869 (Dense)         (None, 1)         2        add_88[0][0]               
================================================================================
Total params: 1,427
Trainable params: 1,297
Non-trainable params: 130
________________________________________________________________________________


