Model
Model: "model_6"
________________________________________________________________________________
Layer (type)              Output Shape      Param #  Connected to               
================================================================================
input_13 (InputLayer)     [(None, 20)]      0                                   
________________________________________________________________________________
dense_24 (Dense)          (None, 32)        672      input_13[0][0]             
________________________________________________________________________________
batch_normalization_12 (B (None, 32)        128      dense_24[0][0]             
________________________________________________________________________________
dropout_12 (Dropout)      (None, 32)        0        batch_normalization_12[0][0
________________________________________________________________________________
dense_25 (Dense)          (None, 32)        1056     dropout_12[0][0]           
________________________________________________________________________________
batch_normalization_13 (B (None, 32)        128      dense_25[0][0]             
________________________________________________________________________________
dropout_13 (Dropout)      (None, 32)        0        batch_normalization_13[0][0
________________________________________________________________________________
dense_26 (Dense)          (None, 1)         33       dropout_13[0][0]           
________________________________________________________________________________
input_14 (InputLayer)     [(None, 1)]       0                                   
________________________________________________________________________________
Add (Add)                 (None, 1)         0        dense_26[0][0]             
                                                     input_14[0][0]             
________________________________________________________________________________
dense_27 (Dense)          (None, 1)         2        Add[0][0]                  
================================================================================
Total params: 2,019
Trainable params: 1,889
Non-trainable params: 130
________________________________________________________________________________


