Model
Model: "model_188"
________________________________________________________________________________
Layer (type)              Output Shape      Param #  Connected to               
================================================================================
input_357 (InputLayer)    [(None, 20)]      0                                   
________________________________________________________________________________
dense_792 (Dense)         (None, 16)        336      input_357[0][0]            
________________________________________________________________________________
batch_normalization_447 ( (None, 16)        64       dense_792[0][0]            
________________________________________________________________________________
dropout_373 (Dropout)     (None, 16)        0        batch_normalization_447[0][
________________________________________________________________________________
dense_793 (Dense)         (None, 32)        544      dropout_373[0][0]          
________________________________________________________________________________
batch_normalization_448 ( (None, 32)        128      dense_793[0][0]            
________________________________________________________________________________
dropout_374 (Dropout)     (None, 32)        0        batch_normalization_448[0][
________________________________________________________________________________
dense_794 (Dense)         (None, 8)         264      dropout_374[0][0]          
________________________________________________________________________________
batch_normalization_449 ( (None, 8)         32       dense_794[0][0]            
________________________________________________________________________________
dropout_375 (Dropout)     (None, 8)         0        batch_normalization_449[0][
________________________________________________________________________________
dense_795 (Dense)         (None, 16)        144      dropout_375[0][0]          
________________________________________________________________________________
batch_normalization_450 ( (None, 16)        64       dense_795[0][0]            
________________________________________________________________________________
dense_796 (Dense)         (None, 1)         17       batch_normalization_450[0][
________________________________________________________________________________
input_358 (InputLayer)    [(None, 1)]       0                                   
________________________________________________________________________________
add_76 (Add)              (None, 1)         0        dense_796[0][0]            
                                                     input_358[0][0]            
________________________________________________________________________________
dense_797 (Dense)         (None, 1)         2        add_76[0][0]               
================================================================================
Total params: 1,595
Trainable params: 1,449
Non-trainable params: 146
________________________________________________________________________________


