Model
Model: "model_108"
________________________________________________________________________________
Layer (type)              Output Shape      Param #  Connected to               
================================================================================
input_197 (InputLayer)    [(None, 20)]      0                                   
________________________________________________________________________________
dense_350 (Dense)         (None, 32)        672      input_197[0][0]            
________________________________________________________________________________
batch_normalization_165 ( (None, 32)        128      dense_350[0][0]            
________________________________________________________________________________
dropout_167 (Dropout)     (None, 32)        0        batch_normalization_165[0][
________________________________________________________________________________
dense_351 (Dense)         (None, 16)        528      dropout_167[0][0]          
________________________________________________________________________________
batch_normalization_166 ( (None, 16)        64       dense_351[0][0]            
________________________________________________________________________________
dropout_168 (Dropout)     (None, 16)        0        batch_normalization_166[0][
________________________________________________________________________________
dense_352 (Dense)         (None, 1)         17       dropout_168[0][0]          
________________________________________________________________________________
input_198 (InputLayer)    [(None, 1)]       0                                   
________________________________________________________________________________
Add (Add)                 (None, 1)         0        dense_352[0][0]            
                                                     input_198[0][0]            
________________________________________________________________________________
dense_353 (Dense)         (None, 1)         2        Add[0][0]                  
================================================================================
Total params: 1,411
Trainable params: 1,313
Non-trainable params: 98
________________________________________________________________________________


