Model
Model: "model_67"
________________________________________________________________________________
Layer (type)              Output Shape      Param #  Connected to               
================================================================================
input_115 (InputLayer)    [(None, 20)]      0                                   
________________________________________________________________________________
dense_186 (Dense)         (None, 64)        1344     input_115[0][0]            
________________________________________________________________________________
batch_normalization_83 (B (None, 64)        256      dense_186[0][0]            
________________________________________________________________________________
dropout_85 (Dropout)      (None, 64)        0        batch_normalization_83[0][0
________________________________________________________________________________
dense_187 (Dense)         (None, 64)        4160     dropout_85[0][0]           
________________________________________________________________________________
batch_normalization_84 (B (None, 64)        256      dense_187[0][0]            
________________________________________________________________________________
dropout_86 (Dropout)      (None, 64)        0        batch_normalization_84[0][0
________________________________________________________________________________
dense_188 (Dense)         (None, 1)         65       dropout_86[0][0]           
________________________________________________________________________________
input_116 (InputLayer)    [(None, 1)]       0                                   
________________________________________________________________________________
Add (Add)                 (None, 1)         0        dense_188[0][0]            
                                                     input_116[0][0]            
________________________________________________________________________________
dense_189 (Dense)         (None, 1)         2        Add[0][0]                  
================================================================================
Total params: 6,083
Trainable params: 5,825
Non-trainable params: 258
________________________________________________________________________________


