Model
Model: "model_132"
________________________________________________________________________________
Layer (type)              Output Shape      Param #  Connected to               
================================================================================
input_245 (InputLayer)    [(None, 20)]      0                                   
________________________________________________________________________________
dense_466 (Dense)         (None, 32)        672      input_245[0][0]            
________________________________________________________________________________
batch_normalization_233 ( (None, 32)        128      dense_466[0][0]            
________________________________________________________________________________
dropout_215 (Dropout)     (None, 32)        0        batch_normalization_233[0][
________________________________________________________________________________
dense_467 (Dense)         (None, 16)        528      dropout_215[0][0]          
________________________________________________________________________________
batch_normalization_234 ( (None, 16)        64       dense_467[0][0]            
________________________________________________________________________________
dropout_216 (Dropout)     (None, 16)        0        batch_normalization_234[0][
________________________________________________________________________________
dense_468 (Dense)         (None, 8)         136      dropout_216[0][0]          
________________________________________________________________________________
batch_normalization_235 ( (None, 8)         32       dense_468[0][0]            
________________________________________________________________________________
dense_469 (Dense)         (None, 1)         9        batch_normalization_235[0][
________________________________________________________________________________
input_246 (InputLayer)    [(None, 1)]       0                                   
________________________________________________________________________________
add_20 (Add)              (None, 1)         0        dense_469[0][0]            
                                                     input_246[0][0]            
________________________________________________________________________________
dense_470 (Dense)         (None, 1)         2        add_20[0][0]               
================================================================================
Total params: 1,571
Trainable params: 1,457
Non-trainable params: 114
________________________________________________________________________________


