Model
Model: "model_5"
________________________________________________________________________________
Layer (type)              Output Shape      Param #  Connected to               
================================================================================
input_11 (InputLayer)     [(None, 20)]      0                                   
________________________________________________________________________________
dense_30 (Dense)          (None, 128)       2688     input_11[0][0]             
________________________________________________________________________________
batch_normalization_15 (B (None, 128)       512      dense_30[0][0]             
________________________________________________________________________________
dropout_15 (Dropout)      (None, 128)       0        batch_normalization_15[0][0
________________________________________________________________________________
dense_31 (Dense)          (None, 64)        8256     dropout_15[0][0]           
________________________________________________________________________________
batch_normalization_16 (B (None, 64)        256      dense_31[0][0]             
________________________________________________________________________________
dropout_16 (Dropout)      (None, 64)        0        batch_normalization_16[0][0
________________________________________________________________________________
dense_32 (Dense)          (None, 16)        1040     dropout_16[0][0]           
________________________________________________________________________________
batch_normalization_17 (B (None, 16)        64       dense_32[0][0]             
________________________________________________________________________________
dropout_17 (Dropout)      (None, 16)        0        batch_normalization_17[0][0
________________________________________________________________________________
dense_33 (Dense)          (None, 16)        272      dropout_17[0][0]           
________________________________________________________________________________
dense_34 (Dense)          (None, 1)         17       dense_33[0][0]             
________________________________________________________________________________
input_12 (InputLayer)     [(None, 1)]       0                                   
________________________________________________________________________________
add_5 (Add)               (None, 1)         0        dense_34[0][0]             
                                                     input_12[0][0]             
________________________________________________________________________________
dense_35 (Dense)          (None, 1)         2        add_5[0][0]                
================================================================================
Total params: 13,107
Trainable params: 12,689
Non-trainable params: 418
________________________________________________________________________________


