Model
Model: "model_13"
________________________________________________________________________________
Layer (type)              Output Shape      Param #  Connected to               
================================================================================
input_27 (InputLayer)     [(None, 20)]      0                                   
________________________________________________________________________________
dense_52 (Dense)          (None, 128)       2688     input_27[0][0]             
________________________________________________________________________________
batch_normalization_26 (B (None, 128)       512      dense_52[0][0]             
________________________________________________________________________________
dropout_26 (Dropout)      (None, 128)       0        batch_normalization_26[0][0
________________________________________________________________________________
dense_53 (Dense)          (None, 64)        8256     dropout_26[0][0]           
________________________________________________________________________________
batch_normalization_27 (B (None, 64)        256      dense_53[0][0]             
________________________________________________________________________________
dropout_27 (Dropout)      (None, 64)        0        batch_normalization_27[0][0
________________________________________________________________________________
dense_54 (Dense)          (None, 1)         65       dropout_27[0][0]           
________________________________________________________________________________
input_28 (InputLayer)     [(None, 1)]       0                                   
________________________________________________________________________________
Add (Add)                 (None, 1)         0        dense_54[0][0]             
                                                     input_28[0][0]             
________________________________________________________________________________
dense_55 (Dense)          (None, 1)         2        Add[0][0]                  
================================================================================
Total params: 11,779
Trainable params: 11,393
Non-trainable params: 386
________________________________________________________________________________


