Model
Model: "model_201"
________________________________________________________________________________
Layer (type)              Output Shape      Param #  Connected to               
================================================================================
input_383 (InputLayer)    [(None, 20)]      0                                   
________________________________________________________________________________
dense_870 (Dense)         (None, 16)        336      input_383[0][0]            
________________________________________________________________________________
batch_normalization_499 ( (None, 16)        64       dense_870[0][0]            
________________________________________________________________________________
dropout_412 (Dropout)     (None, 16)        0        batch_normalization_499[0][
________________________________________________________________________________
dense_871 (Dense)         (None, 16)        272      dropout_412[0][0]          
________________________________________________________________________________
batch_normalization_500 ( (None, 16)        64       dense_871[0][0]            
________________________________________________________________________________
dropout_413 (Dropout)     (None, 16)        0        batch_normalization_500[0][
________________________________________________________________________________
dense_872 (Dense)         (None, 16)        272      dropout_413[0][0]          
________________________________________________________________________________
batch_normalization_501 ( (None, 16)        64       dense_872[0][0]            
________________________________________________________________________________
dropout_414 (Dropout)     (None, 16)        0        batch_normalization_501[0][
________________________________________________________________________________
dense_873 (Dense)         (None, 16)        272      dropout_414[0][0]          
________________________________________________________________________________
batch_normalization_502 ( (None, 16)        64       dense_873[0][0]            
________________________________________________________________________________
dense_874 (Dense)         (None, 1)         17       batch_normalization_502[0][
________________________________________________________________________________
input_384 (InputLayer)    [(None, 1)]       0                                   
________________________________________________________________________________
add_89 (Add)              (None, 1)         0        dense_874[0][0]            
                                                     input_384[0][0]            
________________________________________________________________________________
dense_875 (Dense)         (None, 1)         2        add_89[0][0]               
================================================================================
Total params: 1,427
Trainable params: 1,297
Non-trainable params: 130
________________________________________________________________________________


