Model
Model: "model_192"
________________________________________________________________________________
Layer (type)              Output Shape      Param #  Connected to               
================================================================================
input_365 (InputLayer)    [(None, 20)]      0                                   
________________________________________________________________________________
dense_816 (Dense)         (None, 16)        336      input_365[0][0]            
________________________________________________________________________________
batch_normalization_463 ( (None, 16)        64       dense_816[0][0]            
________________________________________________________________________________
dropout_385 (Dropout)     (None, 16)        0        batch_normalization_463[0][
________________________________________________________________________________
dense_817 (Dense)         (None, 32)        544      dropout_385[0][0]          
________________________________________________________________________________
batch_normalization_464 ( (None, 32)        128      dense_817[0][0]            
________________________________________________________________________________
dropout_386 (Dropout)     (None, 32)        0        batch_normalization_464[0][
________________________________________________________________________________
dense_818 (Dense)         (None, 8)         264      dropout_386[0][0]          
________________________________________________________________________________
batch_normalization_465 ( (None, 8)         32       dense_818[0][0]            
________________________________________________________________________________
dropout_387 (Dropout)     (None, 8)         0        batch_normalization_465[0][
________________________________________________________________________________
dense_819 (Dense)         (None, 16)        144      dropout_387[0][0]          
________________________________________________________________________________
batch_normalization_466 ( (None, 16)        64       dense_819[0][0]            
________________________________________________________________________________
dense_820 (Dense)         (None, 1)         17       batch_normalization_466[0][
________________________________________________________________________________
input_366 (InputLayer)    [(None, 1)]       0                                   
________________________________________________________________________________
add_80 (Add)              (None, 1)         0        dense_820[0][0]            
                                                     input_366[0][0]            
________________________________________________________________________________
dense_821 (Dense)         (None, 1)         2        add_80[0][0]               
================================================================================
Total params: 1,595
Trainable params: 1,449
Non-trainable params: 146
________________________________________________________________________________


