Model
Model: "model_60"
________________________________________________________________________________
Layer (type)              Output Shape      Param #  Connected to               
================================================================================
input_101 (InputLayer)    [(None, 20)]      0                                   
________________________________________________________________________________
dense_158 (Dense)         (None, 8)         168      input_101[0][0]            
________________________________________________________________________________
batch_normalization_69 (B (None, 8)         32       dense_158[0][0]            
________________________________________________________________________________
dropout_71 (Dropout)      (None, 8)         0        batch_normalization_69[0][0
________________________________________________________________________________
dense_159 (Dense)         (None, 32)        288      dropout_71[0][0]           
________________________________________________________________________________
batch_normalization_70 (B (None, 32)        128      dense_159[0][0]            
________________________________________________________________________________
dropout_72 (Dropout)      (None, 32)        0        batch_normalization_70[0][0
________________________________________________________________________________
dense_160 (Dense)         (None, 1)         33       dropout_72[0][0]           
________________________________________________________________________________
input_102 (InputLayer)    [(None, 1)]       0                                   
________________________________________________________________________________
Add (Add)                 (None, 1)         0        dense_160[0][0]            
                                                     input_102[0][0]            
________________________________________________________________________________
dense_161 (Dense)         (None, 1)         2        Add[0][0]                  
================================================================================
Total params: 651
Trainable params: 569
Non-trainable params: 82
________________________________________________________________________________


