Model
Model: "model_191"
________________________________________________________________________________
Layer (type)              Output Shape      Param #  Connected to               
================================================================================
input_363 (InputLayer)    [(None, 20)]      0                                   
________________________________________________________________________________
dense_810 (Dense)         (None, 16)        336      input_363[0][0]            
________________________________________________________________________________
batch_normalization_459 ( (None, 16)        64       dense_810[0][0]            
________________________________________________________________________________
dropout_382 (Dropout)     (None, 16)        0        batch_normalization_459[0][
________________________________________________________________________________
dense_811 (Dense)         (None, 32)        544      dropout_382[0][0]          
________________________________________________________________________________
batch_normalization_460 ( (None, 32)        128      dense_811[0][0]            
________________________________________________________________________________
dropout_383 (Dropout)     (None, 32)        0        batch_normalization_460[0][
________________________________________________________________________________
dense_812 (Dense)         (None, 8)         264      dropout_383[0][0]          
________________________________________________________________________________
batch_normalization_461 ( (None, 8)         32       dense_812[0][0]            
________________________________________________________________________________
dropout_384 (Dropout)     (None, 8)         0        batch_normalization_461[0][
________________________________________________________________________________
dense_813 (Dense)         (None, 16)        144      dropout_384[0][0]          
________________________________________________________________________________
batch_normalization_462 ( (None, 16)        64       dense_813[0][0]            
________________________________________________________________________________
dense_814 (Dense)         (None, 1)         17       batch_normalization_462[0][
________________________________________________________________________________
input_364 (InputLayer)    [(None, 1)]       0                                   
________________________________________________________________________________
add_79 (Add)              (None, 1)         0        dense_814[0][0]            
                                                     input_364[0][0]            
________________________________________________________________________________
dense_815 (Dense)         (None, 1)         2        add_79[0][0]               
================================================================================
Total params: 1,595
Trainable params: 1,449
Non-trainable params: 146
________________________________________________________________________________


