Model
Model: "model_127"
________________________________________________________________________________
Layer (type)              Output Shape      Param #  Connected to               
================================================================================
input_235 (InputLayer)    [(None, 20)]      0                                   
________________________________________________________________________________
dense_441 (Dense)         (None, 32)        672      input_235[0][0]            
________________________________________________________________________________
batch_normalization_218 ( (None, 32)        128      dense_441[0][0]            
________________________________________________________________________________
dropout_205 (Dropout)     (None, 32)        0        batch_normalization_218[0][
________________________________________________________________________________
dense_442 (Dense)         (None, 16)        528      dropout_205[0][0]          
________________________________________________________________________________
batch_normalization_219 ( (None, 16)        64       dense_442[0][0]            
________________________________________________________________________________
dropout_206 (Dropout)     (None, 16)        0        batch_normalization_219[0][
________________________________________________________________________________
dense_443 (Dense)         (None, 8)         136      dropout_206[0][0]          
________________________________________________________________________________
batch_normalization_220 ( (None, 8)         32       dense_443[0][0]            
________________________________________________________________________________
dense_444 (Dense)         (None, 1)         9        batch_normalization_220[0][
________________________________________________________________________________
input_236 (InputLayer)    [(None, 1)]       0                                   
________________________________________________________________________________
add_15 (Add)              (None, 1)         0        dense_444[0][0]            
                                                     input_236[0][0]            
________________________________________________________________________________
dense_445 (Dense)         (None, 1)         2        add_15[0][0]               
================================================================================
Total params: 1,571
Trainable params: 1,457
Non-trainable params: 114
________________________________________________________________________________


