Model
Model: "model_118"
________________________________________________________________________________
Layer (type)              Output Shape      Param #  Connected to               
================================================================================
input_217 (InputLayer)    [(None, 20)]      0                                   
________________________________________________________________________________
dense_396 (Dense)         (None, 8)         168      input_217[0][0]            
________________________________________________________________________________
batch_normalization_191 ( (None, 8)         32       dense_396[0][0]            
________________________________________________________________________________
dropout_187 (Dropout)     (None, 8)         0        batch_normalization_191[0][
________________________________________________________________________________
dense_397 (Dense)         (None, 32)        288      dropout_187[0][0]          
________________________________________________________________________________
batch_normalization_192 ( (None, 32)        128      dense_397[0][0]            
________________________________________________________________________________
dropout_188 (Dropout)     (None, 32)        0        batch_normalization_192[0][
________________________________________________________________________________
dense_398 (Dense)         (None, 8)         264      dropout_188[0][0]          
________________________________________________________________________________
batch_normalization_193 ( (None, 8)         32       dense_398[0][0]            
________________________________________________________________________________
dense_399 (Dense)         (None, 1)         9        batch_normalization_193[0][
________________________________________________________________________________
input_218 (InputLayer)    [(None, 1)]       0                                   
________________________________________________________________________________
add_6 (Add)               (None, 1)         0        dense_399[0][0]            
                                                     input_218[0][0]            
________________________________________________________________________________
dense_400 (Dense)         (None, 1)         2        add_6[0][0]                
================================================================================
Total params: 923
Trainable params: 825
Non-trainable params: 98
________________________________________________________________________________


