Model
Model: "model_91"
________________________________________________________________________________
Layer (type)              Output Shape      Param #  Connected to               
================================================================================
input_163 (InputLayer)    [(None, 20)]      0                                   
________________________________________________________________________________
dense_282 (Dense)         (None, 8)         168      input_163[0][0]            
________________________________________________________________________________
batch_normalization_131 ( (None, 8)         32       dense_282[0][0]            
________________________________________________________________________________
dropout_133 (Dropout)     (None, 8)         0        batch_normalization_131[0][
________________________________________________________________________________
dense_283 (Dense)         (None, 8)         72       dropout_133[0][0]          
________________________________________________________________________________
batch_normalization_132 ( (None, 8)         32       dense_283[0][0]            
________________________________________________________________________________
dropout_134 (Dropout)     (None, 8)         0        batch_normalization_132[0][
________________________________________________________________________________
dense_284 (Dense)         (None, 1)         9        dropout_134[0][0]          
________________________________________________________________________________
input_164 (InputLayer)    [(None, 1)]       0                                   
________________________________________________________________________________
Add (Add)                 (None, 1)         0        dense_284[0][0]            
                                                     input_164[0][0]            
________________________________________________________________________________
dense_285 (Dense)         (None, 1)         2        Add[0][0]                  
================================================================================
Total params: 315
Trainable params: 281
Non-trainable params: 34
________________________________________________________________________________


