Model
Model: "model_133"
________________________________________________________________________________
Layer (type)              Output Shape      Param #  Connected to               
================================================================================
input_247 (InputLayer)    [(None, 20)]      0                                   
________________________________________________________________________________
dense_471 (Dense)         (None, 32)        672      input_247[0][0]            
________________________________________________________________________________
batch_normalization_236 ( (None, 32)        128      dense_471[0][0]            
________________________________________________________________________________
dropout_217 (Dropout)     (None, 32)        0        batch_normalization_236[0][
________________________________________________________________________________
dense_472 (Dense)         (None, 16)        528      dropout_217[0][0]          
________________________________________________________________________________
batch_normalization_237 ( (None, 16)        64       dense_472[0][0]            
________________________________________________________________________________
dropout_218 (Dropout)     (None, 16)        0        batch_normalization_237[0][
________________________________________________________________________________
dense_473 (Dense)         (None, 8)         136      dropout_218[0][0]          
________________________________________________________________________________
batch_normalization_238 ( (None, 8)         32       dense_473[0][0]            
________________________________________________________________________________
dense_474 (Dense)         (None, 1)         9        batch_normalization_238[0][
________________________________________________________________________________
input_248 (InputLayer)    [(None, 1)]       0                                   
________________________________________________________________________________
add_21 (Add)              (None, 1)         0        dense_474[0][0]            
                                                     input_248[0][0]            
________________________________________________________________________________
dense_475 (Dense)         (None, 1)         2        add_21[0][0]               
================================================================================
Total params: 1,571
Trainable params: 1,457
Non-trainable params: 114
________________________________________________________________________________


