Model
Model: "model_139"
________________________________________________________________________________
Layer (type)              Output Shape      Param #  Connected to               
================================================================================
input_259 (InputLayer)    [(None, 20)]      0                                   
________________________________________________________________________________
dense_501 (Dense)         (None, 8)         168      input_259[0][0]            
________________________________________________________________________________
batch_normalization_254 ( (None, 8)         32       dense_501[0][0]            
________________________________________________________________________________
dropout_229 (Dropout)     (None, 8)         0        batch_normalization_254[0][
________________________________________________________________________________
dense_502 (Dense)         (None, 8)         72       dropout_229[0][0]          
________________________________________________________________________________
batch_normalization_255 ( (None, 8)         32       dense_502[0][0]            
________________________________________________________________________________
dropout_230 (Dropout)     (None, 8)         0        batch_normalization_255[0][
________________________________________________________________________________
dense_503 (Dense)         (None, 8)         72       dropout_230[0][0]          
________________________________________________________________________________
batch_normalization_256 ( (None, 8)         32       dense_503[0][0]            
________________________________________________________________________________
dense_504 (Dense)         (None, 1)         9        batch_normalization_256[0][
________________________________________________________________________________
input_260 (InputLayer)    [(None, 1)]       0                                   
________________________________________________________________________________
add_27 (Add)              (None, 1)         0        dense_504[0][0]            
                                                     input_260[0][0]            
________________________________________________________________________________
dense_505 (Dense)         (None, 1)         2        add_27[0][0]               
================================================================================
Total params: 419
Trainable params: 369
Non-trainable params: 50
________________________________________________________________________________


