Model
Model: "model_16"
________________________________________________________________________________
Layer (type)              Output Shape      Param #  Connected to               
================================================================================
input_33 (InputLayer)     [(None, 20)]      0                                   
________________________________________________________________________________
dense_64 (Dense)          (None, 32)        672      input_33[0][0]             
________________________________________________________________________________
batch_normalization_32 (B (None, 32)        128      dense_64[0][0]             
________________________________________________________________________________
dropout_32 (Dropout)      (None, 32)        0        batch_normalization_32[0][0
________________________________________________________________________________
dense_65 (Dense)          (None, 128)       4224     dropout_32[0][0]           
________________________________________________________________________________
batch_normalization_33 (B (None, 128)       512      dense_65[0][0]             
________________________________________________________________________________
dropout_33 (Dropout)      (None, 128)       0        batch_normalization_33[0][0
________________________________________________________________________________
dense_66 (Dense)          (None, 1)         129      dropout_33[0][0]           
________________________________________________________________________________
input_34 (InputLayer)     [(None, 1)]       0                                   
________________________________________________________________________________
Add (Add)                 (None, 1)         0        dense_66[0][0]             
                                                     input_34[0][0]             
________________________________________________________________________________
dense_67 (Dense)          (None, 1)         2        Add[0][0]                  
================================================================================
Total params: 5,667
Trainable params: 5,345
Non-trainable params: 322
________________________________________________________________________________


