Model
Model: "model_110"
________________________________________________________________________________
Layer (type)              Output Shape      Param #  Connected to               
================================================================================
input_201 (InputLayer)    [(None, 20)]      0                                   
________________________________________________________________________________
dense_358 (Dense)         (None, 32)        672      input_201[0][0]            
________________________________________________________________________________
batch_normalization_169 ( (None, 32)        128      dense_358[0][0]            
________________________________________________________________________________
dropout_171 (Dropout)     (None, 32)        0        batch_normalization_169[0][
________________________________________________________________________________
dense_359 (Dense)         (None, 16)        528      dropout_171[0][0]          
________________________________________________________________________________
batch_normalization_170 ( (None, 16)        64       dense_359[0][0]            
________________________________________________________________________________
dropout_172 (Dropout)     (None, 16)        0        batch_normalization_170[0][
________________________________________________________________________________
dense_360 (Dense)         (None, 1)         17       dropout_172[0][0]          
________________________________________________________________________________
input_202 (InputLayer)    [(None, 1)]       0                                   
________________________________________________________________________________
Add (Add)                 (None, 1)         0        dense_360[0][0]            
                                                     input_202[0][0]            
________________________________________________________________________________
dense_361 (Dense)         (None, 1)         2        Add[0][0]                  
================================================================================
Total params: 1,411
Trainable params: 1,313
Non-trainable params: 98
________________________________________________________________________________


