Model
Model: "model_101"
________________________________________________________________________________
Layer (type)              Output Shape      Param #  Connected to               
================================================================================
input_183 (InputLayer)    [(None, 20)]      0                                   
________________________________________________________________________________
dense_322 (Dense)         (None, 8)         168      input_183[0][0]            
________________________________________________________________________________
batch_normalization_151 ( (None, 8)         32       dense_322[0][0]            
________________________________________________________________________________
dropout_153 (Dropout)     (None, 8)         0        batch_normalization_151[0][
________________________________________________________________________________
dense_323 (Dense)         (None, 8)         72       dropout_153[0][0]          
________________________________________________________________________________
batch_normalization_152 ( (None, 8)         32       dense_323[0][0]            
________________________________________________________________________________
dropout_154 (Dropout)     (None, 8)         0        batch_normalization_152[0][
________________________________________________________________________________
dense_324 (Dense)         (None, 1)         9        dropout_154[0][0]          
________________________________________________________________________________
input_184 (InputLayer)    [(None, 1)]       0                                   
________________________________________________________________________________
Add (Add)                 (None, 1)         0        dense_324[0][0]            
                                                     input_184[0][0]            
________________________________________________________________________________
dense_325 (Dense)         (None, 1)         2        Add[0][0]                  
================================================================================
Total params: 315
Trainable params: 281
Non-trainable params: 34
________________________________________________________________________________


