Model
Model: "model_12"
________________________________________________________________________________
Layer (type)              Output Shape      Param #  Connected to               
================================================================================
input_25 (InputLayer)     [(None, 20)]      0                                   
________________________________________________________________________________
dense_48 (Dense)          (None, 64)        1344     input_25[0][0]             
________________________________________________________________________________
batch_normalization_24 (B (None, 64)        256      dense_48[0][0]             
________________________________________________________________________________
dropout_24 (Dropout)      (None, 64)        0        batch_normalization_24[0][0
________________________________________________________________________________
dense_49 (Dense)          (None, 64)        4160     dropout_24[0][0]           
________________________________________________________________________________
batch_normalization_25 (B (None, 64)        256      dense_49[0][0]             
________________________________________________________________________________
dropout_25 (Dropout)      (None, 64)        0        batch_normalization_25[0][0
________________________________________________________________________________
dense_50 (Dense)          (None, 1)         65       dropout_25[0][0]           
________________________________________________________________________________
input_26 (InputLayer)     [(None, 1)]       0                                   
________________________________________________________________________________
Add (Add)                 (None, 1)         0        dense_50[0][0]             
                                                     input_26[0][0]             
________________________________________________________________________________
dense_51 (Dense)          (None, 1)         2        Add[0][0]                  
================================================================================
Total params: 6,083
Trainable params: 5,825
Non-trainable params: 258
________________________________________________________________________________


