Model
Model: "model_129"
________________________________________________________________________________
Layer (type)              Output Shape      Param #  Connected to               
================================================================================
input_239 (InputLayer)    [(None, 20)]      0                                   
________________________________________________________________________________
dense_451 (Dense)         (None, 32)        672      input_239[0][0]            
________________________________________________________________________________
batch_normalization_224 ( (None, 32)        128      dense_451[0][0]            
________________________________________________________________________________
dropout_209 (Dropout)     (None, 32)        0        batch_normalization_224[0][
________________________________________________________________________________
dense_452 (Dense)         (None, 16)        528      dropout_209[0][0]          
________________________________________________________________________________
batch_normalization_225 ( (None, 16)        64       dense_452[0][0]            
________________________________________________________________________________
dropout_210 (Dropout)     (None, 16)        0        batch_normalization_225[0][
________________________________________________________________________________
dense_453 (Dense)         (None, 8)         136      dropout_210[0][0]          
________________________________________________________________________________
batch_normalization_226 ( (None, 8)         32       dense_453[0][0]            
________________________________________________________________________________
dense_454 (Dense)         (None, 1)         9        batch_normalization_226[0][
________________________________________________________________________________
input_240 (InputLayer)    [(None, 1)]       0                                   
________________________________________________________________________________
add_17 (Add)              (None, 1)         0        dense_454[0][0]            
                                                     input_240[0][0]            
________________________________________________________________________________
dense_455 (Dense)         (None, 1)         2        add_17[0][0]               
================================================================================
Total params: 1,571
Trainable params: 1,457
Non-trainable params: 114
________________________________________________________________________________


