Model
Model: "model_196"
________________________________________________________________________________
Layer (type)              Output Shape      Param #  Connected to               
================================================================================
input_373 (InputLayer)    [(None, 20)]      0                                   
________________________________________________________________________________
dense_840 (Dense)         (None, 16)        336      input_373[0][0]            
________________________________________________________________________________
batch_normalization_479 ( (None, 16)        64       dense_840[0][0]            
________________________________________________________________________________
dropout_397 (Dropout)     (None, 16)        0        batch_normalization_479[0][
________________________________________________________________________________
dense_841 (Dense)         (None, 32)        544      dropout_397[0][0]          
________________________________________________________________________________
batch_normalization_480 ( (None, 32)        128      dense_841[0][0]            
________________________________________________________________________________
dropout_398 (Dropout)     (None, 32)        0        batch_normalization_480[0][
________________________________________________________________________________
dense_842 (Dense)         (None, 8)         264      dropout_398[0][0]          
________________________________________________________________________________
batch_normalization_481 ( (None, 8)         32       dense_842[0][0]            
________________________________________________________________________________
dropout_399 (Dropout)     (None, 8)         0        batch_normalization_481[0][
________________________________________________________________________________
dense_843 (Dense)         (None, 16)        144      dropout_399[0][0]          
________________________________________________________________________________
batch_normalization_482 ( (None, 16)        64       dense_843[0][0]            
________________________________________________________________________________
dense_844 (Dense)         (None, 1)         17       batch_normalization_482[0][
________________________________________________________________________________
input_374 (InputLayer)    [(None, 1)]       0                                   
________________________________________________________________________________
add_84 (Add)              (None, 1)         0        dense_844[0][0]            
                                                     input_374[0][0]            
________________________________________________________________________________
dense_845 (Dense)         (None, 1)         2        add_84[0][0]               
================================================================================
Total params: 1,595
Trainable params: 1,449
Non-trainable params: 146
________________________________________________________________________________


