Model
Model: "model_169"
________________________________________________________________________________
Layer (type)              Output Shape      Param #  Connected to               
================================================================================
input_319 (InputLayer)    [(None, 20)]      0                                   
________________________________________________________________________________
dense_678 (Dense)         (None, 8)         168      input_319[0][0]            
________________________________________________________________________________
batch_normalization_371 ( (None, 8)         32       dense_678[0][0]            
________________________________________________________________________________
dropout_316 (Dropout)     (None, 8)         0        batch_normalization_371[0][
________________________________________________________________________________
dense_679 (Dense)         (None, 8)         72       dropout_316[0][0]          
________________________________________________________________________________
batch_normalization_372 ( (None, 8)         32       dense_679[0][0]            
________________________________________________________________________________
dropout_317 (Dropout)     (None, 8)         0        batch_normalization_372[0][
________________________________________________________________________________
dense_680 (Dense)         (None, 16)        144      dropout_317[0][0]          
________________________________________________________________________________
batch_normalization_373 ( (None, 16)        64       dense_680[0][0]            
________________________________________________________________________________
dropout_318 (Dropout)     (None, 16)        0        batch_normalization_373[0][
________________________________________________________________________________
dense_681 (Dense)         (None, 8)         136      dropout_318[0][0]          
________________________________________________________________________________
batch_normalization_374 ( (None, 8)         32       dense_681[0][0]            
________________________________________________________________________________
dense_682 (Dense)         (None, 1)         9        batch_normalization_374[0][
________________________________________________________________________________
input_320 (InputLayer)    [(None, 1)]       0                                   
________________________________________________________________________________
add_57 (Add)              (None, 1)         0        dense_682[0][0]            
                                                     input_320[0][0]            
________________________________________________________________________________
dense_683 (Dense)         (None, 1)         2        add_57[0][0]               
================================================================================
Total params: 691
Trainable params: 609
Non-trainable params: 82
________________________________________________________________________________


