Model
Model: "model_88"
________________________________________________________________________________
Layer (type)              Output Shape      Param #  Connected to               
================================================================================
input_157 (InputLayer)    [(None, 20)]      0                                   
________________________________________________________________________________
dense_270 (Dense)         (None, 8)         168      input_157[0][0]            
________________________________________________________________________________
batch_normalization_125 ( (None, 8)         32       dense_270[0][0]            
________________________________________________________________________________
dropout_127 (Dropout)     (None, 8)         0        batch_normalization_125[0][
________________________________________________________________________________
dense_271 (Dense)         (None, 8)         72       dropout_127[0][0]          
________________________________________________________________________________
batch_normalization_126 ( (None, 8)         32       dense_271[0][0]            
________________________________________________________________________________
dropout_128 (Dropout)     (None, 8)         0        batch_normalization_126[0][
________________________________________________________________________________
dense_272 (Dense)         (None, 1)         9        dropout_128[0][0]          
________________________________________________________________________________
input_158 (InputLayer)    [(None, 1)]       0                                   
________________________________________________________________________________
Add (Add)                 (None, 1)         0        dense_272[0][0]            
                                                     input_158[0][0]            
________________________________________________________________________________
dense_273 (Dense)         (None, 1)         2        Add[0][0]                  
================================================================================
Total params: 315
Trainable params: 281
Non-trainable params: 34
________________________________________________________________________________


