Model
Model: "model_198"
________________________________________________________________________________
Layer (type)              Output Shape      Param #  Connected to               
================================================================================
input_377 (InputLayer)    [(None, 20)]      0                                   
________________________________________________________________________________
dense_852 (Dense)         (None, 16)        336      input_377[0][0]            
________________________________________________________________________________
batch_normalization_487 ( (None, 16)        64       dense_852[0][0]            
________________________________________________________________________________
dropout_403 (Dropout)     (None, 16)        0        batch_normalization_487[0][
________________________________________________________________________________
dense_853 (Dense)         (None, 16)        272      dropout_403[0][0]          
________________________________________________________________________________
batch_normalization_488 ( (None, 16)        64       dense_853[0][0]            
________________________________________________________________________________
dropout_404 (Dropout)     (None, 16)        0        batch_normalization_488[0][
________________________________________________________________________________
dense_854 (Dense)         (None, 16)        272      dropout_404[0][0]          
________________________________________________________________________________
batch_normalization_489 ( (None, 16)        64       dense_854[0][0]            
________________________________________________________________________________
dropout_405 (Dropout)     (None, 16)        0        batch_normalization_489[0][
________________________________________________________________________________
dense_855 (Dense)         (None, 16)        272      dropout_405[0][0]          
________________________________________________________________________________
batch_normalization_490 ( (None, 16)        64       dense_855[0][0]            
________________________________________________________________________________
dense_856 (Dense)         (None, 1)         17       batch_normalization_490[0][
________________________________________________________________________________
input_378 (InputLayer)    [(None, 1)]       0                                   
________________________________________________________________________________
add_86 (Add)              (None, 1)         0        dense_856[0][0]            
                                                     input_378[0][0]            
________________________________________________________________________________
dense_857 (Dense)         (None, 1)         2        add_86[0][0]               
================================================================================
Total params: 1,427
Trainable params: 1,297
Non-trainable params: 130
________________________________________________________________________________


