Model
Model: "model_2"
________________________________________________________________________________
Layer (type)              Output Shape      Param #  Connected to               
================================================================================
input_5 (InputLayer)      [(None, 20)]      0                                   
________________________________________________________________________________
dense_8 (Dense)           (None, 64)        1344     input_5[0][0]              
________________________________________________________________________________
batch_normalization_4 (Ba (None, 64)        256      dense_8[0][0]              
________________________________________________________________________________
dropout_4 (Dropout)       (None, 64)        0        batch_normalization_4[0][0]
________________________________________________________________________________
dense_9 (Dense)           (None, 16)        1040     dropout_4[0][0]            
________________________________________________________________________________
batch_normalization_5 (Ba (None, 16)        64       dense_9[0][0]              
________________________________________________________________________________
dropout_5 (Dropout)       (None, 16)        0        batch_normalization_5[0][0]
________________________________________________________________________________
dense_10 (Dense)          (None, 1)         17       dropout_5[0][0]            
________________________________________________________________________________
input_6 (InputLayer)      [(None, 1)]       0                                   
________________________________________________________________________________
Add (Add)                 (None, 1)         0        dense_10[0][0]             
                                                     input_6[0][0]              
________________________________________________________________________________
dense_11 (Dense)          (None, 1)         2        Add[0][0]                  
================================================================================
Total params: 2,723
Trainable params: 2,561
Non-trainable params: 162
________________________________________________________________________________


