Model
Model: "model_53"
________________________________________________________________________________
Layer (type)              Output Shape      Param #  Connected to               
================================================================================
input_87 (InputLayer)     [(None, 20)]      0                                   
________________________________________________________________________________
dense_130 (Dense)         (None, 16)        336      input_87[0][0]             
________________________________________________________________________________
batch_normalization_55 (B (None, 16)        64       dense_130[0][0]            
________________________________________________________________________________
dropout_57 (Dropout)      (None, 16)        0        batch_normalization_55[0][0
________________________________________________________________________________
dense_131 (Dense)         (None, 8)         136      dropout_57[0][0]           
________________________________________________________________________________
batch_normalization_56 (B (None, 8)         32       dense_131[0][0]            
________________________________________________________________________________
dropout_58 (Dropout)      (None, 8)         0        batch_normalization_56[0][0
________________________________________________________________________________
dense_132 (Dense)         (None, 1)         9        dropout_58[0][0]           
________________________________________________________________________________
input_88 (InputLayer)     [(None, 1)]       0                                   
________________________________________________________________________________
Add (Add)                 (None, 1)         0        dense_132[0][0]            
                                                     input_88[0][0]             
________________________________________________________________________________
dense_133 (Dense)         (None, 1)         2        Add[0][0]                  
================================================================================
Total params: 579
Trainable params: 529
Non-trainable params: 50
________________________________________________________________________________


