Model
Model: "model_177"
________________________________________________________________________________
Layer (type)              Output Shape      Param #  Connected to               
================================================================================
input_335 (InputLayer)    [(None, 20)]      0                                   
________________________________________________________________________________
dense_726 (Dense)         (None, 8)         168      input_335[0][0]            
________________________________________________________________________________
batch_normalization_403 ( (None, 8)         32       dense_726[0][0]            
________________________________________________________________________________
dropout_340 (Dropout)     (None, 8)         0        batch_normalization_403[0][
________________________________________________________________________________
dense_727 (Dense)         (None, 32)        288      dropout_340[0][0]          
________________________________________________________________________________
batch_normalization_404 ( (None, 32)        128      dense_727[0][0]            
________________________________________________________________________________
dropout_341 (Dropout)     (None, 32)        0        batch_normalization_404[0][
________________________________________________________________________________
dense_728 (Dense)         (None, 16)        528      dropout_341[0][0]          
________________________________________________________________________________
batch_normalization_405 ( (None, 16)        64       dense_728[0][0]            
________________________________________________________________________________
dropout_342 (Dropout)     (None, 16)        0        batch_normalization_405[0][
________________________________________________________________________________
dense_729 (Dense)         (None, 16)        272      dropout_342[0][0]          
________________________________________________________________________________
batch_normalization_406 ( (None, 16)        64       dense_729[0][0]            
________________________________________________________________________________
dense_730 (Dense)         (None, 1)         17       batch_normalization_406[0][
________________________________________________________________________________
input_336 (InputLayer)    [(None, 1)]       0                                   
________________________________________________________________________________
add_65 (Add)              (None, 1)         0        dense_730[0][0]            
                                                     input_336[0][0]            
________________________________________________________________________________
dense_731 (Dense)         (None, 1)         2        add_65[0][0]               
================================================================================
Total params: 1,563
Trainable params: 1,417
Non-trainable params: 146
________________________________________________________________________________


