Model
Model: "model_144"
________________________________________________________________________________
Layer (type)              Output Shape      Param #  Connected to               
================================================================================
input_269 (InputLayer)    [(None, 20)]      0                                   
________________________________________________________________________________
dense_528 (Dense)         (None, 16)        336      input_269[0][0]            
________________________________________________________________________________
batch_normalization_271 ( (None, 16)        64       dense_528[0][0]            
________________________________________________________________________________
dropout_241 (Dropout)     (None, 16)        0        batch_normalization_271[0][
________________________________________________________________________________
dense_529 (Dense)         (None, 16)        272      dropout_241[0][0]          
________________________________________________________________________________
batch_normalization_272 ( (None, 16)        64       dense_529[0][0]            
________________________________________________________________________________
dropout_242 (Dropout)     (None, 16)        0        batch_normalization_272[0][
________________________________________________________________________________
dense_530 (Dense)         (None, 8)         136      dropout_242[0][0]          
________________________________________________________________________________
batch_normalization_273 ( (None, 8)         32       dense_530[0][0]            
________________________________________________________________________________
dropout_243 (Dropout)     (None, 8)         0        batch_normalization_273[0][
________________________________________________________________________________
dense_531 (Dense)         (None, 8)         72       dropout_243[0][0]          
________________________________________________________________________________
batch_normalization_274 ( (None, 8)         32       dense_531[0][0]            
________________________________________________________________________________
dense_532 (Dense)         (None, 1)         9        batch_normalization_274[0][
________________________________________________________________________________
input_270 (InputLayer)    [(None, 1)]       0                                   
________________________________________________________________________________
add_32 (Add)              (None, 1)         0        dense_532[0][0]            
                                                     input_270[0][0]            
________________________________________________________________________________
dense_533 (Dense)         (None, 1)         2        add_32[0][0]               
================================================================================
Total params: 1,019
Trainable params: 921
Non-trainable params: 98
________________________________________________________________________________


