Model
Model: "model_199"
________________________________________________________________________________
Layer (type)              Output Shape      Param #  Connected to               
================================================================================
input_379 (InputLayer)    [(None, 20)]      0                                   
________________________________________________________________________________
dense_858 (Dense)         (None, 16)        336      input_379[0][0]            
________________________________________________________________________________
batch_normalization_491 ( (None, 16)        64       dense_858[0][0]            
________________________________________________________________________________
dropout_406 (Dropout)     (None, 16)        0        batch_normalization_491[0][
________________________________________________________________________________
dense_859 (Dense)         (None, 16)        272      dropout_406[0][0]          
________________________________________________________________________________
batch_normalization_492 ( (None, 16)        64       dense_859[0][0]            
________________________________________________________________________________
dropout_407 (Dropout)     (None, 16)        0        batch_normalization_492[0][
________________________________________________________________________________
dense_860 (Dense)         (None, 16)        272      dropout_407[0][0]          
________________________________________________________________________________
batch_normalization_493 ( (None, 16)        64       dense_860[0][0]            
________________________________________________________________________________
dropout_408 (Dropout)     (None, 16)        0        batch_normalization_493[0][
________________________________________________________________________________
dense_861 (Dense)         (None, 16)        272      dropout_408[0][0]          
________________________________________________________________________________
batch_normalization_494 ( (None, 16)        64       dense_861[0][0]            
________________________________________________________________________________
dense_862 (Dense)         (None, 1)         17       batch_normalization_494[0][
________________________________________________________________________________
input_380 (InputLayer)    [(None, 1)]       0                                   
________________________________________________________________________________
add_87 (Add)              (None, 1)         0        dense_862[0][0]            
                                                     input_380[0][0]            
________________________________________________________________________________
dense_863 (Dense)         (None, 1)         2        add_87[0][0]               
================================================================================
Total params: 1,427
Trainable params: 1,297
Non-trainable params: 130
________________________________________________________________________________


