Model
Model: "model_87"
________________________________________________________________________________
Layer (type)              Output Shape      Param #  Connected to               
================================================================================
input_155 (InputLayer)    [(None, 20)]      0                                   
________________________________________________________________________________
dense_266 (Dense)         (None, 8)         168      input_155[0][0]            
________________________________________________________________________________
batch_normalization_123 ( (None, 8)         32       dense_266[0][0]            
________________________________________________________________________________
dropout_125 (Dropout)     (None, 8)         0        batch_normalization_123[0][
________________________________________________________________________________
dense_267 (Dense)         (None, 8)         72       dropout_125[0][0]          
________________________________________________________________________________
batch_normalization_124 ( (None, 8)         32       dense_267[0][0]            
________________________________________________________________________________
dropout_126 (Dropout)     (None, 8)         0        batch_normalization_124[0][
________________________________________________________________________________
dense_268 (Dense)         (None, 1)         9        dropout_126[0][0]          
________________________________________________________________________________
input_156 (InputLayer)    [(None, 1)]       0                                   
________________________________________________________________________________
Add (Add)                 (None, 1)         0        dense_268[0][0]            
                                                     input_156[0][0]            
________________________________________________________________________________
dense_269 (Dense)         (None, 1)         2        Add[0][0]                  
================================================================================
Total params: 315
Trainable params: 281
Non-trainable params: 34
________________________________________________________________________________


