Model
Model: "model"
________________________________________________________________________________
Layer (type)              Output Shape      Param #  Connected to               
================================================================================
input_1 (InputLayer)      [(None, 20)]      0                                   
________________________________________________________________________________
dense (Dense)             (None, 16)        336      input_1[0][0]              
________________________________________________________________________________
batch_normalization (Batc (None, 16)        64       dense[0][0]                
________________________________________________________________________________
dropout (Dropout)         (None, 16)        0        batch_normalization[0][0]  
________________________________________________________________________________
dense_1 (Dense)           (None, 16)        272      dropout[0][0]              
________________________________________________________________________________
batch_normalization_1 (Ba (None, 16)        64       dense_1[0][0]              
________________________________________________________________________________
dropout_1 (Dropout)       (None, 16)        0        batch_normalization_1[0][0]
________________________________________________________________________________
dense_2 (Dense)           (None, 1)         17       dropout_1[0][0]            
________________________________________________________________________________
input_2 (InputLayer)      [(None, 1)]       0                                   
________________________________________________________________________________
Add (Add)                 (None, 1)         0        dense_2[0][0]              
                                                     input_2[0][0]              
________________________________________________________________________________
dense_3 (Dense)           (None, 1)         2        Add[0][0]                  
================================================================================
Total params: 755
Trainable params: 689
Non-trainable params: 66
________________________________________________________________________________


