Model
Model: "model_137"
________________________________________________________________________________
Layer (type)              Output Shape      Param #  Connected to               
================================================================================
input_255 (InputLayer)    [(None, 20)]      0                                   
________________________________________________________________________________
dense_491 (Dense)         (None, 32)        672      input_255[0][0]            
________________________________________________________________________________
batch_normalization_248 ( (None, 32)        128      dense_491[0][0]            
________________________________________________________________________________
dropout_225 (Dropout)     (None, 32)        0        batch_normalization_248[0][
________________________________________________________________________________
dense_492 (Dense)         (None, 16)        528      dropout_225[0][0]          
________________________________________________________________________________
batch_normalization_249 ( (None, 16)        64       dense_492[0][0]            
________________________________________________________________________________
dropout_226 (Dropout)     (None, 16)        0        batch_normalization_249[0][
________________________________________________________________________________
dense_493 (Dense)         (None, 8)         136      dropout_226[0][0]          
________________________________________________________________________________
batch_normalization_250 ( (None, 8)         32       dense_493[0][0]            
________________________________________________________________________________
dense_494 (Dense)         (None, 1)         9        batch_normalization_250[0][
________________________________________________________________________________
input_256 (InputLayer)    [(None, 1)]       0                                   
________________________________________________________________________________
add_25 (Add)              (None, 1)         0        dense_494[0][0]            
                                                     input_256[0][0]            
________________________________________________________________________________
dense_495 (Dense)         (None, 1)         2        add_25[0][0]               
================================================================================
Total params: 1,571
Trainable params: 1,457
Non-trainable params: 114
________________________________________________________________________________


