Model
Model: "model_73"
________________________________________________________________________________
Layer (type)              Output Shape      Param #  Connected to               
================================================================================
input_127 (InputLayer)    [(None, 20)]      0                                   
________________________________________________________________________________
dense_210 (Dense)         (None, 8)         168      input_127[0][0]            
________________________________________________________________________________
batch_normalization_95 (B (None, 8)         32       dense_210[0][0]            
________________________________________________________________________________
dropout_97 (Dropout)      (None, 8)         0        batch_normalization_95[0][0
________________________________________________________________________________
dense_211 (Dense)         (None, 8)         72       dropout_97[0][0]           
________________________________________________________________________________
batch_normalization_96 (B (None, 8)         32       dense_211[0][0]            
________________________________________________________________________________
dropout_98 (Dropout)      (None, 8)         0        batch_normalization_96[0][0
________________________________________________________________________________
dense_212 (Dense)         (None, 1)         9        dropout_98[0][0]           
________________________________________________________________________________
input_128 (InputLayer)    [(None, 1)]       0                                   
________________________________________________________________________________
Add (Add)                 (None, 1)         0        dense_212[0][0]            
                                                     input_128[0][0]            
________________________________________________________________________________
dense_213 (Dense)         (None, 1)         2        Add[0][0]                  
================================================================================
Total params: 315
Trainable params: 281
Non-trainable params: 34
________________________________________________________________________________


