Model
Model: "model_76"
________________________________________________________________________________
Layer (type)              Output Shape      Param #  Connected to               
================================================================================
input_133 (InputLayer)    [(None, 20)]      0                                   
________________________________________________________________________________
dense_222 (Dense)         (None, 8)         168      input_133[0][0]            
________________________________________________________________________________
batch_normalization_101 ( (None, 8)         32       dense_222[0][0]            
________________________________________________________________________________
dropout_103 (Dropout)     (None, 8)         0        batch_normalization_101[0][
________________________________________________________________________________
dense_223 (Dense)         (None, 8)         72       dropout_103[0][0]          
________________________________________________________________________________
batch_normalization_102 ( (None, 8)         32       dense_223[0][0]            
________________________________________________________________________________
dropout_104 (Dropout)     (None, 8)         0        batch_normalization_102[0][
________________________________________________________________________________
dense_224 (Dense)         (None, 1)         9        dropout_104[0][0]          
________________________________________________________________________________
input_134 (InputLayer)    [(None, 1)]       0                                   
________________________________________________________________________________
Add (Add)                 (None, 1)         0        dense_224[0][0]            
                                                     input_134[0][0]            
________________________________________________________________________________
dense_225 (Dense)         (None, 1)         2        Add[0][0]                  
================================================================================
Total params: 315
Trainable params: 281
Non-trainable params: 34
________________________________________________________________________________


