Model
Model: "model_62"
________________________________________________________________________________
Layer (type)              Output Shape      Param #  Connected to               
================================================================================
input_105 (InputLayer)    [(None, 20)]      0                                   
________________________________________________________________________________
dense_166 (Dense)         (None, 32)        672      input_105[0][0]            
________________________________________________________________________________
batch_normalization_73 (B (None, 32)        128      dense_166[0][0]            
________________________________________________________________________________
dropout_75 (Dropout)      (None, 32)        0        batch_normalization_73[0][0
________________________________________________________________________________
dense_167 (Dense)         (None, 32)        1056     dropout_75[0][0]           
________________________________________________________________________________
batch_normalization_74 (B (None, 32)        128      dense_167[0][0]            
________________________________________________________________________________
dropout_76 (Dropout)      (None, 32)        0        batch_normalization_74[0][0
________________________________________________________________________________
dense_168 (Dense)         (None, 1)         33       dropout_76[0][0]           
________________________________________________________________________________
input_106 (InputLayer)    [(None, 1)]       0                                   
________________________________________________________________________________
Add (Add)                 (None, 1)         0        dense_168[0][0]            
                                                     input_106[0][0]            
________________________________________________________________________________
dense_169 (Dense)         (None, 1)         2        Add[0][0]                  
================================================================================
Total params: 2,019
Trainable params: 1,889
Non-trainable params: 130
________________________________________________________________________________


