Model
Model: "model_184"
________________________________________________________________________________
Layer (type)              Output Shape      Param #  Connected to               
================================================================================
input_349 (InputLayer)    [(None, 20)]      0                                   
________________________________________________________________________________
dense_768 (Dense)         (None, 16)        336      input_349[0][0]            
________________________________________________________________________________
batch_normalization_431 ( (None, 16)        64       dense_768[0][0]            
________________________________________________________________________________
dropout_361 (Dropout)     (None, 16)        0        batch_normalization_431[0][
________________________________________________________________________________
dense_769 (Dense)         (None, 16)        272      dropout_361[0][0]          
________________________________________________________________________________
batch_normalization_432 ( (None, 16)        64       dense_769[0][0]            
________________________________________________________________________________
dropout_362 (Dropout)     (None, 16)        0        batch_normalization_432[0][
________________________________________________________________________________
dense_770 (Dense)         (None, 16)        272      dropout_362[0][0]          
________________________________________________________________________________
batch_normalization_433 ( (None, 16)        64       dense_770[0][0]            
________________________________________________________________________________
dropout_363 (Dropout)     (None, 16)        0        batch_normalization_433[0][
________________________________________________________________________________
dense_771 (Dense)         (None, 16)        272      dropout_363[0][0]          
________________________________________________________________________________
batch_normalization_434 ( (None, 16)        64       dense_771[0][0]            
________________________________________________________________________________
dense_772 (Dense)         (None, 1)         17       batch_normalization_434[0][
________________________________________________________________________________
input_350 (InputLayer)    [(None, 1)]       0                                   
________________________________________________________________________________
add_72 (Add)              (None, 1)         0        dense_772[0][0]            
                                                     input_350[0][0]            
________________________________________________________________________________
dense_773 (Dense)         (None, 1)         2        add_72[0][0]               
================================================================================
Total params: 1,427
Trainable params: 1,297
Non-trainable params: 130
________________________________________________________________________________


