Model
Model: "model_50"
________________________________________________________________________________
Layer (type)              Output Shape      Param #  Connected to               
================================================================================
input_101 (InputLayer)    [(None, 20)]      0                                   
________________________________________________________________________________
dense_201 (Dense)         (None, 32)        672      input_101[0][0]            
________________________________________________________________________________
batch_normalization_101 ( (None, 32)        128      dense_201[0][0]            
________________________________________________________________________________
dropout_100 (Dropout)     (None, 32)        0        batch_normalization_101[0][
________________________________________________________________________________
dense_202 (Dense)         (None, 64)        2112     dropout_100[0][0]          
________________________________________________________________________________
batch_normalization_102 ( (None, 64)        256      dense_202[0][0]            
________________________________________________________________________________
dropout_101 (Dropout)     (None, 64)        0        batch_normalization_102[0][
________________________________________________________________________________
dense_203 (Dense)         (None, 16)        1040     dropout_101[0][0]          
________________________________________________________________________________
batch_normalization_103 ( (None, 16)        64       dense_203[0][0]            
________________________________________________________________________________
dense_204 (Dense)         (None, 1)         17       batch_normalization_103[0][
________________________________________________________________________________
input_102 (InputLayer)    [(None, 1)]       0                                   
________________________________________________________________________________
add_1 (Add)               (None, 1)         0        dense_204[0][0]            
                                                     input_102[0][0]            
________________________________________________________________________________
dense_205 (Dense)         (None, 1)         2        add_1[0][0]                
================================================================================
Total params: 4,291
Trainable params: 4,065
Non-trainable params: 226
________________________________________________________________________________


