Model
Model: "model_85"
________________________________________________________________________________
Layer (type)              Output Shape      Param #  Connected to               
================================================================================
input_151 (InputLayer)    [(None, 20)]      0                                   
________________________________________________________________________________
dense_258 (Dense)         (None, 8)         168      input_151[0][0]            
________________________________________________________________________________
batch_normalization_119 ( (None, 8)         32       dense_258[0][0]            
________________________________________________________________________________
dropout_121 (Dropout)     (None, 8)         0        batch_normalization_119[0][
________________________________________________________________________________
dense_259 (Dense)         (None, 8)         72       dropout_121[0][0]          
________________________________________________________________________________
batch_normalization_120 ( (None, 8)         32       dense_259[0][0]            
________________________________________________________________________________
dropout_122 (Dropout)     (None, 8)         0        batch_normalization_120[0][
________________________________________________________________________________
dense_260 (Dense)         (None, 1)         9        dropout_122[0][0]          
________________________________________________________________________________
input_152 (InputLayer)    [(None, 1)]       0                                   
________________________________________________________________________________
Add (Add)                 (None, 1)         0        dense_260[0][0]            
                                                     input_152[0][0]            
________________________________________________________________________________
dense_261 (Dense)         (None, 1)         2        Add[0][0]                  
================================================================================
Total params: 315
Trainable params: 281
Non-trainable params: 34
________________________________________________________________________________


