Model
Model: "model_104"
________________________________________________________________________________
Layer (type)              Output Shape      Param #  Connected to               
================================================================================
input_189 (InputLayer)    [(None, 20)]      0                                   
________________________________________________________________________________
dense_334 (Dense)         (None, 32)        672      input_189[0][0]            
________________________________________________________________________________
batch_normalization_157 ( (None, 32)        128      dense_334[0][0]            
________________________________________________________________________________
dropout_159 (Dropout)     (None, 32)        0        batch_normalization_157[0][
________________________________________________________________________________
dense_335 (Dense)         (None, 16)        528      dropout_159[0][0]          
________________________________________________________________________________
batch_normalization_158 ( (None, 16)        64       dense_335[0][0]            
________________________________________________________________________________
dropout_160 (Dropout)     (None, 16)        0        batch_normalization_158[0][
________________________________________________________________________________
dense_336 (Dense)         (None, 1)         17       dropout_160[0][0]          
________________________________________________________________________________
input_190 (InputLayer)    [(None, 1)]       0                                   
________________________________________________________________________________
Add (Add)                 (None, 1)         0        dense_336[0][0]            
                                                     input_190[0][0]            
________________________________________________________________________________
dense_337 (Dense)         (None, 1)         2        Add[0][0]                  
================================================================================
Total params: 1,411
Trainable params: 1,313
Non-trainable params: 98
________________________________________________________________________________


