Model
Model: "model_179"
________________________________________________________________________________
Layer (type)              Output Shape      Param #  Connected to               
================================================================================
input_339 (InputLayer)    [(None, 20)]      0                                   
________________________________________________________________________________
dense_738 (Dense)         (None, 16)        336      input_339[0][0]            
________________________________________________________________________________
batch_normalization_411 ( (None, 16)        64       dense_738[0][0]            
________________________________________________________________________________
dropout_346 (Dropout)     (None, 16)        0        batch_normalization_411[0][
________________________________________________________________________________
dense_739 (Dense)         (None, 16)        272      dropout_346[0][0]          
________________________________________________________________________________
batch_normalization_412 ( (None, 16)        64       dense_739[0][0]            
________________________________________________________________________________
dropout_347 (Dropout)     (None, 16)        0        batch_normalization_412[0][
________________________________________________________________________________
dense_740 (Dense)         (None, 16)        272      dropout_347[0][0]          
________________________________________________________________________________
batch_normalization_413 ( (None, 16)        64       dense_740[0][0]            
________________________________________________________________________________
dropout_348 (Dropout)     (None, 16)        0        batch_normalization_413[0][
________________________________________________________________________________
dense_741 (Dense)         (None, 16)        272      dropout_348[0][0]          
________________________________________________________________________________
batch_normalization_414 ( (None, 16)        64       dense_741[0][0]            
________________________________________________________________________________
dense_742 (Dense)         (None, 1)         17       batch_normalization_414[0][
________________________________________________________________________________
input_340 (InputLayer)    [(None, 1)]       0                                   
________________________________________________________________________________
add_67 (Add)              (None, 1)         0        dense_742[0][0]            
                                                     input_340[0][0]            
________________________________________________________________________________
dense_743 (Dense)         (None, 1)         2        add_67[0][0]               
================================================================================
Total params: 1,427
Trainable params: 1,297
Non-trainable params: 130
________________________________________________________________________________


