Model
Model: "model_131"
________________________________________________________________________________
Layer (type)              Output Shape      Param #  Connected to               
================================================================================
input_243 (InputLayer)    [(None, 20)]      0                                   
________________________________________________________________________________
dense_461 (Dense)         (None, 32)        672      input_243[0][0]            
________________________________________________________________________________
batch_normalization_230 ( (None, 32)        128      dense_461[0][0]            
________________________________________________________________________________
dropout_213 (Dropout)     (None, 32)        0        batch_normalization_230[0][
________________________________________________________________________________
dense_462 (Dense)         (None, 16)        528      dropout_213[0][0]          
________________________________________________________________________________
batch_normalization_231 ( (None, 16)        64       dense_462[0][0]            
________________________________________________________________________________
dropout_214 (Dropout)     (None, 16)        0        batch_normalization_231[0][
________________________________________________________________________________
dense_463 (Dense)         (None, 8)         136      dropout_214[0][0]          
________________________________________________________________________________
batch_normalization_232 ( (None, 8)         32       dense_463[0][0]            
________________________________________________________________________________
dense_464 (Dense)         (None, 1)         9        batch_normalization_232[0][
________________________________________________________________________________
input_244 (InputLayer)    [(None, 1)]       0                                   
________________________________________________________________________________
add_19 (Add)              (None, 1)         0        dense_464[0][0]            
                                                     input_244[0][0]            
________________________________________________________________________________
dense_465 (Dense)         (None, 1)         2        add_19[0][0]               
================================================================================
Total params: 1,571
Trainable params: 1,457
Non-trainable params: 114
________________________________________________________________________________


