Model
Model: "model_35"
________________________________________________________________________________
Layer (type)              Output Shape      Param #  Connected to               
================================================================================
input_71 (InputLayer)     [(None, 20)]      0                                   
________________________________________________________________________________
dense_140 (Dense)         (None, 32)        672      input_71[0][0]             
________________________________________________________________________________
batch_normalization_70 (B (None, 32)        128      dense_140[0][0]            
________________________________________________________________________________
dropout_70 (Dropout)      (None, 32)        0        batch_normalization_70[0][0
________________________________________________________________________________
dense_141 (Dense)         (None, 16)        528      dropout_70[0][0]           
________________________________________________________________________________
batch_normalization_71 (B (None, 16)        64       dense_141[0][0]            
________________________________________________________________________________
dropout_71 (Dropout)      (None, 16)        0        batch_normalization_71[0][0
________________________________________________________________________________
dense_142 (Dense)         (None, 1)         17       dropout_71[0][0]           
________________________________________________________________________________
input_72 (InputLayer)     [(None, 1)]       0                                   
________________________________________________________________________________
Add (Add)                 (None, 1)         0        dense_142[0][0]            
                                                     input_72[0][0]             
________________________________________________________________________________
dense_143 (Dense)         (None, 1)         2        Add[0][0]                  
================================================================================
Total params: 1,411
Trainable params: 1,313
Non-trainable params: 98
________________________________________________________________________________


