Model
Model: "model_142"
________________________________________________________________________________
Layer (type)              Output Shape      Param #  Connected to               
================================================================================
input_265 (InputLayer)    [(None, 20)]      0                                   
________________________________________________________________________________
dense_516 (Dense)         (None, 16)        336      input_265[0][0]            
________________________________________________________________________________
batch_normalization_263 ( (None, 16)        64       dense_516[0][0]            
________________________________________________________________________________
dropout_235 (Dropout)     (None, 16)        0        batch_normalization_263[0][
________________________________________________________________________________
dense_517 (Dense)         (None, 8)         136      dropout_235[0][0]          
________________________________________________________________________________
batch_normalization_264 ( (None, 8)         32       dense_517[0][0]            
________________________________________________________________________________
dropout_236 (Dropout)     (None, 8)         0        batch_normalization_264[0][
________________________________________________________________________________
dense_518 (Dense)         (None, 8)         72       dropout_236[0][0]          
________________________________________________________________________________
batch_normalization_265 ( (None, 8)         32       dense_518[0][0]            
________________________________________________________________________________
dropout_237 (Dropout)     (None, 8)         0        batch_normalization_265[0][
________________________________________________________________________________
dense_519 (Dense)         (None, 8)         72       dropout_237[0][0]          
________________________________________________________________________________
batch_normalization_266 ( (None, 8)         32       dense_519[0][0]            
________________________________________________________________________________
dense_520 (Dense)         (None, 1)         9        batch_normalization_266[0][
________________________________________________________________________________
input_266 (InputLayer)    [(None, 1)]       0                                   
________________________________________________________________________________
add_30 (Add)              (None, 1)         0        dense_520[0][0]            
                                                     input_266[0][0]            
________________________________________________________________________________
dense_521 (Dense)         (None, 1)         2        add_30[0][0]               
================================================================================
Total params: 787
Trainable params: 705
Non-trainable params: 82
________________________________________________________________________________


