Model
Model: "model_61"
________________________________________________________________________________
Layer (type)              Output Shape      Param #  Connected to               
================================================================================
input_103 (InputLayer)    [(None, 20)]      0                                   
________________________________________________________________________________
dense_162 (Dense)         (None, 16)        336      input_103[0][0]            
________________________________________________________________________________
batch_normalization_71 (B (None, 16)        64       dense_162[0][0]            
________________________________________________________________________________
dropout_73 (Dropout)      (None, 16)        0        batch_normalization_71[0][0
________________________________________________________________________________
dense_163 (Dense)         (None, 32)        544      dropout_73[0][0]           
________________________________________________________________________________
batch_normalization_72 (B (None, 32)        128      dense_163[0][0]            
________________________________________________________________________________
dropout_74 (Dropout)      (None, 32)        0        batch_normalization_72[0][0
________________________________________________________________________________
dense_164 (Dense)         (None, 1)         33       dropout_74[0][0]           
________________________________________________________________________________
input_104 (InputLayer)    [(None, 1)]       0                                   
________________________________________________________________________________
Add (Add)                 (None, 1)         0        dense_164[0][0]            
                                                     input_104[0][0]            
________________________________________________________________________________
dense_165 (Dense)         (None, 1)         2        Add[0][0]                  
================================================================================
Total params: 1,107
Trainable params: 1,009
Non-trainable params: 98
________________________________________________________________________________


