Model
Model: "model_41"
________________________________________________________________________________
Layer (type)              Output Shape      Param #  Connected to               
================================================================================
input_83 (InputLayer)     [(None, 20)]      0                                   
________________________________________________________________________________
dense_164 (Dense)         (None, 32)        672      input_83[0][0]             
________________________________________________________________________________
batch_normalization_82 (B (None, 32)        128      dense_164[0][0]            
________________________________________________________________________________
dropout_82 (Dropout)      (None, 32)        0        batch_normalization_82[0][0
________________________________________________________________________________
dense_165 (Dense)         (None, 16)        528      dropout_82[0][0]           
________________________________________________________________________________
batch_normalization_83 (B (None, 16)        64       dense_165[0][0]            
________________________________________________________________________________
dropout_83 (Dropout)      (None, 16)        0        batch_normalization_83[0][0
________________________________________________________________________________
dense_166 (Dense)         (None, 1)         17       dropout_83[0][0]           
________________________________________________________________________________
input_84 (InputLayer)     [(None, 1)]       0                                   
________________________________________________________________________________
Add (Add)                 (None, 1)         0        dense_166[0][0]            
                                                     input_84[0][0]             
________________________________________________________________________________
dense_167 (Dense)         (None, 1)         2        Add[0][0]                  
================================================================================
Total params: 1,411
Trainable params: 1,313
Non-trainable params: 98
________________________________________________________________________________


