Model
Model: "model_172"
________________________________________________________________________________
Layer (type)              Output Shape      Param #  Connected to               
================================================================================
input_325 (InputLayer)    [(None, 20)]      0                                   
________________________________________________________________________________
dense_696 (Dense)         (None, 8)         168      input_325[0][0]            
________________________________________________________________________________
batch_normalization_383 ( (None, 8)         32       dense_696[0][0]            
________________________________________________________________________________
dropout_325 (Dropout)     (None, 8)         0        batch_normalization_383[0][
________________________________________________________________________________
dense_697 (Dense)         (None, 8)         72       dropout_325[0][0]          
________________________________________________________________________________
batch_normalization_384 ( (None, 8)         32       dense_697[0][0]            
________________________________________________________________________________
dropout_326 (Dropout)     (None, 8)         0        batch_normalization_384[0][
________________________________________________________________________________
dense_698 (Dense)         (None, 8)         72       dropout_326[0][0]          
________________________________________________________________________________
batch_normalization_385 ( (None, 8)         32       dense_698[0][0]            
________________________________________________________________________________
dropout_327 (Dropout)     (None, 8)         0        batch_normalization_385[0][
________________________________________________________________________________
dense_699 (Dense)         (None, 16)        144      dropout_327[0][0]          
________________________________________________________________________________
batch_normalization_386 ( (None, 16)        64       dense_699[0][0]            
________________________________________________________________________________
dense_700 (Dense)         (None, 1)         17       batch_normalization_386[0][
________________________________________________________________________________
input_326 (InputLayer)    [(None, 1)]       0                                   
________________________________________________________________________________
add_60 (Add)              (None, 1)         0        dense_700[0][0]            
                                                     input_326[0][0]            
________________________________________________________________________________
dense_701 (Dense)         (None, 1)         2        add_60[0][0]               
================================================================================
Total params: 635
Trainable params: 553
Non-trainable params: 82
________________________________________________________________________________


