Model
Model: "model_95"
________________________________________________________________________________
Layer (type)              Output Shape      Param #  Connected to               
================================================================================
input_171 (InputLayer)    [(None, 20)]      0                                   
________________________________________________________________________________
dense_298 (Dense)         (None, 8)         168      input_171[0][0]            
________________________________________________________________________________
batch_normalization_139 ( (None, 8)         32       dense_298[0][0]            
________________________________________________________________________________
dropout_141 (Dropout)     (None, 8)         0        batch_normalization_139[0][
________________________________________________________________________________
dense_299 (Dense)         (None, 8)         72       dropout_141[0][0]          
________________________________________________________________________________
batch_normalization_140 ( (None, 8)         32       dense_299[0][0]            
________________________________________________________________________________
dropout_142 (Dropout)     (None, 8)         0        batch_normalization_140[0][
________________________________________________________________________________
dense_300 (Dense)         (None, 1)         9        dropout_142[0][0]          
________________________________________________________________________________
input_172 (InputLayer)    [(None, 1)]       0                                   
________________________________________________________________________________
Add (Add)                 (None, 1)         0        dense_300[0][0]            
                                                     input_172[0][0]            
________________________________________________________________________________
dense_301 (Dense)         (None, 1)         2        Add[0][0]                  
================================================================================
Total params: 315
Trainable params: 281
Non-trainable params: 34
________________________________________________________________________________


