Model
Model: "model_166"
________________________________________________________________________________
Layer (type)              Output Shape      Param #  Connected to               
================================================================================
input_313 (InputLayer)    [(None, 20)]      0                                   
________________________________________________________________________________
dense_660 (Dense)         (None, 8)         168      input_313[0][0]            
________________________________________________________________________________
batch_normalization_359 ( (None, 8)         32       dense_660[0][0]            
________________________________________________________________________________
dropout_307 (Dropout)     (None, 8)         0        batch_normalization_359[0][
________________________________________________________________________________
dense_661 (Dense)         (None, 8)         72       dropout_307[0][0]          
________________________________________________________________________________
batch_normalization_360 ( (None, 8)         32       dense_661[0][0]            
________________________________________________________________________________
dropout_308 (Dropout)     (None, 8)         0        batch_normalization_360[0][
________________________________________________________________________________
dense_662 (Dense)         (None, 8)         72       dropout_308[0][0]          
________________________________________________________________________________
batch_normalization_361 ( (None, 8)         32       dense_662[0][0]            
________________________________________________________________________________
dropout_309 (Dropout)     (None, 8)         0        batch_normalization_361[0][
________________________________________________________________________________
dense_663 (Dense)         (None, 8)         72       dropout_309[0][0]          
________________________________________________________________________________
batch_normalization_362 ( (None, 8)         32       dense_663[0][0]            
________________________________________________________________________________
dense_664 (Dense)         (None, 1)         9        batch_normalization_362[0][
________________________________________________________________________________
input_314 (InputLayer)    [(None, 1)]       0                                   
________________________________________________________________________________
add_54 (Add)              (None, 1)         0        dense_664[0][0]            
                                                     input_314[0][0]            
________________________________________________________________________________
dense_665 (Dense)         (None, 1)         2        add_54[0][0]               
================================================================================
Total params: 523
Trainable params: 457
Non-trainable params: 66
________________________________________________________________________________


