Model
Model: "model_116"
________________________________________________________________________________
Layer (type)              Output Shape      Param #  Connected to               
================================================================================
input_213 (InputLayer)    [(None, 20)]      0                                   
________________________________________________________________________________
dense_386 (Dense)         (None, 16)        336      input_213[0][0]            
________________________________________________________________________________
batch_normalization_185 ( (None, 16)        64       dense_386[0][0]            
________________________________________________________________________________
dropout_183 (Dropout)     (None, 16)        0        batch_normalization_185[0][
________________________________________________________________________________
dense_387 (Dense)         (None, 16)        272      dropout_183[0][0]          
________________________________________________________________________________
batch_normalization_186 ( (None, 16)        64       dense_387[0][0]            
________________________________________________________________________________
dropout_184 (Dropout)     (None, 16)        0        batch_normalization_186[0][
________________________________________________________________________________
dense_388 (Dense)         (None, 8)         136      dropout_184[0][0]          
________________________________________________________________________________
batch_normalization_187 ( (None, 8)         32       dense_388[0][0]            
________________________________________________________________________________
dense_389 (Dense)         (None, 1)         9        batch_normalization_187[0][
________________________________________________________________________________
input_214 (InputLayer)    [(None, 1)]       0                                   
________________________________________________________________________________
add_4 (Add)               (None, 1)         0        dense_389[0][0]            
                                                     input_214[0][0]            
________________________________________________________________________________
dense_390 (Dense)         (None, 1)         2        add_4[0][0]                
================================================================================
Total params: 915
Trainable params: 833
Non-trainable params: 82
________________________________________________________________________________


