Model
Model: "model_138"
________________________________________________________________________________
Layer (type)              Output Shape      Param #  Connected to               
================================================================================
input_257 (InputLayer)    [(None, 20)]      0                                   
________________________________________________________________________________
dense_496 (Dense)         (None, 8)         168      input_257[0][0]            
________________________________________________________________________________
batch_normalization_251 ( (None, 8)         32       dense_496[0][0]            
________________________________________________________________________________
dropout_227 (Dropout)     (None, 8)         0        batch_normalization_251[0][
________________________________________________________________________________
dense_497 (Dense)         (None, 8)         72       dropout_227[0][0]          
________________________________________________________________________________
batch_normalization_252 ( (None, 8)         32       dense_497[0][0]            
________________________________________________________________________________
dropout_228 (Dropout)     (None, 8)         0        batch_normalization_252[0][
________________________________________________________________________________
dense_498 (Dense)         (None, 8)         72       dropout_228[0][0]          
________________________________________________________________________________
batch_normalization_253 ( (None, 8)         32       dense_498[0][0]            
________________________________________________________________________________
dense_499 (Dense)         (None, 1)         9        batch_normalization_253[0][
________________________________________________________________________________
input_258 (InputLayer)    [(None, 1)]       0                                   
________________________________________________________________________________
add_26 (Add)              (None, 1)         0        dense_499[0][0]            
                                                     input_258[0][0]            
________________________________________________________________________________
dense_500 (Dense)         (None, 1)         2        add_26[0][0]               
================================================================================
Total params: 419
Trainable params: 369
Non-trainable params: 50
________________________________________________________________________________


