Model
Model: "model_149"
________________________________________________________________________________
Layer (type)              Output Shape      Param #  Connected to               
================================================================================
input_279 (InputLayer)    [(None, 20)]      0                                   
________________________________________________________________________________
dense_558 (Dense)         (None, 32)        672      input_279[0][0]            
________________________________________________________________________________
batch_normalization_291 ( (None, 32)        128      dense_558[0][0]            
________________________________________________________________________________
dropout_256 (Dropout)     (None, 32)        0        batch_normalization_291[0][
________________________________________________________________________________
dense_559 (Dense)         (None, 8)         264      dropout_256[0][0]          
________________________________________________________________________________
batch_normalization_292 ( (None, 8)         32       dense_559[0][0]            
________________________________________________________________________________
dropout_257 (Dropout)     (None, 8)         0        batch_normalization_292[0][
________________________________________________________________________________
dense_560 (Dense)         (None, 16)        144      dropout_257[0][0]          
________________________________________________________________________________
batch_normalization_293 ( (None, 16)        64       dense_560[0][0]            
________________________________________________________________________________
dropout_258 (Dropout)     (None, 16)        0        batch_normalization_293[0][
________________________________________________________________________________
dense_561 (Dense)         (None, 8)         136      dropout_258[0][0]          
________________________________________________________________________________
batch_normalization_294 ( (None, 8)         32       dense_561[0][0]            
________________________________________________________________________________
dense_562 (Dense)         (None, 1)         9        batch_normalization_294[0][
________________________________________________________________________________
input_280 (InputLayer)    [(None, 1)]       0                                   
________________________________________________________________________________
add_37 (Add)              (None, 1)         0        dense_562[0][0]            
                                                     input_280[0][0]            
________________________________________________________________________________
dense_563 (Dense)         (None, 1)         2        add_37[0][0]               
================================================================================
Total params: 1,483
Trainable params: 1,353
Non-trainable params: 130
________________________________________________________________________________


