Model
Model: "model_4"
________________________________________________________________________________
Layer (type)              Output Shape      Param #  Connected to               
================================================================================
input_9 (InputLayer)      [(None, 20)]      0                                   
________________________________________________________________________________
dense_24 (Dense)          (None, 256)       5376     input_9[0][0]              
________________________________________________________________________________
batch_normalization_12 (B (None, 256)       1024     dense_24[0][0]             
________________________________________________________________________________
dropout_12 (Dropout)      (None, 256)       0        batch_normalization_12[0][0
________________________________________________________________________________
dense_25 (Dense)          (None, 256)       65792    dropout_12[0][0]           
________________________________________________________________________________
batch_normalization_13 (B (None, 256)       1024     dense_25[0][0]             
________________________________________________________________________________
dropout_13 (Dropout)      (None, 256)       0        batch_normalization_13[0][0
________________________________________________________________________________
dense_26 (Dense)          (None, 256)       65792    dropout_13[0][0]           
________________________________________________________________________________
batch_normalization_14 (B (None, 256)       1024     dense_26[0][0]             
________________________________________________________________________________
dropout_14 (Dropout)      (None, 256)       0        batch_normalization_14[0][0
________________________________________________________________________________
dense_27 (Dense)          (None, 256)       65792    dropout_14[0][0]           
________________________________________________________________________________
dense_28 (Dense)          (None, 1)         257      dense_27[0][0]             
________________________________________________________________________________
input_10 (InputLayer)     [(None, 1)]       0                                   
________________________________________________________________________________
add_4 (Add)               (None, 1)         0        dense_28[0][0]             
                                                     input_10[0][0]             
________________________________________________________________________________
dense_29 (Dense)          (None, 1)         2        add_4[0][0]                
================================================================================
Total params: 206,083
Trainable params: 204,545
Non-trainable params: 1,538
________________________________________________________________________________


