Model
Model: "model_75"
________________________________________________________________________________
Layer (type)              Output Shape      Param #  Connected to               
================================================================================
input_131 (InputLayer)    [(None, 20)]      0                                   
________________________________________________________________________________
dense_218 (Dense)         (None, 8)         168      input_131[0][0]            
________________________________________________________________________________
batch_normalization_99 (B (None, 8)         32       dense_218[0][0]            
________________________________________________________________________________
dropout_101 (Dropout)     (None, 8)         0        batch_normalization_99[0][0
________________________________________________________________________________
dense_219 (Dense)         (None, 8)         72       dropout_101[0][0]          
________________________________________________________________________________
batch_normalization_100 ( (None, 8)         32       dense_219[0][0]            
________________________________________________________________________________
dropout_102 (Dropout)     (None, 8)         0        batch_normalization_100[0][
________________________________________________________________________________
dense_220 (Dense)         (None, 1)         9        dropout_102[0][0]          
________________________________________________________________________________
input_132 (InputLayer)    [(None, 1)]       0                                   
________________________________________________________________________________
Add (Add)                 (None, 1)         0        dense_220[0][0]            
                                                     input_132[0][0]            
________________________________________________________________________________
dense_221 (Dense)         (None, 1)         2        Add[0][0]                  
================================================================================
Total params: 315
Trainable params: 281
Non-trainable params: 34
________________________________________________________________________________


