Model
Model: "model_51"
________________________________________________________________________________
Layer (type)              Output Shape      Param #  Connected to               
================================================================================
input_103 (InputLayer)    [(None, 20)]      0                                   
________________________________________________________________________________
dense_206 (Dense)         (None, 64)        1344     input_103[0][0]            
________________________________________________________________________________
batch_normalization_104 ( (None, 64)        256      dense_206[0][0]            
________________________________________________________________________________
dropout_102 (Dropout)     (None, 64)        0        batch_normalization_104[0][
________________________________________________________________________________
dense_207 (Dense)         (None, 64)        4160     dropout_102[0][0]          
________________________________________________________________________________
batch_normalization_105 ( (None, 64)        256      dense_207[0][0]            
________________________________________________________________________________
dropout_103 (Dropout)     (None, 64)        0        batch_normalization_105[0][
________________________________________________________________________________
dense_208 (Dense)         (None, 16)        1040     dropout_103[0][0]          
________________________________________________________________________________
batch_normalization_106 ( (None, 16)        64       dense_208[0][0]            
________________________________________________________________________________
dense_209 (Dense)         (None, 1)         17       batch_normalization_106[0][
________________________________________________________________________________
input_104 (InputLayer)    [(None, 1)]       0                                   
________________________________________________________________________________
add_2 (Add)               (None, 1)         0        dense_209[0][0]            
                                                     input_104[0][0]            
________________________________________________________________________________
dense_210 (Dense)         (None, 1)         2        add_2[0][0]                
================================================================================
Total params: 7,139
Trainable params: 6,849
Non-trainable params: 290
________________________________________________________________________________


