Model
Model: "model_189"
________________________________________________________________________________
Layer (type)              Output Shape      Param #  Connected to               
================================================================================
input_359 (InputLayer)    [(None, 20)]      0                                   
________________________________________________________________________________
dense_798 (Dense)         (None, 16)        336      input_359[0][0]            
________________________________________________________________________________
batch_normalization_451 ( (None, 16)        64       dense_798[0][0]            
________________________________________________________________________________
dropout_376 (Dropout)     (None, 16)        0        batch_normalization_451[0][
________________________________________________________________________________
dense_799 (Dense)         (None, 32)        544      dropout_376[0][0]          
________________________________________________________________________________
batch_normalization_452 ( (None, 32)        128      dense_799[0][0]            
________________________________________________________________________________
dropout_377 (Dropout)     (None, 32)        0        batch_normalization_452[0][
________________________________________________________________________________
dense_800 (Dense)         (None, 8)         264      dropout_377[0][0]          
________________________________________________________________________________
batch_normalization_453 ( (None, 8)         32       dense_800[0][0]            
________________________________________________________________________________
dropout_378 (Dropout)     (None, 8)         0        batch_normalization_453[0][
________________________________________________________________________________
dense_801 (Dense)         (None, 16)        144      dropout_378[0][0]          
________________________________________________________________________________
batch_normalization_454 ( (None, 16)        64       dense_801[0][0]            
________________________________________________________________________________
dense_802 (Dense)         (None, 1)         17       batch_normalization_454[0][
________________________________________________________________________________
input_360 (InputLayer)    [(None, 1)]       0                                   
________________________________________________________________________________
add_77 (Add)              (None, 1)         0        dense_802[0][0]            
                                                     input_360[0][0]            
________________________________________________________________________________
dense_803 (Dense)         (None, 1)         2        add_77[0][0]               
================================================================================
Total params: 1,595
Trainable params: 1,449
Non-trainable params: 146
________________________________________________________________________________


