Model
Model: "model_143"
________________________________________________________________________________
Layer (type)              Output Shape      Param #  Connected to               
================================================================================
input_267 (InputLayer)    [(None, 20)]      0                                   
________________________________________________________________________________
dense_522 (Dense)         (None, 32)        672      input_267[0][0]            
________________________________________________________________________________
batch_normalization_267 ( (None, 32)        128      dense_522[0][0]            
________________________________________________________________________________
dropout_238 (Dropout)     (None, 32)        0        batch_normalization_267[0][
________________________________________________________________________________
dense_523 (Dense)         (None, 8)         264      dropout_238[0][0]          
________________________________________________________________________________
batch_normalization_268 ( (None, 8)         32       dense_523[0][0]            
________________________________________________________________________________
dropout_239 (Dropout)     (None, 8)         0        batch_normalization_268[0][
________________________________________________________________________________
dense_524 (Dense)         (None, 8)         72       dropout_239[0][0]          
________________________________________________________________________________
batch_normalization_269 ( (None, 8)         32       dense_524[0][0]            
________________________________________________________________________________
dropout_240 (Dropout)     (None, 8)         0        batch_normalization_269[0][
________________________________________________________________________________
dense_525 (Dense)         (None, 8)         72       dropout_240[0][0]          
________________________________________________________________________________
batch_normalization_270 ( (None, 8)         32       dense_525[0][0]            
________________________________________________________________________________
dense_526 (Dense)         (None, 1)         9        batch_normalization_270[0][
________________________________________________________________________________
input_268 (InputLayer)    [(None, 1)]       0                                   
________________________________________________________________________________
add_31 (Add)              (None, 1)         0        dense_526[0][0]            
                                                     input_268[0][0]            
________________________________________________________________________________
dense_527 (Dense)         (None, 1)         2        add_31[0][0]               
================================================================================
Total params: 1,315
Trainable params: 1,201
Non-trainable params: 114
________________________________________________________________________________


