Model
Model: "model_155"
________________________________________________________________________________
Layer (type)              Output Shape      Param #  Connected to               
================================================================================
input_291 (InputLayer)    [(None, 20)]      0                                   
________________________________________________________________________________
dense_594 (Dense)         (None, 32)        672      input_291[0][0]            
________________________________________________________________________________
batch_normalization_315 ( (None, 32)        128      dense_594[0][0]            
________________________________________________________________________________
dropout_274 (Dropout)     (None, 32)        0        batch_normalization_315[0][
________________________________________________________________________________
dense_595 (Dense)         (None, 8)         264      dropout_274[0][0]          
________________________________________________________________________________
batch_normalization_316 ( (None, 8)         32       dense_595[0][0]            
________________________________________________________________________________
dropout_275 (Dropout)     (None, 8)         0        batch_normalization_316[0][
________________________________________________________________________________
dense_596 (Dense)         (None, 8)         72       dropout_275[0][0]          
________________________________________________________________________________
batch_normalization_317 ( (None, 8)         32       dense_596[0][0]            
________________________________________________________________________________
dropout_276 (Dropout)     (None, 8)         0        batch_normalization_317[0][
________________________________________________________________________________
dense_597 (Dense)         (None, 16)        144      dropout_276[0][0]          
________________________________________________________________________________
batch_normalization_318 ( (None, 16)        64       dense_597[0][0]            
________________________________________________________________________________
dense_598 (Dense)         (None, 1)         17       batch_normalization_318[0][
________________________________________________________________________________
input_292 (InputLayer)    [(None, 1)]       0                                   
________________________________________________________________________________
add_43 (Add)              (None, 1)         0        dense_598[0][0]            
                                                     input_292[0][0]            
________________________________________________________________________________
dense_599 (Dense)         (None, 1)         2        add_43[0][0]               
================================================================================
Total params: 1,427
Trainable params: 1,297
Non-trainable params: 130
________________________________________________________________________________


