Model
Model: "model_122"
________________________________________________________________________________
Layer (type)              Output Shape      Param #  Connected to               
================================================================================
input_225 (InputLayer)    [(None, 20)]      0                                   
________________________________________________________________________________
dense_416 (Dense)         (None, 16)        336      input_225[0][0]            
________________________________________________________________________________
batch_normalization_203 ( (None, 16)        64       dense_416[0][0]            
________________________________________________________________________________
dropout_195 (Dropout)     (None, 16)        0        batch_normalization_203[0][
________________________________________________________________________________
dense_417 (Dense)         (None, 8)         136      dropout_195[0][0]          
________________________________________________________________________________
batch_normalization_204 ( (None, 8)         32       dense_417[0][0]            
________________________________________________________________________________
dropout_196 (Dropout)     (None, 8)         0        batch_normalization_204[0][
________________________________________________________________________________
dense_418 (Dense)         (None, 16)        144      dropout_196[0][0]          
________________________________________________________________________________
batch_normalization_205 ( (None, 16)        64       dense_418[0][0]            
________________________________________________________________________________
dense_419 (Dense)         (None, 1)         17       batch_normalization_205[0][
________________________________________________________________________________
input_226 (InputLayer)    [(None, 1)]       0                                   
________________________________________________________________________________
add_10 (Add)              (None, 1)         0        dense_419[0][0]            
                                                     input_226[0][0]            
________________________________________________________________________________
dense_420 (Dense)         (None, 1)         2        add_10[0][0]               
================================================================================
Total params: 795
Trainable params: 713
Non-trainable params: 82
________________________________________________________________________________


