Model
Model: "model_89"
________________________________________________________________________________
Layer (type)              Output Shape      Param #  Connected to               
================================================================================
input_159 (InputLayer)    [(None, 20)]      0                                   
________________________________________________________________________________
dense_274 (Dense)         (None, 8)         168      input_159[0][0]            
________________________________________________________________________________
batch_normalization_127 ( (None, 8)         32       dense_274[0][0]            
________________________________________________________________________________
dropout_129 (Dropout)     (None, 8)         0        batch_normalization_127[0][
________________________________________________________________________________
dense_275 (Dense)         (None, 8)         72       dropout_129[0][0]          
________________________________________________________________________________
batch_normalization_128 ( (None, 8)         32       dense_275[0][0]            
________________________________________________________________________________
dropout_130 (Dropout)     (None, 8)         0        batch_normalization_128[0][
________________________________________________________________________________
dense_276 (Dense)         (None, 1)         9        dropout_130[0][0]          
________________________________________________________________________________
input_160 (InputLayer)    [(None, 1)]       0                                   
________________________________________________________________________________
Add (Add)                 (None, 1)         0        dense_276[0][0]            
                                                     input_160[0][0]            
________________________________________________________________________________
dense_277 (Dense)         (None, 1)         2        Add[0][0]                  
================================================================================
Total params: 315
Trainable params: 281
Non-trainable params: 34
________________________________________________________________________________


