Model
Model: "model_54"
________________________________________________________________________________
Layer (type)              Output Shape      Param #  Connected to               
================================================================================
input_89 (InputLayer)     [(None, 20)]      0                                   
________________________________________________________________________________
dense_134 (Dense)         (None, 32)        672      input_89[0][0]             
________________________________________________________________________________
batch_normalization_57 (B (None, 32)        128      dense_134[0][0]            
________________________________________________________________________________
dropout_59 (Dropout)      (None, 32)        0        batch_normalization_57[0][0
________________________________________________________________________________
dense_135 (Dense)         (None, 8)         264      dropout_59[0][0]           
________________________________________________________________________________
batch_normalization_58 (B (None, 8)         32       dense_135[0][0]            
________________________________________________________________________________
dropout_60 (Dropout)      (None, 8)         0        batch_normalization_58[0][0
________________________________________________________________________________
dense_136 (Dense)         (None, 1)         9        dropout_60[0][0]           
________________________________________________________________________________
input_90 (InputLayer)     [(None, 1)]       0                                   
________________________________________________________________________________
Add (Add)                 (None, 1)         0        dense_136[0][0]            
                                                     input_90[0][0]             
________________________________________________________________________________
dense_137 (Dense)         (None, 1)         2        Add[0][0]                  
================================================================================
Total params: 1,107
Trainable params: 1,025
Non-trainable params: 82
________________________________________________________________________________


