Model
Model: "model_170"
________________________________________________________________________________
Layer (type)              Output Shape      Param #  Connected to               
================================================================================
input_321 (InputLayer)    [(None, 20)]      0                                   
________________________________________________________________________________
dense_684 (Dense)         (None, 8)         168      input_321[0][0]            
________________________________________________________________________________
batch_normalization_375 ( (None, 8)         32       dense_684[0][0]            
________________________________________________________________________________
dropout_319 (Dropout)     (None, 8)         0        batch_normalization_375[0][
________________________________________________________________________________
dense_685 (Dense)         (None, 16)        144      dropout_319[0][0]          
________________________________________________________________________________
batch_normalization_376 ( (None, 16)        64       dense_685[0][0]            
________________________________________________________________________________
dropout_320 (Dropout)     (None, 16)        0        batch_normalization_376[0][
________________________________________________________________________________
dense_686 (Dense)         (None, 16)        272      dropout_320[0][0]          
________________________________________________________________________________
batch_normalization_377 ( (None, 16)        64       dense_686[0][0]            
________________________________________________________________________________
dropout_321 (Dropout)     (None, 16)        0        batch_normalization_377[0][
________________________________________________________________________________
dense_687 (Dense)         (None, 8)         136      dropout_321[0][0]          
________________________________________________________________________________
batch_normalization_378 ( (None, 8)         32       dense_687[0][0]            
________________________________________________________________________________
dense_688 (Dense)         (None, 1)         9        batch_normalization_378[0][
________________________________________________________________________________
input_322 (InputLayer)    [(None, 1)]       0                                   
________________________________________________________________________________
add_58 (Add)              (None, 1)         0        dense_688[0][0]            
                                                     input_322[0][0]            
________________________________________________________________________________
dense_689 (Dense)         (None, 1)         2        add_58[0][0]               
================================================================================
Total params: 923
Trainable params: 825
Non-trainable params: 98
________________________________________________________________________________


