Model
Model: "model_150"
________________________________________________________________________________
Layer (type)              Output Shape      Param #  Connected to               
================================================================================
input_281 (InputLayer)    [(None, 20)]      0                                   
________________________________________________________________________________
dense_564 (Dense)         (None, 16)        336      input_281[0][0]            
________________________________________________________________________________
batch_normalization_295 ( (None, 16)        64       dense_564[0][0]            
________________________________________________________________________________
dropout_259 (Dropout)     (None, 16)        0        batch_normalization_295[0][
________________________________________________________________________________
dense_565 (Dense)         (None, 16)        272      dropout_259[0][0]          
________________________________________________________________________________
batch_normalization_296 ( (None, 16)        64       dense_565[0][0]            
________________________________________________________________________________
dropout_260 (Dropout)     (None, 16)        0        batch_normalization_296[0][
________________________________________________________________________________
dense_566 (Dense)         (None, 16)        272      dropout_260[0][0]          
________________________________________________________________________________
batch_normalization_297 ( (None, 16)        64       dense_566[0][0]            
________________________________________________________________________________
dropout_261 (Dropout)     (None, 16)        0        batch_normalization_297[0][
________________________________________________________________________________
dense_567 (Dense)         (None, 8)         136      dropout_261[0][0]          
________________________________________________________________________________
batch_normalization_298 ( (None, 8)         32       dense_567[0][0]            
________________________________________________________________________________
dense_568 (Dense)         (None, 1)         9        batch_normalization_298[0][
________________________________________________________________________________
input_282 (InputLayer)    [(None, 1)]       0                                   
________________________________________________________________________________
add_38 (Add)              (None, 1)         0        dense_568[0][0]            
                                                     input_282[0][0]            
________________________________________________________________________________
dense_569 (Dense)         (None, 1)         2        add_38[0][0]               
================================================================================
Total params: 1,251
Trainable params: 1,137
Non-trainable params: 114
________________________________________________________________________________


