Model
Model: "model_159"
________________________________________________________________________________
Layer (type)              Output Shape      Param #  Connected to               
================================================================================
input_299 (InputLayer)    [(None, 20)]      0                                   
________________________________________________________________________________
dense_618 (Dense)         (None, 32)        672      input_299[0][0]            
________________________________________________________________________________
batch_normalization_331 ( (None, 32)        128      dense_618[0][0]            
________________________________________________________________________________
dropout_286 (Dropout)     (None, 32)        0        batch_normalization_331[0][
________________________________________________________________________________
dense_619 (Dense)         (None, 32)        1056     dropout_286[0][0]          
________________________________________________________________________________
batch_normalization_332 ( (None, 32)        128      dense_619[0][0]            
________________________________________________________________________________
dropout_287 (Dropout)     (None, 32)        0        batch_normalization_332[0][
________________________________________________________________________________
dense_620 (Dense)         (None, 8)         264      dropout_287[0][0]          
________________________________________________________________________________
batch_normalization_333 ( (None, 8)         32       dense_620[0][0]            
________________________________________________________________________________
dropout_288 (Dropout)     (None, 8)         0        batch_normalization_333[0][
________________________________________________________________________________
dense_621 (Dense)         (None, 16)        144      dropout_288[0][0]          
________________________________________________________________________________
batch_normalization_334 ( (None, 16)        64       dense_621[0][0]            
________________________________________________________________________________
dense_622 (Dense)         (None, 1)         17       batch_normalization_334[0][
________________________________________________________________________________
input_300 (InputLayer)    [(None, 1)]       0                                   
________________________________________________________________________________
add_47 (Add)              (None, 1)         0        dense_622[0][0]            
                                                     input_300[0][0]            
________________________________________________________________________________
dense_623 (Dense)         (None, 1)         2        add_47[0][0]               
================================================================================
Total params: 2,507
Trainable params: 2,329
Non-trainable params: 178
________________________________________________________________________________


