Model
Model: "model_152"
________________________________________________________________________________
Layer (type)              Output Shape      Param #  Connected to               
================================================================================
input_285 (InputLayer)    [(None, 20)]      0                                   
________________________________________________________________________________
dense_576 (Dense)         (None, 16)        336      input_285[0][0]            
________________________________________________________________________________
batch_normalization_303 ( (None, 16)        64       dense_576[0][0]            
________________________________________________________________________________
dropout_265 (Dropout)     (None, 16)        0        batch_normalization_303[0][
________________________________________________________________________________
dense_577 (Dense)         (None, 32)        544      dropout_265[0][0]          
________________________________________________________________________________
batch_normalization_304 ( (None, 32)        128      dense_577[0][0]            
________________________________________________________________________________
dropout_266 (Dropout)     (None, 32)        0        batch_normalization_304[0][
________________________________________________________________________________
dense_578 (Dense)         (None, 16)        528      dropout_266[0][0]          
________________________________________________________________________________
batch_normalization_305 ( (None, 16)        64       dense_578[0][0]            
________________________________________________________________________________
dropout_267 (Dropout)     (None, 16)        0        batch_normalization_305[0][
________________________________________________________________________________
dense_579 (Dense)         (None, 8)         136      dropout_267[0][0]          
________________________________________________________________________________
batch_normalization_306 ( (None, 8)         32       dense_579[0][0]            
________________________________________________________________________________
dense_580 (Dense)         (None, 1)         9        batch_normalization_306[0][
________________________________________________________________________________
input_286 (InputLayer)    [(None, 1)]       0                                   
________________________________________________________________________________
add_40 (Add)              (None, 1)         0        dense_580[0][0]            
                                                     input_286[0][0]            
________________________________________________________________________________
dense_581 (Dense)         (None, 1)         2        add_40[0][0]               
================================================================================
Total params: 1,843
Trainable params: 1,697
Non-trainable params: 146
________________________________________________________________________________


