Model
Model: "model_78"
________________________________________________________________________________
Layer (type)              Output Shape      Param #  Connected to               
================================================================================
input_137 (InputLayer)    [(None, 20)]      0                                   
________________________________________________________________________________
dense_230 (Dense)         (None, 8)         168      input_137[0][0]            
________________________________________________________________________________
batch_normalization_105 ( (None, 8)         32       dense_230[0][0]            
________________________________________________________________________________
dropout_107 (Dropout)     (None, 8)         0        batch_normalization_105[0][
________________________________________________________________________________
dense_231 (Dense)         (None, 8)         72       dropout_107[0][0]          
________________________________________________________________________________
batch_normalization_106 ( (None, 8)         32       dense_231[0][0]            
________________________________________________________________________________
dropout_108 (Dropout)     (None, 8)         0        batch_normalization_106[0][
________________________________________________________________________________
dense_232 (Dense)         (None, 1)         9        dropout_108[0][0]          
________________________________________________________________________________
input_138 (InputLayer)    [(None, 1)]       0                                   
________________________________________________________________________________
Add (Add)                 (None, 1)         0        dense_232[0][0]            
                                                     input_138[0][0]            
________________________________________________________________________________
dense_233 (Dense)         (None, 1)         2        Add[0][0]                  
================================================================================
Total params: 315
Trainable params: 281
Non-trainable params: 34
________________________________________________________________________________


