Model
Model: "model_160"
________________________________________________________________________________
Layer (type)              Output Shape      Param #  Connected to               
================================================================================
input_301 (InputLayer)    [(None, 20)]      0                                   
________________________________________________________________________________
dense_624 (Dense)         (None, 16)        336      input_301[0][0]            
________________________________________________________________________________
batch_normalization_335 ( (None, 16)        64       dense_624[0][0]            
________________________________________________________________________________
dropout_289 (Dropout)     (None, 16)        0        batch_normalization_335[0][
________________________________________________________________________________
dense_625 (Dense)         (None, 8)         136      dropout_289[0][0]          
________________________________________________________________________________
batch_normalization_336 ( (None, 8)         32       dense_625[0][0]            
________________________________________________________________________________
dropout_290 (Dropout)     (None, 8)         0        batch_normalization_336[0][
________________________________________________________________________________
dense_626 (Dense)         (None, 16)        144      dropout_290[0][0]          
________________________________________________________________________________
batch_normalization_337 ( (None, 16)        64       dense_626[0][0]            
________________________________________________________________________________
dropout_291 (Dropout)     (None, 16)        0        batch_normalization_337[0][
________________________________________________________________________________
dense_627 (Dense)         (None, 16)        272      dropout_291[0][0]          
________________________________________________________________________________
batch_normalization_338 ( (None, 16)        64       dense_627[0][0]            
________________________________________________________________________________
dense_628 (Dense)         (None, 1)         17       batch_normalization_338[0][
________________________________________________________________________________
input_302 (InputLayer)    [(None, 1)]       0                                   
________________________________________________________________________________
add_48 (Add)              (None, 1)         0        dense_628[0][0]            
                                                     input_302[0][0]            
________________________________________________________________________________
dense_629 (Dense)         (None, 1)         2        add_48[0][0]               
================================================================================
Total params: 1,131
Trainable params: 1,017
Non-trainable params: 114
________________________________________________________________________________


