Model
Model: "model_92"
________________________________________________________________________________
Layer (type)              Output Shape      Param #  Connected to               
================================================================================
input_165 (InputLayer)    [(None, 20)]      0                                   
________________________________________________________________________________
dense_286 (Dense)         (None, 8)         168      input_165[0][0]            
________________________________________________________________________________
batch_normalization_133 ( (None, 8)         32       dense_286[0][0]            
________________________________________________________________________________
dropout_135 (Dropout)     (None, 8)         0        batch_normalization_133[0][
________________________________________________________________________________
dense_287 (Dense)         (None, 8)         72       dropout_135[0][0]          
________________________________________________________________________________
batch_normalization_134 ( (None, 8)         32       dense_287[0][0]            
________________________________________________________________________________
dropout_136 (Dropout)     (None, 8)         0        batch_normalization_134[0][
________________________________________________________________________________
dense_288 (Dense)         (None, 1)         9        dropout_136[0][0]          
________________________________________________________________________________
input_166 (InputLayer)    [(None, 1)]       0                                   
________________________________________________________________________________
Add (Add)                 (None, 1)         0        dense_288[0][0]            
                                                     input_166[0][0]            
________________________________________________________________________________
dense_289 (Dense)         (None, 1)         2        Add[0][0]                  
================================================================================
Total params: 315
Trainable params: 281
Non-trainable params: 34
________________________________________________________________________________


