Model
Model: "model_178"
________________________________________________________________________________
Layer (type)              Output Shape      Param #  Connected to               
================================================================================
input_337 (InputLayer)    [(None, 20)]      0                                   
________________________________________________________________________________
dense_732 (Dense)         (None, 16)        336      input_337[0][0]            
________________________________________________________________________________
batch_normalization_407 ( (None, 16)        64       dense_732[0][0]            
________________________________________________________________________________
dropout_343 (Dropout)     (None, 16)        0        batch_normalization_407[0][
________________________________________________________________________________
dense_733 (Dense)         (None, 16)        272      dropout_343[0][0]          
________________________________________________________________________________
batch_normalization_408 ( (None, 16)        64       dense_733[0][0]            
________________________________________________________________________________
dropout_344 (Dropout)     (None, 16)        0        batch_normalization_408[0][
________________________________________________________________________________
dense_734 (Dense)         (None, 16)        272      dropout_344[0][0]          
________________________________________________________________________________
batch_normalization_409 ( (None, 16)        64       dense_734[0][0]            
________________________________________________________________________________
dropout_345 (Dropout)     (None, 16)        0        batch_normalization_409[0][
________________________________________________________________________________
dense_735 (Dense)         (None, 16)        272      dropout_345[0][0]          
________________________________________________________________________________
batch_normalization_410 ( (None, 16)        64       dense_735[0][0]            
________________________________________________________________________________
dense_736 (Dense)         (None, 1)         17       batch_normalization_410[0][
________________________________________________________________________________
input_338 (InputLayer)    [(None, 1)]       0                                   
________________________________________________________________________________
add_66 (Add)              (None, 1)         0        dense_736[0][0]            
                                                     input_338[0][0]            
________________________________________________________________________________
dense_737 (Dense)         (None, 1)         2        add_66[0][0]               
================================================================================
Total params: 1,427
Trainable params: 1,297
Non-trainable params: 130
________________________________________________________________________________


