Model
Model: "model_181"
________________________________________________________________________________
Layer (type)              Output Shape      Param #  Connected to               
================================================================================
input_343 (InputLayer)    [(None, 20)]      0                                   
________________________________________________________________________________
dense_750 (Dense)         (None, 16)        336      input_343[0][0]            
________________________________________________________________________________
batch_normalization_419 ( (None, 16)        64       dense_750[0][0]            
________________________________________________________________________________
dropout_352 (Dropout)     (None, 16)        0        batch_normalization_419[0][
________________________________________________________________________________
dense_751 (Dense)         (None, 16)        272      dropout_352[0][0]          
________________________________________________________________________________
batch_normalization_420 ( (None, 16)        64       dense_751[0][0]            
________________________________________________________________________________
dropout_353 (Dropout)     (None, 16)        0        batch_normalization_420[0][
________________________________________________________________________________
dense_752 (Dense)         (None, 16)        272      dropout_353[0][0]          
________________________________________________________________________________
batch_normalization_421 ( (None, 16)        64       dense_752[0][0]            
________________________________________________________________________________
dropout_354 (Dropout)     (None, 16)        0        batch_normalization_421[0][
________________________________________________________________________________
dense_753 (Dense)         (None, 16)        272      dropout_354[0][0]          
________________________________________________________________________________
batch_normalization_422 ( (None, 16)        64       dense_753[0][0]            
________________________________________________________________________________
dense_754 (Dense)         (None, 1)         17       batch_normalization_422[0][
________________________________________________________________________________
input_344 (InputLayer)    [(None, 1)]       0                                   
________________________________________________________________________________
add_69 (Add)              (None, 1)         0        dense_754[0][0]            
                                                     input_344[0][0]            
________________________________________________________________________________
dense_755 (Dense)         (None, 1)         2        add_69[0][0]               
================================================================================
Total params: 1,427
Trainable params: 1,297
Non-trainable params: 130
________________________________________________________________________________


