Model
Model: "model_9"
________________________________________________________________________________
Layer (type)              Output Shape      Param #  Connected to               
================================================================================
input_19 (InputLayer)     [(None, 20)]      0                                   
________________________________________________________________________________
dense_36 (Dense)          (None, 256)       5376     input_19[0][0]             
________________________________________________________________________________
batch_normalization_18 (B (None, 256)       1024     dense_36[0][0]             
________________________________________________________________________________
dropout_18 (Dropout)      (None, 256)       0        batch_normalization_18[0][0
________________________________________________________________________________
dense_37 (Dense)          (None, 32)        8224     dropout_18[0][0]           
________________________________________________________________________________
batch_normalization_19 (B (None, 32)        128      dense_37[0][0]             
________________________________________________________________________________
dropout_19 (Dropout)      (None, 32)        0        batch_normalization_19[0][0
________________________________________________________________________________
dense_38 (Dense)          (None, 1)         33       dropout_19[0][0]           
________________________________________________________________________________
input_20 (InputLayer)     [(None, 1)]       0                                   
________________________________________________________________________________
Add (Add)                 (None, 1)         0        dense_38[0][0]             
                                                     input_20[0][0]             
________________________________________________________________________________
dense_39 (Dense)          (None, 1)         2        Add[0][0]                  
================================================================================
Total params: 14,787
Trainable params: 14,209
Non-trainable params: 578
________________________________________________________________________________


