Model
Model: "model_186"
________________________________________________________________________________
Layer (type)              Output Shape      Param #  Connected to               
================================================================================
input_353 (InputLayer)    [(None, 20)]      0                                   
________________________________________________________________________________
dense_780 (Dense)         (None, 16)        336      input_353[0][0]            
________________________________________________________________________________
batch_normalization_439 ( (None, 16)        64       dense_780[0][0]            
________________________________________________________________________________
dropout_367 (Dropout)     (None, 16)        0        batch_normalization_439[0][
________________________________________________________________________________
dense_781 (Dense)         (None, 32)        544      dropout_367[0][0]          
________________________________________________________________________________
batch_normalization_440 ( (None, 32)        128      dense_781[0][0]            
________________________________________________________________________________
dropout_368 (Dropout)     (None, 32)        0        batch_normalization_440[0][
________________________________________________________________________________
dense_782 (Dense)         (None, 8)         264      dropout_368[0][0]          
________________________________________________________________________________
batch_normalization_441 ( (None, 8)         32       dense_782[0][0]            
________________________________________________________________________________
dropout_369 (Dropout)     (None, 8)         0        batch_normalization_441[0][
________________________________________________________________________________
dense_783 (Dense)         (None, 16)        144      dropout_369[0][0]          
________________________________________________________________________________
batch_normalization_442 ( (None, 16)        64       dense_783[0][0]            
________________________________________________________________________________
dense_784 (Dense)         (None, 1)         17       batch_normalization_442[0][
________________________________________________________________________________
input_354 (InputLayer)    [(None, 1)]       0                                   
________________________________________________________________________________
add_74 (Add)              (None, 1)         0        dense_784[0][0]            
                                                     input_354[0][0]            
________________________________________________________________________________
dense_785 (Dense)         (None, 1)         2        add_74[0][0]               
================================================================================
Total params: 1,595
Trainable params: 1,449
Non-trainable params: 146
________________________________________________________________________________


