Model
Model: "model_161"
________________________________________________________________________________
Layer (type)              Output Shape      Param #  Connected to               
================================================================================
input_303 (InputLayer)    [(None, 20)]      0                                   
________________________________________________________________________________
dense_630 (Dense)         (None, 32)        672      input_303[0][0]            
________________________________________________________________________________
batch_normalization_339 ( (None, 32)        128      dense_630[0][0]            
________________________________________________________________________________
dropout_292 (Dropout)     (None, 32)        0        batch_normalization_339[0][
________________________________________________________________________________
dense_631 (Dense)         (None, 8)         264      dropout_292[0][0]          
________________________________________________________________________________
batch_normalization_340 ( (None, 8)         32       dense_631[0][0]            
________________________________________________________________________________
dropout_293 (Dropout)     (None, 8)         0        batch_normalization_340[0][
________________________________________________________________________________
dense_632 (Dense)         (None, 16)        144      dropout_293[0][0]          
________________________________________________________________________________
batch_normalization_341 ( (None, 16)        64       dense_632[0][0]            
________________________________________________________________________________
dropout_294 (Dropout)     (None, 16)        0        batch_normalization_341[0][
________________________________________________________________________________
dense_633 (Dense)         (None, 16)        272      dropout_294[0][0]          
________________________________________________________________________________
batch_normalization_342 ( (None, 16)        64       dense_633[0][0]            
________________________________________________________________________________
dense_634 (Dense)         (None, 1)         17       batch_normalization_342[0][
________________________________________________________________________________
input_304 (InputLayer)    [(None, 1)]       0                                   
________________________________________________________________________________
add_49 (Add)              (None, 1)         0        dense_634[0][0]            
                                                     input_304[0][0]            
________________________________________________________________________________
dense_635 (Dense)         (None, 1)         2        add_49[0][0]               
================================================================================
Total params: 1,659
Trainable params: 1,513
Non-trainable params: 146
________________________________________________________________________________


