Model
Model: "model_3"
________________________________________________________________________________
Layer (type)              Output Shape      Param #  Connected to               
================================================================================
input_7 (InputLayer)      [(None, 20)]      0                                   
________________________________________________________________________________
dense_18 (Dense)          (None, 16)        336      input_7[0][0]              
________________________________________________________________________________
batch_normalization_9 (Ba (None, 16)        64       dense_18[0][0]             
________________________________________________________________________________
dropout_9 (Dropout)       (None, 16)        0        batch_normalization_9[0][0]
________________________________________________________________________________
dense_19 (Dense)          (None, 32)        544      dropout_9[0][0]            
________________________________________________________________________________
batch_normalization_10 (B (None, 32)        128      dense_19[0][0]             
________________________________________________________________________________
dropout_10 (Dropout)      (None, 32)        0        batch_normalization_10[0][0
________________________________________________________________________________
dense_20 (Dense)          (None, 32)        1056     dropout_10[0][0]           
________________________________________________________________________________
batch_normalization_11 (B (None, 32)        128      dense_20[0][0]             
________________________________________________________________________________
dropout_11 (Dropout)      (None, 32)        0        batch_normalization_11[0][0
________________________________________________________________________________
dense_21 (Dense)          (None, 128)       4224     dropout_11[0][0]           
________________________________________________________________________________
dense_22 (Dense)          (None, 1)         129      dense_21[0][0]             
________________________________________________________________________________
input_8 (InputLayer)      [(None, 1)]       0                                   
________________________________________________________________________________
add_3 (Add)               (None, 1)         0        dense_22[0][0]             
                                                     input_8[0][0]              
________________________________________________________________________________
dense_23 (Dense)          (None, 1)         2        add_3[0][0]                
================================================================================
Total params: 6,611
Trainable params: 6,449
Non-trainable params: 162
________________________________________________________________________________


