Model
Model: "model_66"
________________________________________________________________________________
Layer (type)              Output Shape      Param #  Connected to               
================================================================================
input_113 (InputLayer)    [(None, 20)]      0                                   
________________________________________________________________________________
dense_182 (Dense)         (None, 32)        672      input_113[0][0]            
________________________________________________________________________________
batch_normalization_81 (B (None, 32)        128      dense_182[0][0]            
________________________________________________________________________________
dropout_83 (Dropout)      (None, 32)        0        batch_normalization_81[0][0
________________________________________________________________________________
dense_183 (Dense)         (None, 64)        2112     dropout_83[0][0]           
________________________________________________________________________________
batch_normalization_82 (B (None, 64)        256      dense_183[0][0]            
________________________________________________________________________________
dropout_84 (Dropout)      (None, 64)        0        batch_normalization_82[0][0
________________________________________________________________________________
dense_184 (Dense)         (None, 1)         65       dropout_84[0][0]           
________________________________________________________________________________
input_114 (InputLayer)    [(None, 1)]       0                                   
________________________________________________________________________________
Add (Add)                 (None, 1)         0        dense_184[0][0]            
                                                     input_114[0][0]            
________________________________________________________________________________
dense_185 (Dense)         (None, 1)         2        Add[0][0]                  
================================================================================
Total params: 3,235
Trainable params: 3,041
Non-trainable params: 194
________________________________________________________________________________


