Model
Model: "model_153"
________________________________________________________________________________
Layer (type)              Output Shape      Param #  Connected to               
================================================================================
input_287 (InputLayer)    [(None, 20)]      0                                   
________________________________________________________________________________
dense_582 (Dense)         (None, 32)        672      input_287[0][0]            
________________________________________________________________________________
batch_normalization_307 ( (None, 32)        128      dense_582[0][0]            
________________________________________________________________________________
dropout_268 (Dropout)     (None, 32)        0        batch_normalization_307[0][
________________________________________________________________________________
dense_583 (Dense)         (None, 32)        1056     dropout_268[0][0]          
________________________________________________________________________________
batch_normalization_308 ( (None, 32)        128      dense_583[0][0]            
________________________________________________________________________________
dropout_269 (Dropout)     (None, 32)        0        batch_normalization_308[0][
________________________________________________________________________________
dense_584 (Dense)         (None, 16)        528      dropout_269[0][0]          
________________________________________________________________________________
batch_normalization_309 ( (None, 16)        64       dense_584[0][0]            
________________________________________________________________________________
dropout_270 (Dropout)     (None, 16)        0        batch_normalization_309[0][
________________________________________________________________________________
dense_585 (Dense)         (None, 8)         136      dropout_270[0][0]          
________________________________________________________________________________
batch_normalization_310 ( (None, 8)         32       dense_585[0][0]            
________________________________________________________________________________
dense_586 (Dense)         (None, 1)         9        batch_normalization_310[0][
________________________________________________________________________________
input_288 (InputLayer)    [(None, 1)]       0                                   
________________________________________________________________________________
add_41 (Add)              (None, 1)         0        dense_586[0][0]            
                                                     input_288[0][0]            
________________________________________________________________________________
dense_587 (Dense)         (None, 1)         2        add_41[0][0]               
================================================================================
Total params: 2,755
Trainable params: 2,577
Non-trainable params: 178
________________________________________________________________________________


