Model
Model: "model_109"
________________________________________________________________________________
Layer (type)              Output Shape      Param #  Connected to               
================================================================================
input_199 (InputLayer)    [(None, 20)]      0                                   
________________________________________________________________________________
dense_354 (Dense)         (None, 32)        672      input_199[0][0]            
________________________________________________________________________________
batch_normalization_167 ( (None, 32)        128      dense_354[0][0]            
________________________________________________________________________________
dropout_169 (Dropout)     (None, 32)        0        batch_normalization_167[0][
________________________________________________________________________________
dense_355 (Dense)         (None, 16)        528      dropout_169[0][0]          
________________________________________________________________________________
batch_normalization_168 ( (None, 16)        64       dense_355[0][0]            
________________________________________________________________________________
dropout_170 (Dropout)     (None, 16)        0        batch_normalization_168[0][
________________________________________________________________________________
dense_356 (Dense)         (None, 1)         17       dropout_170[0][0]          
________________________________________________________________________________
input_200 (InputLayer)    [(None, 1)]       0                                   
________________________________________________________________________________
Add (Add)                 (None, 1)         0        dense_356[0][0]            
                                                     input_200[0][0]            
________________________________________________________________________________
dense_357 (Dense)         (None, 1)         2        Add[0][0]                  
================================================================================
Total params: 1,411
Trainable params: 1,313
Non-trainable params: 98
________________________________________________________________________________


