Model
Model: "model_82"
________________________________________________________________________________
Layer (type)              Output Shape      Param #  Connected to               
================================================================================
input_145 (InputLayer)    [(None, 20)]      0                                   
________________________________________________________________________________
dense_246 (Dense)         (None, 8)         168      input_145[0][0]            
________________________________________________________________________________
batch_normalization_113 ( (None, 8)         32       dense_246[0][0]            
________________________________________________________________________________
dropout_115 (Dropout)     (None, 8)         0        batch_normalization_113[0][
________________________________________________________________________________
dense_247 (Dense)         (None, 8)         72       dropout_115[0][0]          
________________________________________________________________________________
batch_normalization_114 ( (None, 8)         32       dense_247[0][0]            
________________________________________________________________________________
dropout_116 (Dropout)     (None, 8)         0        batch_normalization_114[0][
________________________________________________________________________________
dense_248 (Dense)         (None, 1)         9        dropout_116[0][0]          
________________________________________________________________________________
input_146 (InputLayer)    [(None, 1)]       0                                   
________________________________________________________________________________
Add (Add)                 (None, 1)         0        dense_248[0][0]            
                                                     input_146[0][0]            
________________________________________________________________________________
dense_249 (Dense)         (None, 1)         2        Add[0][0]                  
================================================================================
Total params: 315
Trainable params: 281
Non-trainable params: 34
________________________________________________________________________________


