Model
Model: "model_134"
________________________________________________________________________________
Layer (type)              Output Shape      Param #  Connected to               
================================================================================
input_249 (InputLayer)    [(None, 20)]      0                                   
________________________________________________________________________________
dense_476 (Dense)         (None, 32)        672      input_249[0][0]            
________________________________________________________________________________
batch_normalization_239 ( (None, 32)        128      dense_476[0][0]            
________________________________________________________________________________
dropout_219 (Dropout)     (None, 32)        0        batch_normalization_239[0][
________________________________________________________________________________
dense_477 (Dense)         (None, 16)        528      dropout_219[0][0]          
________________________________________________________________________________
batch_normalization_240 ( (None, 16)        64       dense_477[0][0]            
________________________________________________________________________________
dropout_220 (Dropout)     (None, 16)        0        batch_normalization_240[0][
________________________________________________________________________________
dense_478 (Dense)         (None, 8)         136      dropout_220[0][0]          
________________________________________________________________________________
batch_normalization_241 ( (None, 8)         32       dense_478[0][0]            
________________________________________________________________________________
dense_479 (Dense)         (None, 1)         9        batch_normalization_241[0][
________________________________________________________________________________
input_250 (InputLayer)    [(None, 1)]       0                                   
________________________________________________________________________________
add_22 (Add)              (None, 1)         0        dense_479[0][0]            
                                                     input_250[0][0]            
________________________________________________________________________________
dense_480 (Dense)         (None, 1)         2        add_22[0][0]               
================================================================================
Total params: 1,571
Trainable params: 1,457
Non-trainable params: 114
________________________________________________________________________________


