Model
Model: "model_81"
________________________________________________________________________________
Layer (type)              Output Shape      Param #  Connected to               
================================================================================
input_143 (InputLayer)    [(None, 20)]      0                                   
________________________________________________________________________________
dense_242 (Dense)         (None, 8)         168      input_143[0][0]            
________________________________________________________________________________
batch_normalization_111 ( (None, 8)         32       dense_242[0][0]            
________________________________________________________________________________
dropout_113 (Dropout)     (None, 8)         0        batch_normalization_111[0][
________________________________________________________________________________
dense_243 (Dense)         (None, 8)         72       dropout_113[0][0]          
________________________________________________________________________________
batch_normalization_112 ( (None, 8)         32       dense_243[0][0]            
________________________________________________________________________________
dropout_114 (Dropout)     (None, 8)         0        batch_normalization_112[0][
________________________________________________________________________________
dense_244 (Dense)         (None, 1)         9        dropout_114[0][0]          
________________________________________________________________________________
input_144 (InputLayer)    [(None, 1)]       0                                   
________________________________________________________________________________
Add (Add)                 (None, 1)         0        dense_244[0][0]            
                                                     input_144[0][0]            
________________________________________________________________________________
dense_245 (Dense)         (None, 1)         2        Add[0][0]                  
================================================================================
Total params: 315
Trainable params: 281
Non-trainable params: 34
________________________________________________________________________________


