Model
Model: "model_7"
________________________________________________________________________________
Layer (type)              Output Shape      Param #  Connected to               
================================================================================
input_15 (InputLayer)     [(None, 34)]      0                                   
________________________________________________________________________________
dense_28 (Dense)          (None, 64)        2240     input_15[0][0]             
________________________________________________________________________________
batch_normalization_7 (Ba (None, 64)        256      dense_28[0][0]             
________________________________________________________________________________
dropout_4 (Dropout)       (None, 64)        0        batch_normalization_7[0][0]
________________________________________________________________________________
dense_29 (Dense)          (None, 32)        2080     dropout_4[0][0]            
________________________________________________________________________________
dropout_5 (Dropout)       (None, 32)        0        dense_29[0][0]             
________________________________________________________________________________
input_16 (InputLayer)     [(None, 1)]       0                                   
________________________________________________________________________________
dense_30 (Dense)          (None, 1)         33       dropout_5[0][0]            
________________________________________________________________________________
dense_31 (Dense)          (None, 1)         1        input_16[0][0]             
________________________________________________________________________________
multiply_7 (Multiply)     (None, 1)         0        dense_30[0][0]             
                                                     dense_31[0][0]             
================================================================================
Total params: 4,610
Trainable params: 4,481
Non-trainable params: 129
________________________________________________________________________________


