Model
Model: "model_114"
________________________________________________________________________________
Layer (type)              Output Shape      Param #  Connected to               
================================================================================
input_209 (InputLayer)    [(None, 20)]      0                                   
________________________________________________________________________________
dense_376 (Dense)         (None, 32)        672      input_209[0][0]            
________________________________________________________________________________
batch_normalization_179 ( (None, 32)        128      dense_376[0][0]            
________________________________________________________________________________
dropout_179 (Dropout)     (None, 32)        0        batch_normalization_179[0][
________________________________________________________________________________
dense_377 (Dense)         (None, 8)         264      dropout_179[0][0]          
________________________________________________________________________________
batch_normalization_180 ( (None, 8)         32       dense_377[0][0]            
________________________________________________________________________________
dropout_180 (Dropout)     (None, 8)         0        batch_normalization_180[0][
________________________________________________________________________________
dense_378 (Dense)         (None, 8)         72       dropout_180[0][0]          
________________________________________________________________________________
batch_normalization_181 ( (None, 8)         32       dense_378[0][0]            
________________________________________________________________________________
dense_379 (Dense)         (None, 1)         9        batch_normalization_181[0][
________________________________________________________________________________
input_210 (InputLayer)    [(None, 1)]       0                                   
________________________________________________________________________________
add_2 (Add)               (None, 1)         0        dense_379[0][0]            
                                                     input_210[0][0]            
________________________________________________________________________________
dense_380 (Dense)         (None, 1)         2        add_2[0][0]                
================================================================================
Total params: 1,211
Trainable params: 1,113
Non-trainable params: 98
________________________________________________________________________________


