Model
Model: "model_173"
________________________________________________________________________________
Layer (type)              Output Shape      Param #  Connected to               
================================================================================
input_327 (InputLayer)    [(None, 20)]      0                                   
________________________________________________________________________________
dense_702 (Dense)         (None, 8)         168      input_327[0][0]            
________________________________________________________________________________
batch_normalization_387 ( (None, 8)         32       dense_702[0][0]            
________________________________________________________________________________
dropout_328 (Dropout)     (None, 8)         0        batch_normalization_387[0][
________________________________________________________________________________
dense_703 (Dense)         (None, 16)        144      dropout_328[0][0]          
________________________________________________________________________________
batch_normalization_388 ( (None, 16)        64       dense_703[0][0]            
________________________________________________________________________________
dropout_329 (Dropout)     (None, 16)        0        batch_normalization_388[0][
________________________________________________________________________________
dense_704 (Dense)         (None, 8)         136      dropout_329[0][0]          
________________________________________________________________________________
batch_normalization_389 ( (None, 8)         32       dense_704[0][0]            
________________________________________________________________________________
dropout_330 (Dropout)     (None, 8)         0        batch_normalization_389[0][
________________________________________________________________________________
dense_705 (Dense)         (None, 16)        144      dropout_330[0][0]          
________________________________________________________________________________
batch_normalization_390 ( (None, 16)        64       dense_705[0][0]            
________________________________________________________________________________
dense_706 (Dense)         (None, 1)         17       batch_normalization_390[0][
________________________________________________________________________________
input_328 (InputLayer)    [(None, 1)]       0                                   
________________________________________________________________________________
add_61 (Add)              (None, 1)         0        dense_706[0][0]            
                                                     input_328[0][0]            
________________________________________________________________________________
dense_707 (Dense)         (None, 1)         2        add_61[0][0]               
================================================================================
Total params: 803
Trainable params: 705
Non-trainable params: 98
________________________________________________________________________________


