Model
Model: "model_40"
________________________________________________________________________________
Layer (type)              Output Shape      Param #  Connected to               
================================================================================
input_81 (InputLayer)     [(None, 20)]      0                                   
________________________________________________________________________________
dense_160 (Dense)         (None, 32)        672      input_81[0][0]             
________________________________________________________________________________
batch_normalization_80 (B (None, 32)        128      dense_160[0][0]            
________________________________________________________________________________
dropout_80 (Dropout)      (None, 32)        0        batch_normalization_80[0][0
________________________________________________________________________________
dense_161 (Dense)         (None, 16)        528      dropout_80[0][0]           
________________________________________________________________________________
batch_normalization_81 (B (None, 16)        64       dense_161[0][0]            
________________________________________________________________________________
dropout_81 (Dropout)      (None, 16)        0        batch_normalization_81[0][0
________________________________________________________________________________
dense_162 (Dense)         (None, 1)         17       dropout_81[0][0]           
________________________________________________________________________________
input_82 (InputLayer)     [(None, 1)]       0                                   
________________________________________________________________________________
Add (Add)                 (None, 1)         0        dense_162[0][0]            
                                                     input_82[0][0]             
________________________________________________________________________________
dense_163 (Dense)         (None, 1)         2        Add[0][0]                  
================================================================================
Total params: 1,411
Trainable params: 1,313
Non-trainable params: 98
________________________________________________________________________________


