Model
Model: "model_167"
________________________________________________________________________________
Layer (type)              Output Shape      Param #  Connected to               
================================================================================
input_315 (InputLayer)    [(None, 20)]      0                                   
________________________________________________________________________________
dense_666 (Dense)         (None, 8)         168      input_315[0][0]            
________________________________________________________________________________
batch_normalization_363 ( (None, 8)         32       dense_666[0][0]            
________________________________________________________________________________
dropout_310 (Dropout)     (None, 8)         0        batch_normalization_363[0][
________________________________________________________________________________
dense_667 (Dense)         (None, 16)        144      dropout_310[0][0]          
________________________________________________________________________________
batch_normalization_364 ( (None, 16)        64       dense_667[0][0]            
________________________________________________________________________________
dropout_311 (Dropout)     (None, 16)        0        batch_normalization_364[0][
________________________________________________________________________________
dense_668 (Dense)         (None, 8)         136      dropout_311[0][0]          
________________________________________________________________________________
batch_normalization_365 ( (None, 8)         32       dense_668[0][0]            
________________________________________________________________________________
dropout_312 (Dropout)     (None, 8)         0        batch_normalization_365[0][
________________________________________________________________________________
dense_669 (Dense)         (None, 8)         72       dropout_312[0][0]          
________________________________________________________________________________
batch_normalization_366 ( (None, 8)         32       dense_669[0][0]            
________________________________________________________________________________
dense_670 (Dense)         (None, 1)         9        batch_normalization_366[0][
________________________________________________________________________________
input_316 (InputLayer)    [(None, 1)]       0                                   
________________________________________________________________________________
add_55 (Add)              (None, 1)         0        dense_670[0][0]            
                                                     input_316[0][0]            
________________________________________________________________________________
dense_671 (Dense)         (None, 1)         2        add_55[0][0]               
================================================================================
Total params: 691
Trainable params: 609
Non-trainable params: 82
________________________________________________________________________________


