Model
Model: "model_183"
________________________________________________________________________________
Layer (type)              Output Shape      Param #  Connected to               
================================================================================
input_347 (InputLayer)    [(None, 20)]      0                                   
________________________________________________________________________________
dense_762 (Dense)         (None, 16)        336      input_347[0][0]            
________________________________________________________________________________
batch_normalization_427 ( (None, 16)        64       dense_762[0][0]            
________________________________________________________________________________
dropout_358 (Dropout)     (None, 16)        0        batch_normalization_427[0][
________________________________________________________________________________
dense_763 (Dense)         (None, 16)        272      dropout_358[0][0]          
________________________________________________________________________________
batch_normalization_428 ( (None, 16)        64       dense_763[0][0]            
________________________________________________________________________________
dropout_359 (Dropout)     (None, 16)        0        batch_normalization_428[0][
________________________________________________________________________________
dense_764 (Dense)         (None, 16)        272      dropout_359[0][0]          
________________________________________________________________________________
batch_normalization_429 ( (None, 16)        64       dense_764[0][0]            
________________________________________________________________________________
dropout_360 (Dropout)     (None, 16)        0        batch_normalization_429[0][
________________________________________________________________________________
dense_765 (Dense)         (None, 16)        272      dropout_360[0][0]          
________________________________________________________________________________
batch_normalization_430 ( (None, 16)        64       dense_765[0][0]            
________________________________________________________________________________
dense_766 (Dense)         (None, 1)         17       batch_normalization_430[0][
________________________________________________________________________________
input_348 (InputLayer)    [(None, 1)]       0                                   
________________________________________________________________________________
add_71 (Add)              (None, 1)         0        dense_766[0][0]            
                                                     input_348[0][0]            
________________________________________________________________________________
dense_767 (Dense)         (None, 1)         2        add_71[0][0]               
================================================================================
Total params: 1,427
Trainable params: 1,297
Non-trainable params: 130
________________________________________________________________________________


