Model
Model: "model_106"
________________________________________________________________________________
Layer (type)              Output Shape      Param #  Connected to               
================================================================================
input_193 (InputLayer)    [(None, 20)]      0                                   
________________________________________________________________________________
dense_342 (Dense)         (None, 32)        672      input_193[0][0]            
________________________________________________________________________________
batch_normalization_161 ( (None, 32)        128      dense_342[0][0]            
________________________________________________________________________________
dropout_163 (Dropout)     (None, 32)        0        batch_normalization_161[0][
________________________________________________________________________________
dense_343 (Dense)         (None, 16)        528      dropout_163[0][0]          
________________________________________________________________________________
batch_normalization_162 ( (None, 16)        64       dense_343[0][0]            
________________________________________________________________________________
dropout_164 (Dropout)     (None, 16)        0        batch_normalization_162[0][
________________________________________________________________________________
dense_344 (Dense)         (None, 1)         17       dropout_164[0][0]          
________________________________________________________________________________
input_194 (InputLayer)    [(None, 1)]       0                                   
________________________________________________________________________________
Add (Add)                 (None, 1)         0        dense_344[0][0]            
                                                     input_194[0][0]            
________________________________________________________________________________
dense_345 (Dense)         (None, 1)         2        Add[0][0]                  
================================================================================
Total params: 1,411
Trainable params: 1,313
Non-trainable params: 98
________________________________________________________________________________


